Assets/Configs/results/=ModelTrain/AiAgents/AiAgents-7872.onnx (onnx, 155723 bytes, 11 tensors)

discrete_act_size_vector f4 [1, 2]
00000000: 0000 4040 0000 8040
3.0 4.0

network_body._body_endoder.seq_layers.0.weight f4 [128, 22]
00000000: 031d 713e 6c10 c6bd 385e 8b3e 5405 ebbe
00000010: f515 4f3c 495e 473e 17e8 453e aa7a 9fbe
00000020: 01d3 a3bd 1b25 98bd 117a 95bd d127 27be
00000030: 363e 323e 3bc5 d43d ae1c 1ebe 613e 443d
00000040: ca34 aebd fe35 c23c 9676 c93e 906e 873e
00000050: 45f2 5f3c 6073 0abf 27b5 7e3d 3d48 b5bd
00000060: 4c79 9ebe a1d4 56bc 5dee 73be 5620 2f3e
00000070: 7f10 9bbe 5be0 32bc cff2 933e 5e77 133c
00000080: 1d4f 203e 1e43 253e d9e4 9a3e 8ed1 763e
00000090: e19a 203e cb50 933d a86b 9f3b a95d 6fbe
000000a0: e552 823e f468 b73d 3a09 0e3e 6c32 75bc
000000b0: 2011 f8be f3af ccbe a35c d3bd 14cf b9bc
000000c0: 04ee ccbe 20e7 613e 3332 283e 57a3 1abe
000000d0: 10a0 3a3d 6c1d 83bc 5e56 83bd 459e 823e
000000e0: 6b2d 423e 3a6a 40bc 6073 ba3d 1071 243e
000000f0: fd34 d8bd 3c69 46be 91ee 3abe 22e8 533c
00000100: 5032 debd 26bf adbd 0fee 493d 77fb 8f3d
00000110: 770f 873e 55d6 b5bd f216 a6ba fcb3 68bd
00000120: fcc9 8d3d 5110 3d3e dde0 d0bd 6555 85be
00000130: 2deb cc3d 0107 b03d 309d ccbd b2aa b2bd
00000140: a76e 7b3d 5094 aabe 6495 d13e 16ff 393e
00000150: bb25 f1bd bc27 d73e 4212 563e ac4f ec3d
00000160: 9a60 40bd 21cb f63d 14e5 de3d 5e32 be3e
00000170: 9a25 f7be 6182 0f3e aaa6 8ebe b36a 833e
00000180: 4fe1 423e 3679 31bd 6486 0ebf e2a7 4a3e
00000190: 2c1e 7f3e fa3b 093e 64f9 74be f5c7 41bc
000001a0: 3dce f8bb 139a 863e 4468 d13e 853d 7a3d
000001b0: feee aa3e 7027 c2bd a26e 143f 2450 123d
000001c0: 7885 7a3e e6c5 8d3e 8dd5 583e 8e40 423d
000001d0: 54ae 01bf 6c04 ea3e 15b7 463e e5bf 0bbf
000001e0: 94de 103c 488b ddbd e985 4f3d 2009 b73e
000001f0: 9303 2cbc 2b99 423e c232 91be 5a1f 793e
00000200: e9c8 c3ba 4ee3 2cbd 0ab7 193e c4af 94be
00000210: e7fe fe3d 2f5a 0dbf 7ab0 41be 4f4e 0e3e
00000220: 0af5 d3bc db35 4fbe 54fe 023f ffe1 04be
00000230: 879a 5d3e 1d04 53bd b50f 71be 4daa 99be
00000240: 2883 9b3d c140 d0bd 084a 813d 0d2b 3abe
00000250: f742 0ebf 3807 97bd a171 563e 2ecf bcbe
00000260: e719 8cbe e528 c3bd 802e 403d 807a bb3e
00000270: c275 c3be dd19 cabd 45d5 ecbd 7476 883e
00000280: a721 2e3e dcef 83bd 2447 343d fa38 84bd
00000290: f11e 4bbe c859 0c3d 9788 793d da82 1abe
000002a0: e155 493e d929 97be 1428 64be 04b7 cfbe
000002b0: 5931 27be 5cd8 76be 1ef6 e5bd d41b 033e
000002c0: 6d32 a43e bbba 61be 6e92 9d3d 5e6c a2bc
000002d0: 2b53 45bd f56c f7bd 015d 70be f8d4 adbe
000002e0: 13b2 74be 98b4 69bd ac25 983e 3c07 8e3d
000002f0: e8d7 373d 417b 6dbe 21b0 6f3e 81aa 98be
00000300: 45c5 93bd c4fc b83d 3f7c a63e 9cc7 70bd
00000310: e228 e63d 408f b13c 2b6a 53bc c6ba 12be
00000320: 4af1 55be 3480 a23d fd77 54bd 770e 26be
00000330: c386 85bd bf98 303d 68be 03bf 7551 c13e
00000340: 5b73 e93d 0497 efbd efa5 5cbe 173f db3c
00000350: a09e 22be 2008 56be 8e2b 78bc 7320 803d
00000360: 091e a8bd da15 25bd 572c b0bc 9ce2 5dbe
00000370: 282c 6c3d d44b e0bd 1ce8 d9bc 9f38 9e3e
00000380: 3494 eb3e ec98 f5bd 525c 23be 5bf5 13be
00000390: 4aac 8cbd d0e0 153f 511c ebbe 311b b2bc
000003a0: 3f0b 33be 2d9d 9bbe 06e3 c7bd 4117 64bd
000003b0: e849 bc3e 24cd a9bd 85e7 32be af1c a13d
000003c0: 5fc6 09bf 1107 9c3d c97b e6bd f567 b5be
000003d0: 2cb9 993e dbe1 6b3e 7152 db3d aff1 223e
000003e0: 0724 563e 19c8 0dbe e038 853d 4bfb 41be
000003f0: a9c1 c0bd 1bcd ffbe 0355 4a3e fd38 4c3e
0.23546223 -0.09671101 0.2722032 -0.45902503 0.012639512 0.1946956 0.19326816 -0.31148273
-0.0799923 -0.07428952 -0.07298673 -0.16323783 0.17406544 0.10389181 -0.15440628 0.04791105
-0.085061625 0.023707386 0.39348286 0.2645154 0.013668601 -0.540823 0.06218448 -0.08851669
-0.30951917 -0.013112218 -0.23821397 0.17102179 -0.30286023 -0.010917748 0.28896186 0.009000627
0.1565518 0.16138884 0.30252722 0.24103376 0.15684082 0.071931444 0.0048651285 -0.23375572
0.25453869 0.08955565 0.13870707 -0.014965635 -0.48450565 -0.3997799 -0.103204034 -0.02268175
-0.40025342 0.22060823 0.164254 -0.15101372 0.045562804 -0.01600524 -0.064129576 0.25511375
0.18962638 -0.011744076 0.09104037 0.16058755 -0.10556982 -0.19376081 -0.18255068 0.012933763
-0.1084944 -0.08483724 0.049299296 0.07030385 0.26378986 -0.08878771 -0.0012671633 -0.05681227
0.06923291 0.18463255 -0.10199139 -0.26041713 0.10005794 0.08595086 -0.09990919 -0.08723964
0.061384823 -0.33316278 0.40934289 0.18163714 -0.11774775 0.42022502 0.20905402 0.11538634
-0.046967126 0.120504625 0.10883537 0.37147802 -0.48270875 0.1401458 -0.2786153 0.25667343
0.19031261 -0.043328486 -0.55673814 0.19790605 0.24913853 0.13401785 -0.2392326 -0.011827459
-0.007592945 0.26289424 0.4089986 0.061093826 0.33385462 -0.09480178 0.5798131 0.03572096
0.24464977 0.27690047 0.21175213 0.047424845 -0.5065663 0.457065 0.19405778 -0.5458968
0.008842129 -0.108175814 0.050664816 0.3574915 -0.010498899 0.19003741 -0.28359038 0.24328366
-0.0014937195 -0.042208962 0.1501123 -0.2904035 0.124509625 -0.55215734 -0.18914977 0.1389706
-0.02587368 -0.20235388 0.51169324 -0.12976836 0.21640979 -0.051517595 -0.23541148 -0.30012742
0.075933754 -0.10168601 0.063129485 -0.18180485 -0.5557093 -0.07374424 0.20941783 -0.36876816
-0.27363512 -0.095292844 0.046919346 0.36616898 -0.3817578 -0.09868214 -0.115641154 0.26652873
0.17005025 -0.06442234 0.044013157 -0.0645618 -0.19836022 0.03426531 0.060921278 -0.15088978
0.19661666 -0.29524115 -0.22280914 -0.40569317 -0.16327418 -0.24105972 -0.11228584 0.12803584
0.32069722 -0.22043888 0.07693945 -0.019827064 -0.04817502 -0.12081329 -0.23472978 -0.33951545
-0.23896055 -0.057056993 0.2971624 0.069349736 0.04488364 -0.23191549 0.23407032 -0.29817584
-0.072153606 0.09032586 0.32516667 -0.058784112 0.112382665 0.021674752 -0.01290373 -0.14329061
-0.20892826 0.07934609 -0.051872242 -0.16216455 -0.065198444 0.04311442 -0.5146241 0.3775746
0.113989554 -0.11698726 -0.21547674 0.026763482 -0.15880823 -0.20901537 -0.015147103 0.06256189
-0.08208854 -0.040304042 -0.021505518 -0.21668476 0.0576593 -0.10951963 -0.026599936 0.30902573
0.46011508 -0.11992058 -0.15953186 -0.14449064 -0.06868799 0.5854616 -0.4592004 -0.021741481
-0.17484759 -0.30393353 -0.09760098 -0.05568624 0.36775136 -0.082910806 -0.1747113 0.07866799
-0.53818315 0.07618535 -0.11254079 -0.35430875 0.30024087 0.23035376 0.10709084 0.15912507
0.20912181 -0.13845862 0.06504989 -0.18943517 -0.09411938 -0.4996117 0.19758992 0.19943614

network_body._body_endoder.seq_layers.0.bias f4 [128]
00000000: 643e 62ba 64c7 87bb c31d 38bb fff0 0a3b
00000010: 9685 44bb 0c75 2cbb f2f2 483a 7983 43bb
00000020: 9be2 0f3b ee11 0e3b 3b1a 963b c9aa 66bb
00000030: 093c a2bb 492d 003b 7b7f 80bb 9fe1 06bb
00000040: f660 313b b2b7 e63a c1dc 9e3a b619 bdbb
00000050: 1d28 88bb 26c9 afbb 96d0 403c e35a ffb9
00000060: 02b7 d33b 920f c0b9 dbb4 b2ba 5aed a83b
00000070: 0c00 e13b 22e3 faba 5f29 0bba d5e8 123b
00000080: 11d8 05bb ee6b 6a3b d4d7 d8ba f531 e93b
00000090: 2e96 ab3b 5828 023b db50 bf3a ef9c 56b9
000000a0: 88ff 85bb ca22 823a 7c86 04bb 24af fbbb
000000b0: 08b2 18bc b129 333b f3fc 15ba 691c 48ba
000000c0: e375 e4bb 3121 153b fd48 dcbb de87 92bb
000000d0: cabe 86bb 43d8 45ba 80c4 87bb a028 c5ba
000000e0: 4e0b e03b 16fc 36b8 b011 453b b031 81bb
000000f0: 6c5e cdbb d0ae 0dbc 304e f03a 15e0 39bb
00000100: 0e9b 003a 2ad3 d339 86d7 40bc 9420 86bb
00000110: 01de 9dbb db2b 48bb 32e8 85bb cb78 963b
00000120: 4006 293a b42d 93bb f091 a43a 106e 61bb
00000130: 4cae c53a 7ce3 97bb 8a92 71bb 1008 18ba
00000140: ae50 d3bb ee2a 0fbb 7e45 6abb 76b1 a4bb
00000150: 88da 893b fe5c a8ba e2b6 63bb 91dc 75bb
00000160: 7b13 683a 9cc8 03bc b9d7 e1ba 65f9 3ebb
00000170: 2900 21ba 00c7 abb9 8694 07bb d47d 403b
00000180: ae64 f4bb 585c f3bb 33e3 9abb e127 c8ba
00000190: 5699 193c e26a e0b8 ce84 41bb f400 7eba
000001a0: d680 62ba 61ee 8dbb 9c0b 89bb 6599 c9ba
000001b0: fbde ebbb 7b0a a73a b484 c3ba df5d e23a
000001c0: ff86 cbb9 ffa2 88bb 1245 48bb 45fa 0cbc
000001d0: 1d4a 14bc 4cf4 8f3b bc68 6dbb dde9 fd3b
000001e0: 5ffe 5c3b c9d2 5abb 3baa 15bb 2859 2e3a
000001f0: d11b dcbb 02d8 393b 90ec 56bb b8ae bbba
-0.0008630513 -0.0041436423 -0.0028093911 0.0021200774 -0.002998685 -0.0026314883 0.0007665596 -0.0029833002
0.0021955136 0.0021678167 0.0045807636 -0.003519701 -0.0049510044 0.0019558242 -0.003921447 -0.0020581258
0.002706585 0.0017602353 0.0012120233 -0.0057708872 -0.0041551725 -0.005364555 0.011768481 -0.00048705106
0.006461025 -0.00036632695 -0.0013634221 0.0051552476 0.0068664607 -0.0019141177 -0.0005308594 0.002241661
-0.0020422975 0.0035769898 -0.0016543814 0.007116551 0.0052364087 0.0019860473 0.001459624 -0.00020467093
-0.0040892996 0.0009928581 -0.002022176 -0.0076807905 -0.00931979 0.0027338082 -0.00057215913 -0.0007633628
-0.006972061 0.002275538 -0.006722568 -0.004471763 -0.0041120993 -0.0007547179 -0.0041432977 -0.0015042014
0.006837285 -4.3626955e-05 0.0030070357 -0.003942691 -0.0062673595 -0.008647636 0.0018333849 -0.0028362323
0.00049059174 0.00040402386 -0.011770135 -0.004093239 -0.0048177247 -0.0030543718 -0.0040865177 0.0045920364
0.00064477697 -0.004491532 0.00125557 -0.0034397878 0.0015081852 -0.0046352725 -0.0036861026 -0.0005799541
-0.0064488268 -0.0021845656 -0.0035746987 -0.005026038 0.004206959 -0.0012845097 -0.0034746458 -0.00375155
0.00088530005 -0.0080434345 -0.0017230428 -0.002914035 -0.00061416865 -0.00032763928 -0.0020687892 0.0029371874
-0.007458291 -0.0074267797 -0.0047267913 -0.0015270674 0.009374937 -0.00010701061 -0.002952862 -0.0009689473
-0.0008640414 -0.0043313955 -0.004182292 -0.0015380798 -0.007198212 0.0012744212 -0.0014916868 0.0017270407
-0.00038819757 -0.0041698213 -0.0030558747 -0.008604591 -0.009050873 0.004393136 -0.0036225757 0.007748826
0.0033720953 -0.0033389798 -0.002283706 0.00066508586 -0.006717183 0.002835751 -0.003279481 -0.0014319038

network_body._body_endoder.seq_layers.2.weight f4 [128, 128]
00000000: a0fa 46be f846 483c 4b57 353e ae2a b4bc
00000010: 93b4 aabd aeb6 bbbc 5024 533d cb8d b6bc
00000020: e2d7 a7bd 29b5 71be 6f9b 983c 551b f73d
00000030: 8e72 e0bc 8435 6b3d 4cc2 a5bd 2dbc e8bd
00000040: 2603 003d 79eb 9ebb 6c2d 2abe 9d5f 74bd
00000050: 2759 993d bf52 b5bc 8335 423e 2732 3bbd
00000060: d1c5 98bd 39b9 823b c7fc 493d 3af0 90bb
00000070: d666 28bd 003b 88bd f579 7abd 426a 033e
00000080: c2fd 123d 41a0 e43d 8faa 8b3d 6301 c4bd
00000090: 01fc d8bc 7b4e 443c 2d68 893d 4c4c 05be
000000a0: 418a eb3d a759 89bd 2fd6 cfbd 40f7 ee3d
000000b0: d1f9 2dbe eef3 87bd 58db b13d d8c1 193e
000000c0: 5b21 793d 5813 293c 5b4d 05be 9000 90bc
000000d0: 55eb b23d 42e2 e63d e228 08bd d2a5 1cbd
000000e0: 364f eebd c45a 97bd 0463 5abc b47e e2bc
000000f0: 7c11 003d 67d8 223d 825d c1bd 70d3 923c
00000100: d301 f3bd 4b3f b5bd 6ec8 4f3d d639 4abc
00000110: 0e7c 613d e8ec a33d e88d 013d e641 173d
00000120: 01a1 85bd 70b0 4cbd 521b 453d b400 0bbd
00000130: 43ff 7c3d 1077 06bd 9b7d c0bd 198c 033e
00000140: 11ae ce3d 057c e9bd bd42 91bb d407 0c3e
00000150: e765 4fbd 797d 54bd cbb3 10be e5a0 d83d
00000160: 5fa7 c73d 195d 06be ef71 203e 984e 613d
00000170: 6ec0 febd dc55 c43d 7bb4 bebd 2224 3a3d
00000180: 6a08 403c 6ba9 b03d abca 663d 894b bb3d
00000190: 1d82 88bd cfa0 a43d d54b 393e 6563 5dbd
000001a0: c5b7 efbc 7260 70bd 3c6e 713d e750 973d
000001b0: 4ce6 283c c7eb ebbd e8ef f23a bfed a8bd
000001c0: 6903 06bd 1973 133e 1761 fb3a e5b3 18bd
000001d0: 324e e43d c456 94b8 312a 1bbe 3c74 b13d
000001e0: 83de c3bd 5105 5ebd dffc 89bc 434a 0fbe
000001f0: 2eb6 a13d 12f5 a3bd 6b8e 553e 0286 aa3c
00000200: 75d7 5f3d 2d36 013e 94ec 9d3d 4be4 a03d
00000210: 27ba 0ebe 98d0 e6b9 f058 e6ba fc6f 623d
00000220: 0933 0abc 1cfe acbd 5829 c7bc 41dc b83d
00000230: 0393 b6bc 0bc6 d1bd 3a1e 1d3e 9d7f 123e
00000240: 65f0 a1bd 2563 863c e811 fc3d d631 95bb
00000250: d4cf d53d eefe 10bd 0a63 c7bd 452f 9f3d
00000260: 93a2 ba3d 5ac3 2f3e 6b1a a7bd c929 88bc
00000270: f70c 00be c5c5 113e 84a3 9cbd cb92 aa3c
00000280: 8440 3e3e 76d9 353e f30d 013c 38e4 dc3c
00000290: 8806 93bd 188a 093d c54a d63d 628f 56bd
000002a0: 7143 cfbd 48af 823d f005 d93c 77ff a33d
000002b0: 2076 b0bd c9d5 11bd abe5 813d d067 0ebd
000002c0: c8a9 173d ec65 0abd 3331 223d 3c10 ea3d
000002d0: 5822 2d3d 1795 123e 575c a3bd b350 1cbe
000002e0: a35c d2bd 57dd 59bd 749f c4bd bf3f ab3c
000002f0: 04f5 123e dcdc 5a3d c9e4 e03c aff2 2b3d
00000300: d640 92bd 9336 b73c 2b50 d43c 1a2f 923d
00000310: ade5 a13d 49ad a63d b225 c73b 7441 9cbd
00000320: 0f4a 3a3d b780 e6bc 8e8b d83c 0053 b13b
00000330: f13b 76bd f6f7 373e c488 813d 3512 98bd
00000340: 32a5 223e 9527 ffba 3267 0ebe 2869 8bbd
00000350: 8157 f3bc cb15 25bd 163e 613d 4dc2 e73c
00000360: 4785 ab3d 7390 98bc dded f13d 226c 493e
00000370: a8b5 493c 2c53 a0bc cafa d03d 24b0 013c
00000380: 106b 4d3b 66ce 34bc 1820 94bd 8622 31bd
00000390: 668c 013e 4e0d 743d e78b 0c3d b93e 2dbe
000003a0: ceb3 26be 0d8a 64bd 830d 05be 62e5 4f3d
000003b0: b973 b93d af92 943d b9f4 083e 123e 7c3d
000003c0: 5280 26be e7c0 913b 0505 24be c982 6c3b
000003d0: 01a0 4abd ea4a 0f3d c4c4 f9bc fb45 07bd
000003e0: f4ad 033e cb3a 11be 3244 74bd 22b6 fbbd
000003f0: fc1a 883c 73ea d7bc 4c92 8d3c 67aa 423e
-0.19431543 0.0122239515 0.17709081 -0.021993008 -0.08335223 -0.022914257 0.051548302 -0.022284409
-0.08195473 -0.23604263 0.018628804 0.1206576 -0.027398374 0.057424083 -0.080937 -0.11364017
0.031253003 -0.004849848 -0.1661889 -0.059661496 0.074877076 -0.022134183 0.18965726 -0.045702126
-0.074596055 0.0039893654 0.049313333 -0.0044231685 -0.041113697 -0.06651878 -0.061151464 0.12833503
0.035886534 0.111633785 0.06819641 -0.09570577 -0.026487352 0.011981602 0.06709323 -0.13017386
0.11500979 -0.06706553 -0.10148274 0.11668253 -0.16989829 -0.06638323 0.086844146 0.15015352
0.060822826 0.010319553 -0.1301779 -0.017578393 0.08736292 0.11273624 -0.033242114 -0.038244076
-0.11636202 -0.07390359 -0.013329271 -0.027648307 0.031266674 0.03975716 -0.09441663 0.017923087
-0.11865582 -0.08849963 0.050728254 -0.012342891 0.05504995 0.08004171 0.031629473 0.03692808
-0.0652485 -0.04997295 0.048121758 -0.033936217 0.061766874 -0.03282839 -0.09398957 0.12846412
0.10091794 -0.11400608 -0.0044330047 0.13674861 -0.05063429 -0.051877473 -0.14131086 0.10577563
0.097487204 -0.13121451 0.15668462 0.055006593 -0.12439047 0.09586689 -0.09311768 0.045444615
0.011720756 0.08626064 0.056345623 0.091452666 -0.06665442 0.08038484 0.18095334 -0.054049868
-0.029262433 -0.058685727 0.05894302 0.07388478 0.010308813 -0.1151958 0.0018534632 -0.082484715
-0.032718096 0.14399375 0.0019178715 -0.037280936 0.11147727 -7.073351e-05 -0.15152813 0.08664748
-0.09563925 -0.05420429 -0.016844211 -0.13993172 0.07896076 -0.08005728 0.2085511 0.020815853
0.054648835 0.12618323 0.07711139 0.078560434 -0.13938199 -0.00044024433 -0.0017574113 0.055282578
-0.008435019 -0.08446905 -0.024311706 0.09026385 -0.022286898 -0.10242852 0.15343562 0.14306493
-0.0790718 0.016404698 0.12308103 -0.00455306 0.10440031 -0.03539937 -0.09735687 0.07772688
0.0911304 0.17164364 -0.08159336 -0.016621487 -0.12504946 0.142356 -0.07648376 0.02082195
0.18579298 0.17758736 0.007876861 0.026964292 -0.0717898 0.033578962 0.1046348 -0.052382834
-0.10120285 0.063810885 0.026492089 0.080077104 -0.086162806 -0.035604272 0.06342634 -0.034766972
0.03702715 -0.033788607 0.0395977 0.11428878 0.04226908 0.14314686 -0.07976597 -0.1526516
-0.10271575 -0.0531896 -0.09600726 0.02090442 0.14351279 0.053433284 0.027452843 0.041979488
-0.07141273 0.02236489 0.025917133 0.0713789 0.07905135 0.0813852 0.0060774917 -0.07629672
0.045480784 -0.028137548 0.026433732 0.0054115057 -0.06011576 0.17965683 0.06324914 -0.07425348
0.1588333 -0.0019466752 -0.13906553 -0.06807166 -0.029704811 -0.040303987 0.05499085 0.028290892
0.0837503 -0.018623566 0.11812947 0.19670156 0.012311377 -0.01957091 0.10204084 0.00791553
0.0031344332 -0.011035537 -0.07232684 -0.043245815 0.12651214 0.059583 0.03431311 -0.16918458
-0.16279528 -0.055795718 -0.12993436 0.050755866 0.090552755 0.0725454 0.13374604 0.061582632
-0.16259888 0.0044480446 -0.1601754 0.0036088696 -0.049468998 0.034983553 -0.030489333 -0.033025723
0.12859327 -0.14182584 -0.05963535 -0.122905985 0.01661443 -0.026356911 0.017281674 0.19010316

network_body._body_endoder.seq_layers.2.bias f4 [128]
00000000: e7c6 fdbb a93d 9b39 4c9d 043b 9c2a 7cbb
00000010: 8366 54bb 7c48 b03a b2e4 74ba 2d2e e7bb
00000020: f144 0dba d2fb a0bb 7da1 04bc ceed 7abb
00000030: eb48 cbbb 3010 c4bb 27a8 5eba 2775 cdbb
00000040: e5fa e63a d495 aa39 4169 1fbb 09b8 9bb9
00000050: 9b41 953b 5a95 6db8 d52d 38ba 791f 95bb
00000060: e42b d339 0ba4 00bc 9049 b13a 10ed 51bb
00000070: 0817 4ebb 9293 b6bb f633 e7b9 cf92 09bc
00000080: 9e74 d4bb 6628 9737 99df f4b9 34cd adba
00000090: 29c9 59bb ab8c 9e3a 7e33 783a c98f 7f3b
000000a0: c9f0 e1ba c688 0cbc 7c84 a63a d366 d73b
000000b0: 7c5a a0bb 02b5 e83b 4413 c9b9 0591 fe38
000000c0: d2c4 4ebb 9d71 2d3b 8ccc 5cbb 5295 07bb
000000d0: df68 03bb e221 cab9 289e 28ba fc10 06bb
000000e0: 6e48 63b9 88d2 27bb 7153 493a fe54 d7b9
000000f0: 0377 d8bb aee7 04bb a109 ae3a f0c0 e2ba
00000100: 4314 9fbb f321 3c3b 2576 85ba 4cad eeba
00000110: 3935 4c3a 217a af39 d16f b53b dbaa 68bb
00000120: 2692 89ba 076c 4bbb 36b3 e1ba 589e 2bbb
00000130: efee 913a 8fb3 0fba 9044 28ba 59f7 b0bb
00000140: 4d4e f43a b8d8 2bbb 1d3e cf3b f0c9 113b
00000150: f438 5c3b e3a7 783b ec84 8d3b 3425 6fbb
00000160: 93cd 06bb 7114 c1bb 3198 aa3a aba7 423b
00000170: 4c70 9a3a 58cd 8fbb 4fc9 01bb 4cd4 b73b
00000180: 8603 0f3b 4f73 88ba 6ccd b0bb 0833 7a39
00000190: bad5 1dbb 3f37 07bb f55f daba 24ef 9e3a
000001a0: b331 c038 8b64 5e3b 6358 01bb 3658 4abb
000001b0: d883 3aba eb4b 783b 39de 65bb a2b3 f23b
000001c0: e297 d0b8 f4f9 9139 beb8 90bb 0267 89bb
000001d0: 2eff 28ba ff11 9cbb 327c 473b b45c 6f3a
000001e0: d2ab 143a d000 24bb fbf9 c5bb 0a66 95bb
000001f0: 74cd a2bb 6b4a f8bb 8423 d93a 1b55 e7ba
-0.0077446583 0.00029609844 0.0020235358 -0.0038477546 -0.0032409735 0.0013449336 -0.00093419396 -0.007055065
-0.0005388996 -0.004912832 -0.008095142 -0.0038288715 -0.006203761 -0.005983375 -0.00084936846 -0.006270069
0.001762238 0.00032536557 -0.002432421 -0.0002970102 0.00455494 -5.6644298e-05 -0.00070258725 -0.004550871
0.00040277757 -0.007851611 0.0013525952 -0.003203217 -0.0031446833 -0.005571791 -0.00044098467 -0.008396818
-0.0064836284 1.8019415e-05 -0.000467059 -0.0013260008 -0.0033231473 0.0012096366 0.0009468122 0.0038995615
-0.0017237897 -0.008577531 0.0012704278 0.006573537 -0.004893599 0.007101656 -0.00038352062 0.00012138676
-0.003155042 0.0026465424 -0.0033691255 -0.0020688367 -0.0020051522 -0.00038553687 -0.00064322585 -0.00204569
-0.00021675389 -0.0025607664 0.0007679975 -0.0004107132 -0.006605984 -0.0020279693 0.0013278016 -0.0017299931
-0.0048547103 0.0028706759 -0.0010182305 -0.0018209605 0.0007789913 0.00033469594 0.005537011 -0.0035502228
-0.0010495826 -0.003103973 -0.0017219547 -0.002618691 0.001113383 -0.00054817734 -0.0006418908 -0.00540058
0.0018639058 -0.0026221704 0.006324543 0.0022245608 0.0033603283 0.0037941865 0.004318824 -0.003649068
-0.002056931 -0.0058923294 0.0013015327 0.0029701989 0.0011782735 -0.0043884926 -0.0019803827 0.0056100246
0.0021822168 -0.0010410341 -0.005395582 0.00023860869 -0.002408369 -0.0020632294 -0.0016660678 0.0012125713
9.164531e-05 0.003393444 -0.001973652 -0.0030875332 -0.0007114983 0.0037887048 -0.0035075082 0.007406668
-9.946503e-05 0.00027842785 -0.0044165542 -0.0041931877 -0.0006446716 -0.0047628875 0.0030439016 0.00091309403
0.0005671355 -0.0025024898 -0.006041763 -0.004559283 -0.0049683396 -0.0075772307 0.0016566371 -0.0017649265

network_body._body_endoder.seq_layers.4.weight f4 [128, 128]
00000000: 8252 c83c 839d d6bb 820e c43d 63b4 53bd
00000010: 07f7 a13d 26f8 30be 4d10 a23d 0519 a1bd
00000020: 2634 f7bc fe93 1e3c 721b 8abd 8fcc f6bc
00000030: 90b5 a73b b507 f1bd 709b ac3d d6e9 773c
00000040: b7db a63d f850 833c e9f7 04be a6a9 38bd
00000050: 9d02 0d3e ef52 533c d7d4 0f3d 41bb be3d
00000060: c5f5 2e3c ab35 263e 3fa7 85bd 2b2b 57bc
00000070: 40e4 a2bd 78bd 3bbd 137e c23c 52f8 c23b
00000080: c7da dbbc a968 0c3d 09c3 5dbd c0bf ecbd
00000090: d6a3 dabd 50e7 0dbe 05cd eebd 3c94 89bd
000000a0: 3ee1 7a3d f6cf 463d bc24 b9bd 6163 7d3c
000000b0: 2e93 113e aac7 403c 3019 843c 452c 463e
000000c0: 13de 843b 5733 fcbc 5d5d 6b3b ddc3 943c
000000d0: 6d6f 4cbe 8922 1bbe 1598 553d 1ed2 2d3c
000000e0: 12a6 903d 9e72 3d3c b4ba 423b a9d1 3abd
000000f0: cd05 1abc ae97 1bbe 511f a13d 5a39 053d
00000100: f051 043d e975 3d3d e729 abbd 7d7f d6bb
00000110: 93a7 8fbd db33 8f3b f840 75bd 2a34 903d
00000120: e5c6 0dbd 2789 963c 4445 b9bc d8f5 fdbd
00000130: 4432 68bc 53d9 b23d 7b0a 47bd b825 5ebd
00000140: b9c8 fb3b a195 8dbd 172d 2bbe 0833 27bd
00000150: 113e c53d 6190 c7bd a9f5 99bd 7d3d cfbd
00000160: e148 883d 184e 123e 6f12 2a3d 1935 e3bd
00000170: badf 85bd dc79 68bd ec60 33be d3e1 90bc
00000180: 3d58 3cbc 0c65 4cbe e664 113e fb45 953d
00000190: c768 c33d 79fd 1dbe 94d0 e2bd b7ff 81bd
000001a0: 37d6 1abd 4d32 f9bb c9be 94bb 2970 62bd
000001b0: aca8 a8bc 2922 fc3d 73ee 703d c3c5 26bd
000001c0: 0091 7abc efcb 49bc 8165 2d3b 6f46 ffbc
000001d0: 4250 5dbc 832b 23bd aa80 173e ed5b e63c
000001e0: 54de fd3d a068 97bc de9e 113d 5df2 7bbd
000001f0: d14f 0bbb 353e 3b3e ed2b 14be 0b40 2cbd
00000200: 6ee8 bebd 2247 c6bd 4ead 08be 7893 1e3a
00000210: e380 943a 9dea 623d e684 a33c 659e 1e3d
00000220: 7a95 873d 949f 60bd 4e36 553d 9361 b13b
00000230: 45b7 08bd 1356 20be f72a af3b c67b d2bc
00000240: db24 253d df89 e43d a0d3 7dbc 847d e33b
00000250: 04d9 d4bd 1d6b ec3d dfa9 9a3d 3337 4e3d
00000260: d8b4 20bd d24f 7cbc 5273 9d3d 2ce0 df3d
00000270: 9a99 893d 8a6f bebc 590f c43d e402 89bd
00000280: 49b9 0e3e 8be4 f63d 752f 73bd e952 a9bd
00000290: a704 15bd a023 22bc 879d 85bd 1337 ad3d
000002a0: 0d54 153d 3c85 b5bc 481e 963c 05b9 08be
000002b0: bb4c 25be e671 d4bc d156 77bc 7db3 803d
000002c0: eeeb 64bd 7517 20be f574 33bd 968d 513d
000002d0: 2641 bf3d bb30 703d 960d aabc 0d24 a13c
000002e0: 474c 0a3e 4729 2fbe 8a10 7b3d b1e4 fd3d
000002f0: 74cd 2e3e 6baf 81bd 71a6 903d e07d 083e
00000300: 0631 8e3c 9312 233d 8bd1 bf3d 03e4 a63d
00000310: db04 cd3c 5122 37be 0021 97bd 2b8d 0dbd
00000320: cb2a a83d 0a37 2b3e a8a7 aebc 763c cdbd
00000330: 9a1e ae3b 80e6 863d 5fdc 5dbd fc7d 10bc
00000340: 3c0d 26bd e1e5 cb3d e28c 6dbc 58ea be3d
00000350: add5 21bd 4b03 2e3e cc48 0dbd b794 6dbd
00000360: 277f 073e 192a 923b ef3c c0bc 0370 233e
00000370: 7c9d d0bd 0c5e e43d 5bd5 aa3d 8e6b b23d
00000380: 36a8 b9bd 4002 443c 84de 233d 202d aabd
00000390: 3149 36bc 5e04 8d3c e7d9 553c 8a8f c53b
000003a0: 7b79 f03d 4493 76bd e978 113b bb86 43bd
000003b0: 25be 52bc e567 9dbd 8a79 7c3d 72e3 d33b
000003c0: 1a35 c43d 9bda f13c 5be5 f7bc 0f65 10bd
000003d0: a77d 9f3d 9913 90bd 9d4a af3d bbcc 6b3d
000003e0: 7884 c63d 4a96 d1bc 7c0e 6bbd 5010 793c
000003f0: 9ba5 cfbd ce6f b33c cdd5 7b3c 6e09 fa3c
0.024453405 -0.0065495386 0.0957308 -0.051685702 0.07908445 -0.17282161 0.079132654 -0.078661
-0.030176234 0.009678839 -0.06743516 -0.030126838 0.0051180795 -0.11769048 0.08428085 0.015131434
0.08147376 0.01602982 -0.12985195 -0.045083664 0.13770528 0.012898191 0.03511509 0.093130596
0.010678713 0.1623141 -0.0652604 -0.013132851 -0.079536915 -0.04583499 0.023741757 0.0059500122
-0.02683772 0.0342795 -0.05414108 -0.11560011 -0.106757805 -0.1385777 -0.11660198 -0.067177266
0.061249964 0.04853817 -0.0904021 0.015465588 0.14216301 0.011766354 0.016125292 0.19352825
0.0040547936 -0.0307862 0.0035913803 0.018159801 -0.1996438 -0.15149893 0.05214699 0.010609178
0.070629254 0.011562971 0.0029713335 -0.045610104 -0.009400797 -0.1519458 0.07867301 0.032525398
0.032304704 0.046255026 -0.083576016 -0.0065459595 -0.07014384 0.0043701953 -0.059876412 0.070411995
-0.03461351 0.018375946 -0.022616036 -0.124004066 -0.0141721405 0.087328576 -0.04859398 -0.05423519
0.00768384 -0.06913305 -0.16716419 -0.04082015 0.09630979 -0.09744335 -0.07517559 -0.1011915
0.066545255 0.14287603 0.041521486 -0.11094112 -0.06536813 -0.05675684 -0.17517442 -0.017685806
-0.011495647 -0.19960421 0.14198646 0.07288738 0.09541469 -0.15428723 -0.11074939 -0.06347602
-0.037801947 -0.0076048733 -0.004539345 -0.055282746 -0.020588242 0.12311203 0.058821153 -0.040715944
-0.01529336 -0.012316688 0.0026458206 -0.031161515 -0.0135079045 -0.039836418 0.14795175 0.028120006
0.12395921 -0.018482506 0.0355519 -0.061510433 -0.002125729 0.18285449 -0.14469881 -0.042053264
-0.09321676 -0.09681536 -0.1334736 0.0006049196 0.0011329915 0.055399526 0.019960832 0.038725276
0.06620307 -0.054839686 0.052053742 0.005413243 -0.033377904 -0.15657835 0.005345698 -0.025693785
0.04031835 0.11159109 -0.01549235 0.006942453 -0.10392955 0.11543868 0.075519316 0.05034561
-0.039234966 -0.01539989 0.07688011 0.10931429 0.0671875 -0.023246545 0.0957324 -0.066900045
0.13937868 0.1205531 -0.05937143 -0.08267767 -0.03638139 -0.009896189 -0.065241866 0.0845777
0.03645711 -0.022158258 0.018324986 -0.1335183 -0.16142552 -0.025933217 -0.015096382 0.06284235
-0.055889063 -0.15633948 -0.04381271 0.051160417 0.09338598 0.058640223 -0.020758431 0.01967051
0.1350566 -0.1710559 0.06129507 0.12397135 0.17070562 -0.063322864 0.07062996 0.13329268
0.01735736 0.039812636 0.09366139 0.081489585 0.02502673 -0.17884184 -0.07379341 -0.034558456
0.08211287 0.16720214 -0.02132018 -0.10021298 0.0053137066 0.06586933 -0.05416524 -0.0088190995
-0.040539965 0.09955955 -0.014498921 0.09322041 -0.039510418 0.16993444 -0.034493253 -0.058003154
0.13232099 0.004460585 -0.023466555 0.15960698 -0.10186288 0.111507505 0.083414756 0.08711921
-0.09065287 0.011963427 0.04000713 -0.08309388 -0.011125849 0.017213996 0.01305244 0.006029074
0.117419206 -0.060199037 0.0022197312 -0.04773591 -0.012862717 -0.07685832 0.061639346 0.0064663226
0.09580441 0.029523185 -0.030260732 -0.035252627 0.07787638 -0.07034988 0.08559153 0.057568293
0.09693235 -0.025584359 -0.05738686 0.015201643 -0.101390086 0.021903899 0.015370798 0.030522075

network_body._body_endoder.seq_layers.4.bias f4 [128]
00000000: fff2 7db9 4d71 17ba bc75 ddba 53df 00bb
00000010: f87c 9c3a 6ee7 f5ba 2a88 b9bb 94c0 91ba
00000020: 8412 df3a 11ca 30bb f5fc 613b b413 f7ba
00000030: fcd6 52b9 4447 d93a 75aa 9e3b f50e 9eb8
00000040: c3ba 3cbb 01a8 d2bb 9d5d 7ebb 3969 e33a
00000050: 10ec acba f618 8bbb 8ca1 2c39 36e9 05bb
00000060: 32d7 88bb 00a3 01ba e793 b7b9 21a7 ec3a
00000070: 9ed7 eebb a2cf f9bb 02d7 3cba 5fd7 57bb
00000080: a91c faba e1b6 22bc c38d 8fba 01c6 7f39
00000090: d8cb f2b9 0aed b8bb ee57 8fba c890 2337
000000a0: 15ab 7bba 00a8 963a e25b 963a e05c 15bb
000000b0: 67f6 92bb cffd 083c 3d78 213b eead 06bb
000000c0: 9bf9 81bb 6fa9 43bb ba13 b7bb 1833 b4ba
000000d0: 201d 4136 d2b9 10bb 2aae 983b 6165 a2bb
000000e0: ccef 313a 5b49 aebb b7d4 023b 0202 abbb
000000f0: a223 a8bb 0235 b9bb 4be2 0e3c fa83 eeba
00000100: 3e24 3d3b c34b 9bbb fb31 9eb9 249f 9fbb
00000110: e558 90bb 68d6 ddba 31d7 f2ba 77e7 3c3b
00000120: a758 953a 8fe4 baba defc 8fbb 3973 ccbb
00000130: 7597 23ba 90c0 a3bb d3e7 1bbb b8e1 4fbb
00000140: 7f33 48bb dc98 5c38 361d ffb9 0367 f9ba
00000150: 5a49 2ebb 2f24 b3b8 d7e1 65ba 2f44 503b
00000160: ae28 293b a1ed 313b 3386 b6b9 2dc0 b03a
00000170: baa5 edba 3d85 ab3a e5d3 0abc 3541 6ebb
00000180: 4d74 32ba 922d bf3a b6a7 853a 127e 843a
00000190: 687f 52bb 51ff d5ba 1694 f7ba 99f4 eaba
000001a0: a2a4 f53b 3cb5 27bb 6a67 b8bb e645 ca3b
000001b0: 7370 443b 8408 a33b d7cd abbb 1535 4bbb
000001c0: c30c cabb 633a f83b 9286 7d39 a1d5 cdbb
000001d0: c765 05bc 05fb 4cba 555d 443b 0f19 eeba
000001e0: 8146 a23b df03 093a ccdc e5b7 0443 373c
000001f0: 2487 91bb 7109 39bb 515c 173b 8189 183b
-0.00024218483 -0.0005777076 -0.001689605 -0.0019664362 0.0011939099 -0.0018760988 -0.005661984 -0.0011120015
0.0017019068 -0.002697591 0.003448305 -0.0018850476 -0.00020107249 0.0016577025 0.0048420974 -7.536813e-05
-0.0028797842 -0.006428719 -0.0038813122 0.0017350084 -0.0013192911 -0.004244919 0.00016463379 -0.0020433194
-0.004176044 -0.00049452484 -0.00035014676 0.0018055179 -0.007288887 -0.0076236287 -0.00072036695 -0.0032934768
-0.0019082028 -0.009931297 -0.0010952282 0.00024392457 -0.00046309712 -0.0056434916 -0.0010936239 9.749267e-06
-0.00096003833 0.001149416 0.0011471475 -0.0022790954 -0.00448494 0.008361294 0.0024638318 -0.0020550448
-0.003966523 -0.002985563 -0.0055870684 -0.0013748137 2.8776194e-06 -0.0022083414 0.004659434 -0.004955933
0.00067877467 -0.0053188032 0.0019963214 -0.005218745 -0.005131201 -0.005652071 0.008720945 -0.0018197291
0.0028860713 -0.004739256 -0.00030173347 -0.004871266 -0.0044051283 -0.001692486 -0.0018527267 0.0028824487
0.0011394218 -0.001425879 -0.004394158 -0.0062393215 -0.00062405254 -0.0049973205 -0.00237893 -0.0031720232
-0.0030548272 5.259445e-05 -0.00048659154 -0.0019027892 -0.0026594014 -8.542125e-05 -0.00087693095 0.0031778922
0.00258116 0.0027149695 -0.0003481373 0.0013485007 -0.0018131055 0.0013085973 -0.008473371 -0.0036354784
-0.00068074913 0.0014585725 0.0010197076 0.0010108373 -0.0032119397 -0.00163267 -0.0018888738 -0.0017925679
0.0074964324 -0.0025590202 -0.0056275623 0.0061728833 0.0029974252 0.0049753804 -0.005243044 -0.003100698
-0.006166072 0.0075753196 0.00024178092 -0.00628157 -0.008141941 -0.0007819387 0.0029962857 -0.0018165427
0.0049522524 0.0005226712 -2.7401744e-05 0.011185411 -0.004441159 -0.0028234387 0.0023095796 0.0023275318

action_model._discrete_distribution.branches.0.weight f4 [3, 128]
00000000: 9dfa 6e3b eed4 11bc 7c9d 4cbc 6d9c 473b
00000010: 9bf9 063c 3d34 363c bb0b b7bb 94ca d5bc
00000020: c0b3 8fba 4f9f 5d3c e430 1a3c daa5 c33b
00000030: ab7b 163c 068a f5bb 56ec 103c 8e80 eb3a
00000040: 66ef 5a3c 4088 053c 7b64 153c d12b 85bc
00000050: 4d1c 67bb b257 bd3b 97cf 273c dbeb 943b
00000060: 0923 8d3c c3f5 873b 0036 723b a2ce 63bc
00000070: b772 e83b 0b32 973b 8c5c 10bc b554 3c3c
00000080: 9a6e 43b9 232e 99bb 03ed 6d3c 6ff9 e23b
00000090: f979 583c 1f9e ce3b 27b6 b8bb f8e8 cfbb
000000a0: ad6e 66bc 7be4 39bc 7782 973c d306 afba
000000b0: 267b 7bba 9b0f 1f3b 5ee2 f83b 2337 153c
000000c0: 036a 703a 41d8 043c 8dd0 403c 7080 ffbb
000000d0: f607 ba3b 9181 bbbb a716 843b 3138 223c
000000e0: 8115 f0ba e0ef afbb 1c7f be3b abfd 9eb9
000000f0: 4d69 073c 0205 813b d594 aebb cb8b f9bb
00000100: 6856 18bc 3d70 963c 5dbf b43c 8864 5b3c
00000110: 46e0 17bc db90 cebb e00f da3a 801b 513c
00000120: 8108 d6ba 92b0 df3c f8b1 67bb 83a2 4f3b
00000130: 2a41 123b 8364 fe3b 40ee 7e3c d37e 473c
00000140: 33ee a73a 6d96 f33a bd09 efbb 0049 72ba
00000150: 1f1a c23b 2122 63bc 4564 053b fa7d 873c
00000160: b9cc 73bc 6b1f febb cd26 1bbb 3431 a5bb
00000170: ee36 3c3b 13fe 7c3b 2c33 eabb ac9b a5bb
00000180: 28fa dc3a 6d4d adbc b081 eebb d16b 0bbc
00000190: a233 26bb deee 40bc 251d 793b 3f4f 9dbb
000001a0: 79b7 31bb e8f0 20bc 0b98 5e3c 0029 0f3c
000001b0: cfdd 50bb 7d70 57bc e504 d53a e4c5 cc3b
000001c0: 4326 3c3b e3b3 aa3c 6e39 91bb 440f 1e3a
000001d0: 7bcc 04bc 62b9 11bc 41bf 333b e06b e1bb
000001e0: d4e9 ee3b d17c 9ebc 605f 6ab6 768a f43c
000001f0: 93a7 11bb 8f1a ef3b aa49 c03b aa18 3a3b
00000200: 2812 17bc 2158 b63a 749b 4c3b 1300 b63c
00000210: 8c34 81bc 13ac 653a 02bf 08bc f9ea bdbb
00000220: cd75 403c d0e7 fc3b e6d6 71bc 8661 2ebc
00000230: a393 dd3b 1067 fb3b a09d 2ebb 750b ee3b
00000240: 8a7a aabb e665 2dbb 529d de3b 6a86 853b
00000250: 26f8 8638 e82e d43a 77ac 2a3b a9c9 a43b
00000260: 5381 5cbc 92b9 04bb 238d b5bb ed0d ee3a
00000270: c2cd b039 4ad3 1a3b 5f8d 7b3b fd22 ffbb
00000280: e45c 893c b845 95ba fb1f 7ebc 843e 403c
00000290: f225 38bc 1bf1 1c3c e1f2 423c ed1e d339
000002a0: 2534 983a 9759 38ba b0da 703b 235a 273c
000002b0: cb2d 89bc ecde f1bb b1d0 0abc d2f0 b93a
000002c0: bcbb 77bc ab61 8fbb 46f4 243c e1fe b5bb
000002d0: 3714 333a 4954 69bc 8003 7c3b 4a07 e43b
000002e0: dc63 543c 8909 abbb e123 533c 7b1f dc3b
000002f0: 5728 6bbc 875f 343b fc5a 3f3b 9d9d 1abc
00000300: c6bb 7cbb 98e9 b0ba 41fb f5bb ce42 87bb
00000310: 21df c8bb 1b0a 443c 6522 923a 1026 99bb
00000320: 3ea4 2d3c e7c0 ddbb 74c0 e6bb 0584 3c3b
00000330: df77 593c 07ba 1e3c 1cc4 113c 2801 a13c
00000340: cc78 e43b 1006 f5bb 84f8 efbb 7c5b c9ba
00000350: 9888 56bc af84 a7bb e4e1 0b3c 79a6 d1bb
00000360: b2d4 24bb 92d8 4a3c 99eb 273b 4486 043c
00000370: 7c6e 3fbc 9a65 893c 85b3 dc3b e928 a1bb
00000380: 5cfe e33b ba22 9ebb 98aa 7f3b 5c45 f13b
00000390: e534 abbb ff0f 963b a7c3 19bc 4185 4a3c
000003a0: ceee 4dba 4f7c 28bc 786f 913b 93a2 92bc
000003b0: e3fc 5a3c 81f0 5c3c a095 66bc 3e14 153b
000003c0: bfad 5d3b ec30 6a3a 771d dd3b 716f 1fbc
000003d0: e2ce 8cbc 4fc5 98ba 5655 f43b 6930 623a
000003e0: 30e5 f1bb f481 2dbb 33ba 573c d359 563b
000003f0: e5fc 71bc ba85 893b 5ca8 493b 6e27 423c
0.0036465295 -0.008900864 -0.012488719 0.0030458227 0.0082382215 0.011120853 -0.005586115 -0.026097573
-0.0010963604 0.013526752 0.0094110705 0.005970699 0.009184758 -0.0074932603 0.008845409 0.001796739
0.013362741 0.00815016 0.009118195 -0.016256245 -0.0035264671 0.0057782764 0.010242364 0.0045447177
0.01722862 0.00414917 0.0036958456 -0.013904246 0.007093753 0.00461412 -0.008811127 0.011494805
-0.00018637851 -0.0046746894 0.01452184 0.0069267075 0.013212674 0.0063054706 -0.0056369486 -0.0063449107
-0.014064473 -0.011345978 0.018494828 -0.0013353474 -0.00095932407 0.0024270776 0.0075953444 0.009107384
0.00091710704 0.0081082 0.011768472 -0.0077972934 0.0056772185 -0.0057222326 0.0040310207 0.009901092
-0.0018316956 -0.0053691715 0.0058134925 -0.00030325106 0.008264852 0.0039373646 -0.0053278008 -0.0076155416
-0.009297945 0.018364066 0.022063905 0.013390668 -0.00926978 -0.006303889 0.0016636811 0.012762904
-0.0016329439 0.027305875 -0.003535388 0.0031682558 0.0022316673 0.007763447 0.015559733 0.012176233
0.0012812078 0.0018584259 -0.007294862 -0.0009242445 0.005923524 -0.013863117 0.0020353955 0.016539562
-0.014880353 -0.00775521 -0.002367425 -0.005041266 0.0028719264 0.0038603588 -0.0071472134 -0.005053958
0.001685922 -0.021155084 -0.0072786435 -0.008509592 -0.0025360365 -0.0117757 0.0038011756 -0.0048007066
-0.0027117415 -0.0098230615 0.013586055 0.0087378025 -0.003187049 -0.013149378 0.0016252069 0.0062491763
0.002870933 0.02083773 -0.004431895 0.00060294964 -0.008105393 -0.008894296 0.0027427229 -0.006879315
0.007291058 -0.019346626 -3.4924233e-06 0.02985118 -0.0022225126 0.007296867 0.0058681564 0.0028396049
-0.009220637 0.0013911763 0.0031220587 0.022216832 -0.015772127 0.0008761298 -0.008346321 -0.005795833
0.011746836 0.007718064 -0.014760708 -0.010643369 0.0067619844 0.007672198 -0.0026644245 0.0072645494
-0.005202596 -0.0026458441 0.0067936564 0.0040748613 6.435839e-05 0.0016188296 0.0026042738 0.0050289226
-0.013458568 -0.002025221 -0.0055405064 0.0018162109 0.00033722637 0.0023624473 0.0038383824 -0.0077861534
0.016767927 -0.0011388576 -0.015510554 0.011733655 -0.011239516 0.009578968 0.011898727 0.00040268098
0.001161222 -0.0007032393 0.0036751442 0.010214361 -0.016745469 -0.0073813107 -0.0084726075 0.001418615
-0.015120443 -0.0043756566 0.010068005 -0.0055540656 0.00068313204 -0.014241287 0.0038454235 0.0069588767
0.012963261 -0.0052196425 0.012886972 0.00671762 -0.0143528795 0.002752276 0.0029198518 -0.009436992
-0.003856407 -0.0013497351 -0.0075067584 -0.004127837 -0.0061301147 0.0119653 0.0011149166 -0.004673727
0.01059824 -0.0067673805 -0.007041985 0.0028765213 0.013273208 0.009687907 0.008896854 0.019653872
0.006972408 -0.0074775293 -0.0073233265 -0.0015362347 -0.01309409 -0.0051122527 0.008537743 -0.006398019
-0.002515119 0.012380736 0.0025622605 0.008088652 -0.011684056 0.01677208 0.0067352676 -0.004918207
0.0069578122 -0.004825917 0.0039011594 0.0073630046 -0.0052248114 0.0045795436 -0.009385026 0.012360872
-0.0007855714 -0.010283544 0.004438337 -0.017899787 0.013365957 0.013485075 -0.014073759 0.002274766
0.0033825485 0.00089336815 0.0067478972 -0.00973116 -0.017188493 -0.0011655482 0.007456462 0.00086284295
-0.0073820576 -0.0026475163 0.013166952 0.0032707348 -0.014769767 0.0041968497 0.0030770516 0.011850221

action_model._discrete_distribution.branches.0.bias f4 [3]
00000000: 0c08 cbbb 2bd3 783b 2d2a 8b39
-0.0061960276 0.0037967663 0.0002654357

action_model._discrete_distribution.branches.1.weight f4 [4, 128]
00000000: d27c 8eb9 e526 8c3c 9d44 44ba 1a49 85bb
00000010: 3e52 323b cff1 8a3b f468 4cba b3e8 03bb
00000020: 7c04 2c3a 427e 34b9 8962 c0bc 7490 f5bb
00000030: bb39 aa3b 6ac3 c33a 6781 99bc f4ea b53a
00000040: 02c2 63bc 65b7 bb3b 885f 0fbb 4122 143b
00000050: af6f 843c 4c62 083c 0503 603c 89e2 76bb
00000060: 266c a33c 785f 653c 700f 40bb 43b3 7e3a
00000070: 961d 25bb e95f 223a f2ee a6bc b938 7cbb
00000080: db12 6abc 02b6 eabb 16a3 00bc 3a93 41bc
00000090: ee14 e6bc 103e 7d3a d1a1 653c 31cc 7d3b
000000a0: 1402 bbbb 1908 ff3b 05d2 b93a bed6 6c3b
000000b0: c68c 0e3c 6178 0fbc 84f8 d7bb 8f3a 94bc
000000c0: 9fed 81bc 4c92 4ebb 4deb 55bc d044 f8bb
000000d0: 704e 45bc ff39 71bc e82f 58bc e41f 0e3c
000000e0: f026 4dbc fafd b2bb 243c a23b b532 c2bb
000000f0: 1a81 24bc 4202 9b3b 6a23 843c a746 72bb
00000100: 1594 813b 65ad 3cbc 40af a03b c2dd a5bb
00000110: 4a9f f3bb 27c9 51bc 7212 763c 36e4 19bc
00000120: 3ac9 65bc ecb5 083c 5ed7 11bb d6e5 e9bb
00000130: 64c5 2c3b 39ad 05bc 4e3d 89bb efe5 e73b
00000140: e1d8 003b e987 933c 93e3 f83b 29a9 e23a
00000150: 8dda 9ebb 9916 f0bb ea53 b639 e854 093b
00000160: 7f50 803b b988 efbb 12ce 77bc 1bae e6ba
00000170: 6cea 4b3a 0a0c 943b fa58 9539 3482 18bb
00000180: 3811 26ba d6b5 313c 3a3d 90bb 51de 843a
00000190: 47b6 abba 8b54 a3bc 6bd6 dc3a 3806 003c
000001a0: 9717 fbba 0d38 92bb d9d7 edba 9e9b a3bc
000001b0: 386f aa3b ea44 a33b a125 58bb e78f c13a
000001c0: 6bf5 00bc 6674 05bc 5c78 d13b 6f33 42bc
000001d0: c5ac 4c3c e2d9 d8bb c1de 2cbb d8f6 053c
000001e0: 1bbe 5dbc d841 bebb 4cbe feba 6f70 f2bb
000001f0: a001 163b d656 df3b 3884 36bc 53e4 beba
00000200: 0f37 77bb 5704 5abc 8cf7 34bc 6ef3 9839
00000210: c9f4 39bb cf2a 863c 87ca ffbb 76c5 20bb
00000220: c86f 96bb 4291 843a b3c3 b6bb 45d0 f8bb
00000230: 7d10 a13c 3d4a 243b 7e5f b63b c5ca 943b
00000240: 99d4 843b 97ec 2d39 6880 0ebc ff98 913b
00000250: ddcd 54bc c2be e73b 4a28 60bc 912b 043a
00000260: 4f5b 19bc b158 133c ab2f 663a 0799 c93c
00000270: 42bb 103b 921e a3b9 fd4f 423c bbfc 57bc
00000280: 8b1b bfb9 9483 9abb d14c 91bc 4d53 193c
00000290: dca8 0e3c 036e 8c3b 08fd 61bc bbae b8bb
000002a0: 27f9 95bc 8817 fcb8 19d1 1bbb 2461 553c
000002b0: 63f7 9e3c e048 fcbb 55ed e2ba e56e 89bb
000002c0: d712 76bc 9447 2e3a 1673 0bbc 1978 173c
000002d0: 06d1 12bc c376 983a 9e6c cc3b fdec 963a
000002e0: 9813 63bc c051 ba3b 21e0 ac3b 4cd9 5a39
000002f0: 18b5 4abc 3f1e 29bb 7eb4 713c 9b11 6ebb
00000300: 7eb2 71bc 18f6 e3bb 0a39 7dbb 8e96 b1bb
00000310: 83f0 30bb 027a ccbb 1b22 353b 75d4 23bc
00000320: 9644 66ba cf76 773c c1af 4bbb c1d0 323a
00000330: 5345 c2bb 885d c6bb 05bf 3f3b 3f8c 36bb
00000340: da2f 1ebc 12ed 35bc c2f8 003c a569 22bb
00000350: 5b95 c93b 6bfd 0fb8 780e 67ba 6f33 373b
00000360: d121 6f3c 4c25 7db9 3d4f 0d3c e2be e939
00000370: 8359 33bc b23f a43b 39ab 6ebb 1fe8 adba
00000380: 8c16 313b f5af 06bb 6989 483b 8864 8e3c
00000390: 6d8b 7a3b 81a2 81bb c498 24bb ce50 303c
000003a0: 34a9 cd3b cc78 26bc 8a41 19bc b771 fdbb
000003b0: 26f0 c839 1bcc 8b3a 95bb e4bb 87a3 7a3b
000003c0: a371 01bc 9431 c63b 2660 823b 4b34 53bc
000003d0: de40 2ebb 7235 5d3a 46b7 7fbc 63b8 ff3b
000003e0: 9ab4 b8bb 5b8c 7abc eb41 c2bb a4fe a8bc
000003f0: b240 733b 8957 d0bb e9c6 a23b fec6 71bb
-0.0002717735 0.01710839 -0.0007487031 -0.0040675523 0.0027209665 0.0042402516 -0.00077976217 -0.0020127713
0.00065619475 -0.00017213172 -0.023484485 -0.007494027 0.0051948703 0.0014935557 -0.018738462 0.0013879226
-0.013901236 0.0057286494 -0.002187701 0.0022603425 0.016166536 0.008324217 0.013672595 -0.0037671647
0.01994903 0.013999812 -0.0029306076 0.0009716043 -0.0025194637 0.00061941013 -0.02037761 -0.0038485958
-0.014286722 -0.0071628103 -0.007851383 -0.011814887 -0.028086152 0.0009660432 0.014015631 0.0038726444
-0.005707035 0.0077829477 0.001417697 0.0036138739 0.008700555 -0.008756728 -0.0065909047 -0.01809433
-0.015860377 -0.0031520305 -0.013056588 -0.0075765625 -0.012042627 -0.0147233 -0.0131950155 0.0086745955
-0.01252149 -0.0054624053 0.004951017 -0.005926455 -0.010040546 0.0047304938 0.016130168 -0.0036968382
0.0039544203 -0.01151595 0.004903704 -0.005061836 -0.00743476 -0.012804306 0.015019046 -0.009392789
-0.014025027 0.008344155 -0.0022253613 -0.0071379943 0.0026362771 -0.008158975 -0.0041882163 0.007076971
0.001966052 0.018009143 0.0075954883 0.0017292845 -0.0048478306 -0.0073269126 0.00034776266 0.002095515
0.003915846 -0.00731 -0.015124815 -0.0017599495 0.0007778767 0.0045180367 0.00028485787 -0.0023270966
-0.0006334963 0.010846576 -0.00440183 0.0010137056 -0.0013100588 -0.019937774 0.001684857 0.007813983
-0.0019156811 -0.004462248 -0.0018145993 -0.019971665 0.0052012466 0.0049825804 -0.0032981413 0.0014767618
-0.007871012 -0.008145427 0.006392522 -0.011853083 0.012492363 -0.0066177705 -0.002637789 0.008176528
-0.013534094 -0.005806189 -0.0019435375 -0.007398657 0.0022889152 0.0068157716 -0.011139922 -0.0014563896
-0.0037722026 -0.013306699 -0.011045348 0.00029173068 -0.0028374663 0.016377835 -0.0078061256 -0.0024531758
-0.004590962 0.0010114091 -0.0055775284 -0.007593187 0.019661183 0.0025068664 0.005565583 0.0045407736
0.004053664 0.00016586702 -0.008697607 0.0044432874 -0.012988535 0.0070723007 -0.013681481 0.00050418923
-0.009360149 0.008993314 0.0008780907 0.024609102 0.002208427 -0.0003111256 0.011859891 -0.013182814
-0.0003645088 -0.0047153924 -0.017736824 0.009358239 0.008707251 0.0042855754 -0.0137932375 -0.005636064
-0.018307282 -0.000120206794 -0.0023775755 0.013023648 0.019405073 -0.007699117 -0.0017313162 -0.004194128
-0.01501914 0.0006648239 -0.008511325 0.009244942 -0.008960968 0.0011632073 0.006238534 0.001151472
-0.013859652 0.005686015 0.0052757417 0.0002087105 -0.012372278 -0.0025805382 0.014752505 -0.0036326412
-0.0147520285 -0.006956827 -0.0038638734 -0.005419559 -0.0026998825 -0.0062401304 0.0027638737 -0.009999384
-0.0008784024 0.01510401 -0.00310801 0.0006821268 -0.0059286742 -0.0060536303 0.0029258144 -0.002785459
-0.009654963 -0.011103885 0.0078718085 -0.0024782207 0.0061518378 -3.432987e-05 -0.00088141067 0.002795424
0.014595465 -0.00024141854 0.008624849 0.00044583442 -0.010946634 0.005012476 -0.0036417975 -0.001326803
0.0027021496 -0.0020551656 0.003059948 0.017381921 0.0038230077 -0.0039561396 -0.002511547 0.010761453
0.006276274 -0.010160636 -0.009354005 -0.007734503 0.00038325897 0.0010665687 -0.0069803693 0.0038244443
-0.007900628 0.0060483906 0.003978747 -0.012890886 -0.0026588957 0.0008438445 -0.015607661 0.007803963
-0.0056367638 -0.015292252 -0.005928268 -0.020629235 0.0037117419 -0.0063580913 0.0049675596 -0.003689229

action_model._discrete_distribution.branches.1.bias f4 [4]
00000000: ac60 b63a cbea 803a 11aa a638 2f6e 7dbb
0.0013914309 0.0009835599 7.947174e-05 -0.003867041
