Assets/Configs/results/=ModelTrain/AiAgents/AiAgents-499913.onnx (onnx, 155723 bytes, 11 tensors)

discrete_act_size_vector f4 [1, 2]
3.0 4.0
00000000: 0000 4040 0000 8040

network_body._body_endoder.seq_layers.0.weight f4 [128, 22]
-0.027384887 -0.03441714 0.19096051 -0.16717982 -0.24387081 0.21299583 0.008696244 -0.29938844
0.0748725 0.58349574 -0.0658403 -0.18346488 -0.4461216 0.12105585 0.40648773 -0.12783632
-0.3815287 -0.17730904 0.10086399 -0.12399126 0.1813284 0.44687998 0.42608604 -0.1886624
-0.06862365 0.23922469 -0.25672814 -0.2533762 0.06981306 -0.54644364 -0.02376827 0.0432513
-0.20370142 0.18693887 -0.06506957 -0.14615965 -0.24921617 -0.13077277 0.13108887 0.021905256
0.14968066 0.1371287 -0.22476636 -0.38772154 0.08026455 -0.077655815 0.36000952 0.1655951
-0.21453147 0.2285101 -0.15874945 0.12652077 -0.14835481 0.7165902 -0.0018629669 0.106432855
-0.009357226 0.060598508 -0.30571184 -0.091838844 -0.0019817539 -0.022893352 0.12860407 -0.43528807
0.14613561 -0.30321532 -0.030642068 -0.25600815 -0.2526056 0.020461317 0.16921064 0.057064842
-0.6637206 0.06732009 -0.05641074 -0.10948636 -0.033504725 -0.36301288 -0.37999016 -0.25171986
0.18998025 0.16048619 0.22416945 0.17129819 0.11129719 0.004614241 -0.00853291 -0.33911723
-0.21498658 0.15974522 0.27325246 -0.1966922 -0.28686193 0.17334926 0.22391494 -0.4165339
-0.15306039 -0.20387995 -0.09433567 -0.15350223 0.111314856 -0.10497322 -0.16632247 -0.11867626
-0.28712776 -0.065369815 -0.12103198 -0.27058038 0.22982095 -0.0062735504 0.00918031 0.118056215
0.16904917 -0.10983746 0.23532638 -0.41647312 0.2152322 0.3840236 0.27784434 -0.36310625
-0.07901436 -0.00398666 0.14140373 -0.056854077 -0.024601337 -0.3202165 -0.3372184 0.068720736
-0.046828404 -0.3695996 -0.09815394 0.45161948 0.13420463 -0.079285316 0.35899186 -0.07450343
0.17619792 0.24542475 0.016176725 -0.0366081 0.17953306 0.10318204 0.2888776 0.10579782
0.053687505 0.08657106 0.28281367 0.31078374 -0.25212634 0.34210914 -0.24977078 -0.1519407
0.10590093 -0.10856142 -0.07428308 0.3134564 0.3924942 0.13120444 -0.25329375 -0.06596713
0.21050687 0.20370975 -0.10896999 0.03299998 0.004082176 0.068465084 0.17488542 -0.25697285
0.10874045 -0.058956306 0.15302354 0.24604407 0.0728115 -0.42899355 -0.06973806 -0.23791087
-0.05385921 0.18705453 0.23093182 -0.34492174 -0.18976337 0.17834835 -0.20317352 0.2103751
-0.2066682 0.1975092 0.62092745 -0.26619124 -0.08338346 0.23105206 0.40426916 0.0046572206
-0.0914019 0.16105728 -0.40180075 0.17540309 -0.056353983 0.09625308 0.23525332 0.12063077
0.09954034 0.28196424 0.12224069 0.08287923 -0.07235643 0.19028492 -0.308914 0.06529002
-0.04234554 0.10705316 0.17657234 -0.22020693 -0.037891835 -0.46662685 -0.2566261 -0.10865372
-0.107854806 0.19034992 -0.09212681 -0.24657667 -0.4840735 -0.1889711 -0.16394053 -0.028966837
0.1854618 -0.14941195 0.41339162 0.107652046 -0.32678655 -0.13512732 -0.2510452 -0.036465168
-0.052341375 0.29878023 -0.0040577007 0.113903895 -0.24220766 -0.12208314 0.22781917 -0.3718245
0.029766668 -0.3712799 0.0052916994 0.0029845438 -0.27503836 -0.081977546 -0.3272634 -0.061730202
0.13712467 0.29342836 -0.2505102 -0.08441298 0.24839455 0.12662543 -0.20245309 0.22542189
00000000: 4556 e0bc fdf8 0cbd 278b 433e 3031 2bbe
00000010: 45b9 79be 941b 5a3e b17a 0e3c 7149 99be
00000020: c156 993d fa5f 153f 47d7 86bd 38de 3bbe
00000030: 0d6a e4be 21ec f73d 291f d03e 86e7 02be
00000040: bb57 c3be 8090 35be c891 ce3d 21ef fdbd
00000050: 27ae 393e 74cd e43e f327 da3e b730 41be
00000060: 8e8a 8cbd 51f7 743e df71 83be 86ba 81be
00000070: 26fa 8e3d bbe3 0bbf adb5 c2bc 4628 313d
00000080: 1b97 50be e76c 3f3e 3243 85bd e0aa 15be
00000090: 8632 7fbe 4ce9 05be 293c 063e a772 b33c
000000a0: e345 193e 776b 0c3e 2729 66be 7083 c6be
000000b0: be61 a43d 030a 9fbd 2b53 b83e c391 293e
000000c0: 23ae 5bbe 8dfe 693e 378f 22be a98e 013e
000000d0: 53ea 17be 7572 373f cc2e f4ba 78f9 d93d
000000e0: 0d4f 19bc 2436 783d 4386 9cbe 0116 bcbd
000000f0: 50e0 01bb d78a bbbc c9b0 033e 14de debe
00000100: 93a4 153e 0a3f 9bbe 1305 fbbc 8013 83be
00000110: 8555 81be 7e9e a73c 8e45 2d3e d3bc 693d
00000120: 98e9 29bf 1edf 893d f30e 67bd 623a e0bd
00000130: 403c 09bd d3dc b9be 128e c2be 6de1 80be
00000140: 2f8a 423e 7e56 243e ad8c 653e cb68 2f3e
00000150: c8ef e33d 0f33 973b 9ecd 0bbc c6a0 adbe
00000160: 7125 5cbe 4094 233e bfe7 8b3e ae69 49be
00000170: 91df 92be 7882 313e f549 653e ee43 d5be
00000180: ddbb 1cbe e8c5 50be 0f33 c1bd b02f 1dbe
00000190: 0bf9 e33d 33fc d6bd 7050 2abe 8a0c f3bd
000001a0: 6902 93be 9ce0 85bd 9ddf f7bd 8389 8abe
000001b0: 2f56 6b3e 5b92 cdbb 0369 163c 75c7 f13d
000001c0: 3a1b 2d3e 76f2 e0bd 66f9 703e f73b d5be
000001d0: d465 5c3e be9e c43e 9d41 8e3e 10e9 b9be
000001e0: 48d2 a1bd 87a2 82bb 24cc 103e d2df 68bd
000001f0: be88 c9bc 6bf3 a3be e4a7 acbe 75bd 8c3d
00000200: 24cf 3fbd 293c bdbe ef04 c9bd ab3a e73e
00000210: f06c 093e 5760 a2bd c8cd b73e 4195 98bd
00000220: 3a6d 343e a050 7b3e 0d85 843c 60f2 15bd
00000230: 84d7 373e 1b51 d33d c4e7 933e 87ac d83d
00000240: 6ee7 5b3d 2b4c b13d f4cc 903e 0c1f 9f3e
00000250: b416 81be ee28 af3e e9c3 7fbe 5896 1bbe
00000260: 96e2 d83d 7355 debd ba21 98bd 5b7d a03e
00000270: 00f5 c83e 755a 063e b8af 81be c619 87bd
00000280: 1d8f 573e 4a99 503e a82b dfbd fd2a 073d
00000290: c6c3 853b 6c37 8c3d 2a15 333e f291 83be
000002a0: 50b3 de3d 2b7c 71bd 34b2 1c3e faf2 7b3e
000002b0: 321e 953d 0ba5 dbbe d4d2 8ebd e89e 73be
000002c0: 7a9b 5cbd 398b 3f3e 6479 6c3e 9599 b0be
000002d0: 5451 42be f3a0 363e b80c 50be 926c 573e
000002e0: d4a0 53be da3f 4a3e 1af5 1e3f 384a 88be
000002f0: f3c4 aabd e998 6c3e 5efc ce3e 999b 983b
00000300: eb30 bbbd 33ec 243e d4b8 cdbe de9c 333e
00000310: 6fd3 66bd 5620 c53d 3fe6 703e 440d f73d
00000320: cedb cb3d 9e5d 903e 5459 fa3d 96bc a93d
00000330: 9c2f 94bd 0dda 423e fa29 9ebe c6b6 853d
00000340: 8472 2dbd b03e db3d 61cf 343e ed7d 61be
00000350: 7834 1bbd b7e9 eebe 7f64 83be d785 debd
00000360: fbe2 dcbd 17eb 423e fbac bcbd 987e 7cbe
00000370: 7bd8 f7be a481 41be 07e0 27be dc4b edbc
00000380: b3e9 3d3e 72ff 18be 11a8 d33e ad78 dc3d
00000390: 9150 a7be d15e 0abe ff88 80be 805c 15bd
000003a0: e963 56bd b9f9 983e 76f6 84bb 7246 e93d
000003b0: 4905 78be ba06 fabd 6e49 693e c85f bebe
000003c0: 3ad9 f33c 6618 bebe fe65 ad3b 5698 433b
000003d0: d4d1 8cbe d8e3 a7bd 128f a7be cfd8 7cbd
000003e0: 696a 0c3e 3e3c 963e df42 80be b6e0 acbd
000003f0: 245b 7e3e 19aa 013e dd4f 4fbe ffd4 663e

network_body._body_endoder.seq_layers.0.bias f4 [128]
-0.025730893 0.026598144 -0.021523856 -0.054491036 -0.00399329 -0.049734272 0.01298855 -0.024795985
-0.014234731 -0.002564303 -0.036729507 -0.03163117 -0.05449355 -0.007835141 -0.011710683 -0.028057912
0.010879977 -0.03458721 0.02279745 -0.025888732 -0.045600325 0.018743018 -0.032219198 0.025592804
0.034779713 0.02708392 -0.04513859 -0.029112814 0.010578886 0.012915193 -0.016081253 0.005803527
-0.010394846 -0.029136552 0.015178613 -0.044017617 -0.009101192 -0.020151705 -0.04410719 0.0024148482
0.042214714 -0.0029216032 -0.0527985 0.022138791 -0.044933934 -0.03125584 -0.0124536855 0.023971912
-0.028135424 0.055072315 0.0025394517 0.029984578 -0.012814719 -0.022591617 -0.0047394074 0.043464936
-0.02563358 0.014079603 0.055536244 -0.0011464596 -0.0076985974 0.008479035 0.042184677 -0.00047224335
-0.009100937 -0.055381924 0.023561267 -0.0293348 -0.03898497 -0.032904845 -0.008010001 0.003965445
-0.015402853 -0.022291724 0.010682854 0.0048157014 0.019195974 -0.016859243 -0.04203343 -0.04939222
0.012178181 -0.04120594 -0.01779118 0.049292106 -0.035707887 0.023223232 -0.01986175 0.017680725
-0.045098245 -0.042380925 0.0039044726 -0.007385192 0.02480092 0.016756594 -0.025174253 -0.030220676
-0.0026467312 -0.034843124 0.012973754 -0.017214946 0.028955065 0.045067456 -0.01626245 0.02662514
-0.035386328 -0.020858137 -0.008755145 -0.039556354 -0.002839206 -0.035740294 0.010456846 -0.015579345
0.0038910792 0.0060535534 0.01871961 0.0017869996 0.022573367 -0.003942094 0.049634192 0.004756132
-0.0036097986 -0.016435131 -0.044334184 -0.015244942 -0.008129291 0.007916221 0.05239416 -0.015161443
00000000: 98c9 d2bc 5ae4 d93c cc52 b0bc fe31 5fbd
00000010: 25da 82bb 2ab6 4bbd edcd 543c f320 cbbc
00000020: ca38 69bc de0d 28bb ae71 16bd b08f 01bd
00000030: a134 5fbd f75e 00bc 2ade 3fbc b5d9 e5bc
00000040: ee41 323c 51ab 0dbd b8c1 ba3c 9b14 d4bc
00000050: 68c7 3abd f58a 993c 47f8 03bd 00a8 d13c
00000060: 2c75 0e3d 19df dd3c 3ee3 38bd ff7d eebc
00000070: 1053 2d3c 3f9a 533c d5bc 83bc 832b be3b
00000080: 254f 2abc c7af eebc b8af 783c d14b 34bd
00000090: 2a1d 15bc 3015 a5bc bea9 34bd 6e42 1e3b
000000a0: 56e9 2c3d 5e78 3fbb 3d43 58bd 695c b53c
000000b0: a50c 38bd 2006 00bd 8b0a 4cbc be60 c43c
000000c0: 437c e6bc 8293 613d ee6c 263b 38a2 f53c
000000d0: d4f4 51bc 0e12 b9bc 084d 9bbb 4a08 323d
000000e0: 83fd d1bc 23ae 663c f979 633d cd44 96ba
000000f0: 8444 fcbb a7eb 0a3c d7c9 2c3d 6e97 f7b9
00000100: 191c 15bc 28d8 62bd 8f03 c13c 894f f0bc
00000110: b4ae 1fbd 3bc7 06bd 613c 03bc 90f0 813b
00000120: 3f5c 7cbc 229d b6bc 2307 2f3c 08cd 9d3b
00000130: e040 9d3c 651c 8abc 3f2b 2cbd 7f4f 4abd
00000140: fe86 473c 8fc7 28bd cfbe 91bc 85e6 493d
00000150: 6f42 12bd a63e be3c 1cb5 a2bc 2bd7 903c
00000160: f0b8 38bd 9f97 2dbd 2ee2 7f3b 7bff f1bb
00000170: 4d2b cb3c 2045 893c 3c3a cebc 5a91 f7bc
00000180: c874 2dbb aab7 0ebd de8f 543c 5c06 8dbc
00000190: 2c33 ed3c a798 383d d438 85bc f71c da3c
000001a0: 41f1 10bd afde aabc bd71 0fbc d805 22bd
000001b0: f911 3abb 6a64 12bd 3153 2b3c 8240 7fbc
000001c0: 7a01 7f3b e35c c63b de59 993c c239 ea3a
000001d0: c8eb b83c ae2c 81bb 394d 4b3d 54d9 9b3b
000001e0: 5f92 6cbb f8a2 86bc c397 35bd ecc5 79bc
000001f0: b830 05bc 0ab3 013c 429b 563d b367 78bc

network_body._body_endoder.seq_layers.2.weight f4 [128, 128]
0.044549655 -0.043303918 -0.04663248 0.12289944 -0.057771303 -0.04877922 -0.0026214514 -0.051556163
-0.03735345 0.1596089 -0.21412747 -0.036462877 0.118024856 -0.00449447 -0.040851664 0.026896946
0.03796189 -0.19773163 0.08377763 0.027471924 -0.041598767 0.028542599 -0.069813736 0.1234529
-0.0043037734 0.13402617 0.044938102 0.07608186 0.036818415 0.003926826 -0.1158784 0.0153030185
0.027618973 0.03020256 0.11398007 0.015911028 0.042316977 -0.071055576 0.03553449 -0.10011713
0.054701623 -0.090938196 0.07299161 -0.08852749 -0.07640291 -0.104933664 -0.2011836 0.044861134
-0.008265335 0.08107462 -0.0021587708 0.08838397 0.016430197 0.07549307 -0.03715341 -0.012086361
0.008784 -0.11774725 -0.06686162 0.024565326 -0.21012111 -0.10979969 -0.037456475 -0.10553091
0.10993925 0.031983383 0.015034034 -0.16836047 -0.09279973 -0.12740797 -0.031153385 0.023966836
-0.21394579 0.10558073 -0.103991635 -0.030854443 0.24428374 0.02896144 -0.19488026 0.024401419
0.059850324 0.11909448 0.07297707 0.0063331295 0.026565682 0.008147883 0.058671866 -0.001523674
0.04882177 -0.11664711 -0.1393263 -0.029711302 -0.018913759 0.004249557 -0.023428774 -0.00040685147
0.06481586 0.078684635 0.008436441 0.17624447 0.03191496 0.041726913 -0.13702141 -0.04329717
0.05411509 -0.06257495 -0.1142586 -0.0028400114 0.011490648 0.10361088 -0.0511694 0.06282713
0.22116478 -0.03722747 0.06417717 -0.029302292 0.09248647 0.105776235 0.008148301 -0.20572188
0.14192012 -0.013060123 -0.075155914 0.06942102 -0.029130362 -0.08400221 -0.030135656 -0.106569745
-0.1276752 -0.064003505 0.024319751 0.015369151 0.06518802 -0.050950855 -0.067665465 0.021062186
-0.002205265 0.011458828 -0.05505812 0.115455404 0.14800699 0.16615589 0.04115153 -0.03281046
-0.16337533 -0.054328557 -0.31568858 -0.101539575 0.04417773 0.06622862 -0.094862945 -0.014598969
-0.021589726 0.114140354 -0.119244404 -0.08647642 0.12712991 0.036595482 -0.13323061 0.102302276
0.07448027 0.05935536 0.08567292 0.06286732 -0.092105106 -0.015259255 -0.17589268 -0.061033223
0.09650713 -0.024736932 -0.054743513 -0.13500817 0.030182265 0.038328033 0.03939018 -0.055534918
-0.13763294 -0.060495064 -0.22619647 0.063573375 0.054342285 -0.24166498 -0.106099695 -0.011039221
-0.05253705 -0.092337884 -0.13819705 0.036948256 -0.070766196 -0.05283231 0.041961353 0.09889669
0.032254886 0.04961863 -0.060392376 0.096767135 0.13744558 -0.079326615 0.002032763 -0.044979423
-0.08543862 -0.080725595 0.14033045 0.09558414 -0.036979824 -0.07895533 0.020881716 0.052157138
0.109603025 -0.03856773 -0.17402832 0.03148698 0.010973234 -0.06572773 -0.046948437 -0.09614644
0.036802173 -0.079670854 -0.14122234 0.033718295 -0.1094715 -0.04844478 0.015870828 0.05800075
-0.14870396 0.06273646 0.0203768 -0.11736004 -0.058702342 0.06381963 0.1186743 -0.12031925
-0.03142963 0.14867447 0.12400612 -0.0007511246 0.054821685 -0.23053753 -0.11340853 0.005342156
-0.0940791 -0.07944072 0.11036344 -0.12655628 -0.14689246 0.018524535 -0.04537965 0.1294272
-0.08746036 0.04798629 -0.071335524 0.12724401 -0.04995999 -0.017754642 0.02670981 -0.043369204
00000000: b379 363d 735f 31bd b301 3fbd b4b2 fb3d
00000010: 9aa1 6cbd b8cc 47bd a8cc 2bbb 8e2c 53bd
00000020: eeff 18bd 8470 233e 3b44 5bbe 195a 15bd
00000030: 04b7 f13d 5946 93bb 1354 27bd fc56 dc3c
00000040: ed7d 1b3d 297a 4abe 9b93 ab3d cd0c e13c
00000050: 7863 2abd 2bd2 e93c 81fa 8ebd e0d4 fc3d
00000060: ab06 8dbb 283e 093e 0411 383d ced0 9b3d
00000070: e8ce 163d 9bac 803b a851 edbd 83b9 7a3c
00000080: 2f41 e23c 5c6b f73c 626e e93d d857 823c
00000090: 9154 2d3d 9685 91bd 9d8c 113d 360a cdbd
000000a0: cf0e 603d ce3d babd a07c 953d e74d b5bd
000000b0: 2179 9cbd 76e7 d6bd 1303 4ebe 4fc0 373d
000000c0: 546b 07bc 730a a63d 2a7a 0dbb a802 b53d
000000d0: 9f98 863c 1c9c 9a3d 2d2e 18bd df05 46bc
000000e0: c4ea 0f3c 7825 f1bd bfee 88bd 393d c93c
000000f0: fd29 57be a9de e0bd f66b 19bd 9720 d8bd
00000100: d427 e13d 0201 033d 4f51 763c b066 2cbe
00000110: c90d bebd 3c77 02be 6235 ffbc 1956 c43c
00000120: 9b14 5bbe b63a d83d 91f9 d4bd 75c2 fcbc
00000130: 8425 7a3e 8b40 ed3c b18e 47be 7ce5 c73c
00000140: 9d25 753d cfe7 f33d 0175 953d 2486 cf3b
00000150: 46a0 d93c b37e 053c e951 703d 04b6 c7ba
00000160: 56f9 473d aee4 eebd 8eab 0ebe 1e65 f3bc
00000170: 07f1 9abc de3f 8b3b b3ed bfbc ae4e d5b9
00000180: 2dbe 843d 6925 a13d 0039 0a3c 6e79 343e
00000190: 43b9 023d d7e9 2a3d 574f 0cbe 6058 31bd
000001a0: c9a7 5d3d 4c27 80bd 6a00 eabd 7c1f 3abb
000001b0: 4543 3c3c f131 d43d 0197 51bd 83ab 803d
000001c0: 0579 623e d57b 18bd 526f 833d 5c0b f0bc
000001d0: 8c69 bd3d 36a1 d83d 7480 053c c2a8 52be
000001e0: 8253 113e 20fa 55bc 58eb 99bd 9c2c 8e3d
000001f0: cca2 eebc 5a09 acbd 0ddf f6bc 3d41 dabd
00000200: 4abd 02be 4514 83bd 373a c73c e4ce 7b3c
00000210: 4c81 853d d8b1 50bd 3194 8abd 9b8a ac3c
00000220: 3586 10bb cfbd 3b3c a084 61bd e273 ec3d
00000230: 258f 173e c524 2a3e 828e 283d 4364 06bd
00000240: dd4b 27be 9f87 5ebd efa1 a1be fbf3 cfbd
00000250: b5f3 343d dfa2 873d 8147 c2bd 8430 6fbc
00000260: f0dc b0bc 6bc2 e93d 6936 f4bd 8d1a b1bd
00000270: 582e 023e 25e5 153d 9b6d 08be db83 d13d
00000280: 1d89 983d 9b1e 733d 4975 af3d 95c0 803d
00000290: 9aa1 bcbd f401 7abc 361d 34be f9fd 79bd
000002a0: 88a5 c53d 1ba5 cabc bc3a 60bd 953f 0abe
000002b0: cc40 f73c dbfd 1c3d 9957 213d 9578 63bd
000002c0: a6ef 0cbe acc9 77bd 0ca0 67be c232 823d
000002d0: 0496 5e3d 0677 77be cc4a d9bd d9dd 34bc
000002e0: 1731 57bd a51b bdbd 8783 0dbe 0e57 173d
000002f0: deed 90bd b166 58bd abdf 2b3d 598a ca3d
00000300: b31d 043d e83c 4b3d ff5d 77bd d92d c63d
00000310: 89be 0c3e fe75 a2bd 1b38 053b 583c 38bd
00000320: 71fa aebd 7653 a5bd c9b2 0f3e 9ec1 c33d
00000330: 2878 17bd 55b3 a1bd 2210 ab3c b9a2 553d
00000340: 8d77 e03d 32f9 1dbd 7b34 32be 7ef8 003d
00000350: 14c9 333c 439c 86bd 014d 40bd 6de8 c4bd
00000360: e0bd 163d 792a a3bd 979c 10be 321c 0a3d
00000370: 9832 e0bd 096e 46bd 8a03 823c 3292 6d3d
00000380: da45 18be f97b 803d 3fed a63c 765a f0bd
00000390: de71 70bd deb3 823d 830b f33d f069 f6bd
000003a0: 5bbc 00bd 1f3e 183e ecf6 fd3d 1ee7 44ba
000003b0: b48c 603d 0812 6cbe bb42 e8bd 410d af3b
000003c0: 8bac c0bd d1b1 a2bd 3a06 e23d f897 01be
000003d0: fa6a 16be c4c0 973c 03e0 39bd 9088 043e
000003e0: 6b1e b3bd 468d 443d 5c18 92bd 414c 023e
000003f0: d9a2 4cbd 2f72 91bc 88ce da3c e8a3 31bd

network_body._body_endoder.seq_layers.2.bias f4 [128]
0.008882338 -0.017517075 0.01694121 0.006512067 -0.026425073 0.0023286927 0.006307379 -0.028567439
-0.0018535011 -0.0032382328 0.0068375934 -0.034923155 0.0047819954 -0.034657203 -0.051970303 0.02393804
-0.005143406 -0.06468536 -0.03205067 -0.008777475 -0.015091402 0.047088135 -0.022800274 -0.007714579
-0.009237639 -0.019669179 0.012229886 -0.03598359 1.6315313e-05 -0.042588748 -0.0118125845 -0.010750702
-0.024283428 -0.06595282 -0.005228633 -0.02073379 -0.018670563 -0.011434796 -0.07228607 -0.009146124
-0.023405703 0.023891924 -0.031057715 0.029292667 -0.022905724 -0.031459495 0.007844636 -0.037003074
0.010505544 -0.036003552 0.0149180675 -0.005169159 0.012925583 -0.00423287 -0.020336257 -0.024425635
0.009610793 -0.012772362 0.010430581 -0.008926525 -0.0051932246 0.022431754 -0.0367716 0.044615377
-0.023722993 -0.027435865 -0.0240774 0.022636348 -0.009265626 -0.065977596 0.005772832 -0.008912325
-0.031425834 -0.043219883 -0.014155691 -0.027857212 -0.0070599006 0.003888917 -0.01233309 0.015142699
-0.042087197 0.0012836398 0.029088631 -0.032684147 -0.033643495 -0.02034106 0.021371057 -0.01478597
-0.00020543487 0.001966739 -0.04107035 0.04180064 -0.0077391234 -0.016932042 -0.01692187 0.0495917
-0.029459376 -0.013524852 -0.016739018 -0.05019029 -0.036146596 -0.010706403 -0.0066572954 0.01285184
-0.0024618073 -0.03514997 -0.0153746875 0.0145876175 0.0031291707 0.022507992 0.01896081 -0.013938623
0.022362983 0.028409414 0.020189064 -0.051069293 0.032874107 -0.0028069043 -0.034852397 0.0025307238
-0.039687373 0.005881824 -0.023536924 -0.0305757 -0.029482916 -0.027439049 -0.004586272 0.010917898
00000000: 3a87 113c f87f 8fbc 4bc8 8a3c 2d63 d53b
00000010: 6579 d8bc fb9c 183b 21ae ce3b 4306 eabc
00000020: 2df1 f2ba 8838 54bb e40d e03b 950b 0fbd
00000030: 49b2 9c3b b6f4 0dbd d0de 54bd b519 c43c
00000040: 048a a8bb c279 84bd 9047 03bd 66cf 0fbc
00000050: ee41 77bc 7ddf 403d a4c7 babc 94ca fcbb
00000060: 7759 17bc 4221 a1bc dc5f 483c 8763 13bd
00000070: dedc 8837 8a71 2ebd 9289 41bc b623 30bc
00000080: 0aee c6bc 4612 87bd f454 abbb e9d9 a9bc
00000090: 02f3 98bc 0359 3bbc b80a 94bd a0d9 15bc
000000a0: 51bd bfbc ffb8 c33c c06c febc 2df7 ef3c
000000b0: c9a4 bbbc acdb 00bd ca86 003c 8990 17bd
000000c0: 721f 2c3c 7678 13bd e96a 743c 0c62 a9bb
000000d0: d3c5 533c e3b3 8abb 3998 a6bc 4518 c8bc
000000e0: 9676 1d3c 2b43 51bc 07e5 2a3c 8f40 12bc
000000f0: ed2b aabb ccc2 b73c d19d 16bd 9dbe 363d
00000100: b956 c2bc 2ec1 e0bc f83d c5bc dd6f b93c
00000110: dace 17bc 431f 87bd 062a bd3b 0005 12bc
00000120: 60b8 00bd 5507 31bd 45ed 67bc cf34 e4bc
00000130: bd56 e7bb 33dd 7e3b bb10 4abc 1519 783c
00000140: a063 2cbd ce3f a83a 484b ee3c d0df 05bd
00000150: c3cd 09bd 4ba2 a6bc 5b12 af3c da40 72bc
00000160: 016a 57b9 68e4 003b 6239 28bd 2637 2b3d
00000170: 7998 fdbb 11b5 8abc bc9f 8abc ab20 4b3d
00000180: ca54 f1bc 5797 5dbc 4420 89bc 5594 4dbd
00000190: 740e 14bd e969 2fbc 7125 dabb 8690 523c
000001a0: 4656 21bb 6af9 0fbd 1de6 7bbc e700 6f3c
000001b0: c612 4d3b ae62 b83c b353 9b3c d25e 64bc
000001c0: 9332 b73c dcba e83c 8963 a53c 092e 51bd
000001d0: 00a7 063d 0af4 37bb 63c1 0ebd 80da 253b
000001e0: 3a8f 22bd 51bc c03b 82d0 c0bc e479 fabc
000001f0: 2886 f1bc dbc7 e0bc 7048 96bb fce0 323c

network_body._body_endoder.seq_layers.4.weight f4 [128, 128]
-0.06147492 0.032119725 0.29960126 0.07980088 -0.14602432 -0.12437178 -0.08214809 0.048887275
-0.044862293 -0.067917705 0.0974345 0.0024299857 -0.014370254 0.09204514 -0.02437483 0.034563884
-0.11963128 -0.19684877 0.14131613 0.07432825 -0.13269807 -0.09898578 0.07235379 0.017964967
0.007956101 0.1379028 0.011724 0.12728447 -0.040438116 0.05436961 -0.08119914 0.0442791
-0.07985668 0.044693053 0.24907966 -0.005656407 -0.12664987 -0.08360164 0.10468869 -0.06379197
0.028770996 -0.13207649 0.053336293 0.10684124 -0.046707477 -0.055988975 0.029459141 -0.16693889
0.07252003 0.0025455484 0.03195199 -0.16227864 0.11700553 0.073289946 0.018689673 0.1291946
0.052044913 -0.06388156 0.008492956 0.09322194 0.07643848 0.055150952 0.03834006 0.097872764
0.0022158367 -0.07173137 -0.20848659 0.11156682 -0.042567343 -0.014422327 -0.07398558 0.29922134
0.034723137 -0.08384062 0.076566234 -0.09743681 0.025064226 0.053206548 -0.07573999 -0.12730338
0.03483364 0.031665355 -0.008716375 0.13151154 -0.028052641 0.011546538 0.08820364 0.017026892
-0.07212296 -0.28421265 0.02265514 -0.09857987 0.09238828 0.0762084 -0.0015930557 0.08768351
-0.09037612 0.018604888 0.03784586 -0.027025167 -0.057758715 -0.06414907 0.1643365 0.069966614
0.008316192 -0.028393736 0.033445105 -0.053476583 0.027839066 0.030347817 0.016613793 0.20054924
0.05128582 -0.15733753 -0.0004789511 -0.07816459 0.0065048845 -0.048358746 0.06462917 -0.15608588
-0.07658073 -0.1429738 0.0004276488 0.13568744 0.08555418 0.03798499 -0.054829255 0.046256326
0.07419739 0.003754734 -0.011835914 0.052514125 -0.040202644 -0.090988524 0.123180315 -0.081662714
-0.054850176 0.068070255 -0.09861084 0.027899235 0.028905481 0.04894417 -0.10000338 -0.035330802
0.025491163 -0.057331167 -0.12367756 0.05570665 -0.08284579 0.041882228 -0.009731703 -0.06396034
0.06902345 -0.034220997 -0.011284983 0.030712178 -0.019151222 -0.050890427 -0.18750478 -0.076317914
0.07087653 0.008518332 -0.03727589 -0.10870115 -0.07781411 -0.086535506 -0.025931947 0.09456762
0.040159956 -0.07969494 0.09309954 0.16320314 -0.18415889 0.00911177 -0.18671662 0.001811346
-0.16829047 0.034546435 0.08182206 -0.04538574 0.15794149 0.04887419 0.11445518 -0.15884191
-0.033732656 0.07875066 0.047647823 0.04755806 0.08534661 0.037871115 -0.04912928 -0.02129636
-0.03759205 0.0783539 0.022227073 0.0024779052 -0.067034066 0.013873858 0.020507095 -0.062386803
-0.10728033 0.04033323 -0.1905593 -0.023984749 -0.055389002 0.016951429 0.074916296 -0.14417186
0.0023518347 0.150124 -0.11498676 0.10485703 -0.14427036 0.095996864 0.21990794 -0.021875573
0.07039454 -0.013324759 0.03470149 -0.061624724 0.015528462 -0.04153015 -0.06699234 0.1337285
-0.118639596 0.20423327 -0.1304225 -0.05729565 0.05941694 0.12277062 0.04661332 -0.09704733
-0.043180406 -0.0908754 0.11048511 -0.10332886 0.06994442 0.16301732 0.022282412 0.07376271
-0.011088468 0.21045408 -0.0059957844 0.08878469 0.047063652 0.21871023 -0.013267209 -0.093425706
-0.04533811 0.020935811 0.15591832 -0.14609815 -0.014519344 0.06548386 -0.025162857 0.102702186
00000000: 20cd 7bbd f98f 033d 5665 993e a56e a33d
00000010: 6687 15be a2b6 febd 423d a8bd 063e 483d
00000020: 86c1 37bd 7018 8bbd bd8b c73d 6540 1f3b
00000030: 3771 6bbc 2a82 bc3d b9ad c7bc dc92 0d3d
00000040: 3f01 f5bd b992 49be 2db5 103e 6939 983d
00000050: 01e2 07be 0eb9 cabd 392e 943d 442b 933c
00000060: 4e5a 023c 6436 0d3e 0516 403c dc56 023e
00000070: 70a2 25bd abb2 5e3d bc4b a6bd 005e 353d
00000080: e68b a3bd 1010 373d bd0e 7f3e 6259 b9bb
00000090: 81b0 01be 5637 abbd 0667 d63d 5da5 82bd
000000a0: 27b1 eb3c 0f3f 07be 2877 5a3d 94cf da3d
000000b0: 5750 3fbd b254 65bd 4c54 f13c 07f2 2abe
000000c0: 6285 943d 37d3 263b 17e0 023d 5f2c 26be
000000d0: 98a0 ef3d 0a19 963d 161b 993c 974b 043e
000000e0: 0c2d 553d 56d4 82bd 0a26 0b3c 25eb be3d
000000f0: c78b 9c3d f7e5 613d 770a 1d3d 8471 c83d
00000100: 9237 113b e6e7 92bd 827d 55be 257d e43d
00000110: 185b 2ebd a04b 6cbc c085 97bd 8a33 993e
00000120: d939 0e3d a2b4 abbd c2ce 9c3d f38c c7bd
00000130: 7e53 cd3c 1cef 593d 911d 9bbd d15b 02be
00000140: b8ad 0e3d 88b3 013d 20cf 0ebc f6aa 063e
00000150: a7ce e5bc b12d 3d3c 1ca4 b43d fb7b 8b3c
00000160: 34b5 93bd 5284 91be 4697 b93c 3ee4 c9bd
00000170: 1136 bd3d 2613 9c3d 14ce d0ba 6993 b33d
00000180: 1d17 b9bd 4769 983c 4304 1b3d e263 ddbc
00000190: 6794 6cbd 9660 83bd d447 283e a84a 8f3d
000001a0: a340 083c fb99 e8bc bcfd 083d 430a 5bbd
000001b0: c10e e43c fc9b f83c a619 883c c85c 4d3e
000001c0: 1411 523d 171d 21be ba1b fbb9 c214 a0bd
000001d0: ed26 d53b d213 46bd 4c5c 843d fad4 1fbe
000001e0: 5cd6 9cbd b967 12be 0d36 e039 a6f1 0a3e
000001f0: 0837 af3d 2696 1b3d a494 60bd 4677 3d3d
00000200: cdf4 973d fc11 763b 6ceb 41bc 0d19 573d
00000210: 87ab 24bd 3158 babd f645 fc3d c83e a7bd
00000220: 94aa 60bd 6b68 8b3d 7bf4 c9bd f08c e43c
00000230: 30cb ec3c af79 483d 92ce ccbd 08b7 10bd
00000240: d8d2 d03c 16d4 6abd a94a fdbd a82c 643d
00000250: 0eab a9bd b38c 2b3d b971 1fbc a4fd 82bd
00000260: 2b5c 8d3d 512b 0cbd a6e4 38bc 1b98 fb3c
00000270: 06e3 9cbc 7b72 50bd 4101 40be 914c 9cbd
00000280: b727 913d 7990 0b3c 9bae 18bd b59e debd
00000290: 015d 9fbd 8739 b1bd 3c6f d4bc abac c13d
000002a0: c47e 243d 1a37 a3bd f9aa be3d b91e 273e
000002b0: 2694 3cbe 8949 153c a432 3fbe b06a ed3a
000002c0: 5654 2cbe 9080 0d3d 5392 a73d 66e6 39bd
000002d0: 6abb 213e 4d30 483d 7a67 ea3d 74a7 22be
000002e0: 412b 0abd 0748 a13d 5d2a 433d 3ecc 423d
000002f0: 34ca ae3d be1e 1b3d c93b 49bd b475 aebc
00000300: 1ffa 19bd 0278 a03d 8d15 b63c 5a64 223b
00000310: 2849 89bd 2e4f 633c 7ffe a73c 4e89 7fbd
00000320: cab5 dbbd 7534 253d fa21 43be aa7b c4bc
00000330: 94df 62bd b9dd 8a3c b76d 993d caa1 13be
00000340: 3d21 1a3b 1bba 193e 2e7e ebbd 48bf d63d
00000350: 9cbb 13be 019a c43d 8c2f 613e 6734 b3bc
00000360: 032b 903d 1750 5abc 2623 0e3d 356a 7cbd
00000370: 176b 7e3c 851b 2abd 4833 89bd 20f0 083e
00000380: 51f9 f2bd 8722 513e 7a8d 05be d8ae 6abd
00000390: 2d5f 733d 2a6f fb3d 9ced 3e3d c0c0 c6bd
000003a0: f0dd 30bd e21c babd 0446 e23d 159e d3bd
000003b0: 053f 8f3d 03ee 263e 9b89 b63c e710 973d
000003c0: 68ac 35bc 4681 573e 4978 c4bb bfd4 b53d
000003d0: d1c5 403d 93f5 5f3e b55e 59bc fa55 bfbd
000003e0: 74b4 39bd 9481 ab3c 0da9 1f3e c19a 15be
000003f0: 8be2 6dbc 671c 863d 5622 cebc 8655 d23d

network_body._body_endoder.seq_layers.4.bias f4 [128]
-0.029822232 -0.01698278 -0.069614 -0.015481328 0.07215874 -0.0067949775 0.022346891 -0.035013337
0.020583717 -0.032602984 -0.02708049 0.008219636 -0.04901734 0.029093413 0.0023314739 -0.027076099
0.02108814 -0.023624819 0.017884383 0.0045097023 -0.030185146 -0.029006949 -0.017956968 0.003301478
-0.0064258464 -0.011938657 0.014303337 0.018900108 0.032321565 0.016752852 -0.048032735 0.0050860224
0.04398588 -0.04202867 0.019443307 -0.027228236 0.04196466 0.03484011 -0.018318191 0.038479805
0.008397555 -0.020437906 0.01672041 0.013925827 0.014315458 -0.04633806 -0.042319603 -0.037632905
-0.030863194 0.011549594 -0.038718898 -0.03136754 -0.027511904 0.04799372 -0.0065660444 0.021195594
0.0010540955 0.013612055 0.028190065 0.024239566 0.025136977 -0.024264045 -0.054364517 -0.007086575
-0.015322644 -0.002669173 -0.023814997 0.019104317 0.02740498 0.0076501505 0.018157436 0.0013521711
-0.029711828 0.032027636 -0.024057226 0.0027765145 -0.04705622 0.027461104 0.012796026 -0.018626222
0.02419451 -0.028732995 0.056207478 0.0006175623 -0.040690735 -0.0042149792 0.0015519278 -0.025668113
-0.02786258 -0.009741329 0.00924332 -0.010546906 0.010922146 -0.030953253 -0.020407291 0.0023028904
0.025446901 -0.03494079 0.06447138 0.018700812 -0.027457258 0.004411991 -0.026229175 -0.039508637
-0.032132536 -0.011482778 0.015609293 -0.04709137 -0.010169781 0.007840705 -0.060529232 0.029725961
-0.019197278 0.032518998 -0.0004159416 0.011931871 0.0015672537 0.018993145 -0.0071643633 0.016876599
-0.016848635 -0.03855087 0.044119276 0.012996889 0.014811118 0.007249002 0.010537161 0.003955386
00000000: c14d f4bc 791f 8bbc c991 8ebd 65a5 7dbc
00000010: f6c7 933d 67a8 debb d410 b73c 256a 0fbd
00000020: 2f9f a83c b58a 05bd e7d7 ddbc a7ab 063c
00000030: 68c6 48bd 4f55 ee3c a4cb 183b b2ce ddbc
00000040: 09c1 ac3c d688 c1bc 4582 923c 20c6 933b
00000050: d746 f7bc fb9f edbc 7e1a 93bc 9c5d 583b
00000060: e88f d2bb 5b9a 43bc 8b58 6a3c 66d4 9a3c
00000070: 9e63 043d 473d 893c f9bd 44bd a6a8 a63b
00000080: 8a2a 343d 4126 2cbd 9247 9f3c c00d dfbc
00000090: 23e3 2b3d 81b4 0e3d 0810 96bc 009d 1d3d
000000a0: e695 093c 656d a7bc 3ef9 883c 2729 643c
000000b0: 628b 6a3c facc 3dbd 5257 2dbd f624 1abd
000000c0: cfd4 fcbc 823a 3d3c b597 1ebd 407b 00bd
000000d0: a560 e1bc 1095 443d f927 d7bb 62a2 ad3c
000000e0: 9329 8a3a 1905 5f3c daee e63c 0e92 c63c
000000f0: 10ec cd3c 64c5 c6bc 54ad 5ebd 8036 e8bb
00000100: d40b 7bbc 4bed 2ebb ab17 c3bc a880 9c3c
00000110: 6980 e03c 1dae fa3b e7be 943c 553b b13a
00000120: 3866 f3bc 692f 033d a913 c5bc 2ff6 353b
00000130: 06be 40bd 1cf6 e03c 6ca6 513c 0596 98bc
00000140: 9133 c63c 7561 ebbc d039 663d e8e3 213a
00000150: 54ab 26bd cf1d 8abb 0e6a cb3a ef45 d2bc
00000160: 1140 e4bc 189a 1fbc 4b71 173c eecc 2cbc
00000170: cdf2 323c ad91 fdbc 312d a7bc 17ec 163b
00000180: 0576 d03c 131e 0fbd 9209 843d 7232 993c
00000190: 0bee e0bc 7792 903b 91de d6bc cfd3 21bd
000001a0: 689d 03bd 4322 3cbc 1fbe 7f3c e1e2 40bd
000001b0: 279f 26bc 4d76 003c 80ed 77bd dc83 f33c
000001c0: 9c43 9dbc a432 053d bd12 dab9 e57d 433c
000001d0: 4f6c cd3a 8397 9b3c 09c3 eabb cb40 8a3c
000001e0: 2606 8abc 84e7 1dbd 6ab6 343d e7f0 543c
000001f0: 55aa 723c 0989 ed3b 0ea4 2c3c 2f9c 813b

action_model._discrete_distribution.branches.0.weight f4 [3, 128]
0.053013176 0.022125581 0.02413585 -0.009479091 -0.0018577718 0.02548684 0.027555931 0.010733705
-0.0035928036 0.021258352 -0.0028276383 -0.025971407 0.033543613 -0.015150729 0.032015372 0.020657424
0.058457095 0.06497344 0.015881006 0.0062959148 0.038238034 0.05427285 0.022100452 0.027026197
0.044157736 -0.004061794 0.021063354 0.03545229 0.008239253 -0.015163467 0.051631242 0.044352725
-0.010476819 0.047586728 -0.012881642 0.029004458 -0.0037217902 0.040333033 -0.0038125059 -0.017312415
0.0834654 0.0072846273 0.031254485 -0.016889093 0.02081091 0.05235973 0.05657061 0.058763202
0.005780491 0.010618327 0.012901711 0.014559976 0.018766224 -0.036990017 0.02722384 -0.028183203
-0.006539859 0.009684866 0.027522106 0.01677103 0.0039721 -0.0012221267 0.015810294 0.012885476
0.008538744 0.02846153 0.04193696 0.008761363 -0.00040470334 0.015904164 0.005343151 0.00611307
0.011860378 -0.004468232 0.062341347 0.044166926 0.010672749 0.0026392753 0.0658952 0.014228272
0.0044891117 0.05098997 -0.016990783 0.02106249 0.059822973 0.03671036 0.009869026 0.014238367
0.0048134164 0.06998317 0.017285427 0.04435662 0.031031242 0.031960096 0.022187576 0.023486052
-0.0024811218 0.06245892 -0.016243514 0.01970959 0.061814275 0.0075924536 0.019511996 0.055466514
0.055098724 0.029735543 0.020528987 0.020458164 0.016905809 -0.0072523276 0.037596863 -0.0042361263
0.013930793 0.0096553685 0.052731946 0.019658232 0.035517003 0.01939282 0.012426022 -0.022222558
0.016962798 0.04115567 -0.01121919 0.019339502 0.041027274 0.06006063 0.0068471506 0.017316766
-0.008950001 -0.00052740704 0.015443884 0.02450871 0.006295845 -0.03864025 0.022722429 0.007673146
0.043363832 0.010150054 0.013094544 -0.00308648 -0.0040694736 0.013707784 -0.012096487 -0.0042863293
0.018190723 -0.016870568 -0.05303736 0.021507798 -0.0023643682 -0.041397884 -0.008220366 -0.03124835
0.035394304 0.034929432 -0.059322637 -0.014382342 -2.54912e-05 -0.017978555 -0.03334168 -0.066217214
-0.044880234 -0.010249644 0.036602817 -0.015716363 0.01481457 0.048131887 0.022820013 0.020083832
-0.059499994 -0.026499052 -0.028906183 0.042198297 -0.041793607 -0.022062793 -0.023912342 -0.009788142
-0.0058102715 -0.031215524 -0.019671384 -0.013227466 -0.0039533423 0.06298079 0.0012969516 -0.0013660522
-0.013059817 -0.017970627 0.01573142 -0.02760929 0.04531589 0.01866268 -0.0027806654 0.007826299
-0.014787227 0.010753622 -0.008170529 0.045723166 0.024233012 -0.01319706 -0.026893897 0.042580914
-0.028603021 0.017661236 -0.026316598 0.050199576 0.0024867724 0.04161844 -0.051873382 -0.015707994
-0.04019157 -0.0050994763 -0.029610038 -0.02087508 -0.01986125 -0.01465424 -0.0045060166 -0.030878374
-0.01637384 -0.049556322 -0.03635958 -0.030099936 -0.04635987 0.0015788487 -0.0070659 -0.0089874985
0.062309187 -0.02583768 -0.0011793199 -0.031582892 -0.009729904 0.026124796 -0.003431859 -0.019127583
-0.032887824 -0.030222114 -0.037206534 -0.008196431 -0.034627836 0.031129757 -0.0074297516 -0.006409651
-0.015085006 -0.054209273 0.0036924898 0.06190713 -0.043369845 -0.055469546 -0.03613897 0.025974812
-0.007685206 -0.026572058 0.0044551133 -0.061555184 -0.0322195 -0.038676888 -0.044552043 -0.0075883963
00000000: 5824 593d b540 b53c 8cb8 c53c 304e 1bbc
00000010: 7a80 f3ba c7c9 d03c fabc e13c 6cdc 2f3c
00000020: 3e75 6bbb ff25 ae3c e64f 39bb fdc1 d4bc
00000030: 0765 093d c33a 78bc 8d22 033d c239 a93c
00000040: b570 6f3d cb10 853d e218 823c f64d ce3b
00000050: 7c9f 1c3d 354d 5e3d 020c b53c 0b66 dd3c
00000060: bede 343d cc18 85bb 0e8d ac3c 6c36 113d
00000070: effd 063c 3170 78bc 487b 533d 34ab 353d
00000080: f7a6 2bbc 4dea 423d 860d 53bc c29a ed3c
00000090: 47e9 73bb 4034 253d 3cdb 79bb c4d2 8dbc
000000a0: e8ef aa3d e2b3 ee3b b404 003d ff5a 8abc
000000b0: a47b aa3c 2877 563d 95b6 673d afb1 703d
000000c0: 466a bd3b 7ef8 2d3c b361 533c f78c 6e3c
000000d0: a0bb 993c d882 17bd 8804 df3c 76e0 e6bc
000000e0: 504c d6bb 46ad 1e3c 0a76 e13c 6663 893c
000000f0: 6428 823b c42f a0ba 9784 813c 9b1d 533c
00000100: 17e6 0b3c 2828 e93c 17c6 2b3d d28b 0f3c
00000110: 5d2e d4b9 7349 823c 9915 af3b 2650 c83b
00000120: 0852 423c 3f6a 92bb a459 7f3d 61e8 343d
00000130: c1dc 2e3c b1f7 2c3b 10f4 863d b31d 693c
00000140: 6619 933b dcda 503d 4130 8bbc 3e8b ac3c
00000150: ef08 753d 9a5d 163d b2b1 213c 0a48 693c
00000160: ddb9 9d3b 5653 8f3d 2b9a 8d3c 4aaf 353d
00000170: 3b35 fe3c 97e8 023d b8c2 b53c d265 c03c
00000180: 519a 22bb edd4 7f3d 1e11 85bc 0276 a13c
00000190: f730 7d3d 1eca f83b 9fd7 9f3c db30 633d
000001a0: 33af 613d f497 f33c 682c a83c e197 a73c
000001b0: 0d7e 8a3c efa4 edbb 2bff 193d 34cf 8abb
000001c0: fb3d 643c 8d31 1e3c 74fd 573d 4d0a a13c
000001d0: 477a 113d b1dd 9e3c 8496 4b3c 150c b6bc
000001e0: 91f5 8a3c d992 283d b2d0 37bc e06d 9e3c
000001f0: 370c 283d 2302 763d 105e e03b e4db 8d3c
00000200: 06a3 12bc b041 0aba 5808 7d3c 7dc6 c83c
00000210: 604d ce3b 3d45 1ebd 6324 ba3c 046f fb3b
00000220: 469e 313d 694c 263c 808a 563c 8b46 4abb
00000230: 3859 85bb 9d96 603c 5830 46bc 5674 8cbb
00000240: b604 953c 2534 8abc b43d 59bd 1f31 b03c
00000250: 84f3 1abb d490 29bd b7ae 06bc 8afc ffbc
00000260: 9ef9 103d 2a12 0f3d 4bfc 72bd eaa3 6bbc
00000270: efd5 d5b7 c347 93bc 4991 08bd e49c 87bd
00000280: 56d4 37bd 1fee 27bc d6ec 153d 9abf 80bc
00000290: cfb8 723c f125 453d 09f1 ba3c d986 a43c
000002a0: 44b6 73bd 8a14 d9bc a9cc ecbc 1fd8 2c3d
000002b0: c62f 2bbd 08bd b4bc d1e3 c3bc 715e 20bc
000002c0: 1764 bebb b3b7 ffbc e225 a1bc 03b8 58bc
000002d0: 0a8b 81bb 13fc 803d 79fe a93a 1b0d b3ba
000002e0: d8f8 55bc 2337 93bc 2edf 803c e12c e2bc
000002f0: 289d 393d 7ae2 983c d33b 36bb e139 003c
00000300: 2046 72bc f62f 303c afdd 05bc 3748 3b3d
00000310: 4f84 c63c 7b38 58bc 9750 dcbc 5369 2e3d
00000320: e250 eabc 4cae 903c e895 d7bc 129e 4d3d
00000330: 1ef9 223b 1978 2a3d 2f79 54bd 0dae 80bc
00000340: ea9f 24bd 8219 a7bb c090 f2bc 3702 abbc
00000350: 0fb4 a2bc 5618 70bc 35a7 93bb a5f4 fcbc
00000360: 6e22 86bc 92fb 4abd c8ed 14bd 2494 f6bc
00000370: d9e3 3dbd 5ff1 ce3a 1189 e7bb 4d40 13bc
00000380: eb37 7f3d 8ba9 d3bc 6993 9aba 105d 01bd
00000390: 2d6a 1fbc ab03 d63c 0ae9 60bb 73b1 9cbc
000003a0: 62b5 06bd 5e94 f7bc e165 18bd 534a 06bc
000003b0: ebd5 0dbd d503 ff3c 4675 f3bb 0d08 d2bb
000003c0: 1a27 77bc 8b0a 5ebd b3fd 713b 5592 7d3d
000003d0: 94a4 31bd 0934 63bd 7506 14bd 21c9 d43c
000003e0: 2ed4 fbbb a5ad d9bc 33fc 913b 4a21 7cbd
000003f0: 98f8 03bd a86b 1ebd 347c 36bd 15a8 f8bb

action_model._discrete_distribution.branches.0.bias f4 [3]
-0.0204969 -0.004866941 0.028438717
00000000: 1de9 a7bc dc7a 9fbb 50f8 e83c

action_model._discrete_distribution.branches.1.weight f4 [4, 128]
0.010678103 0.021008315 0.015657617 0.0037729782 -0.14187182 0.029457109 -0.024802923 0.003551508
-0.0044674454 0.03089302 0.028626015 0.0054725995 0.027296035 -0.0029801785 0.0073928535 0.006078864
-0.04325834 0.03441748 0.0095412275 -0.0059420895 0.00699823 0.05633968 0.00942125 0.03322808
-0.01022888 0.01126265 -0.005865212 0.02625377 -0.02437696 2.7586225e-06 0.049363177 0.025242936
0.006448059 0.016473582 0.0004393638 0.024180468 -0.020428194 -0.037745092 -0.005007441 -0.06162397
-0.043472286 0.03277917 0.0074004102 -0.013258383 -0.008176538 0.06685678 0.043754503 0.016862767
0.0030582726 0.0018143193 0.009600797 -0.003710916 0.00049764704 0.03037688 0.002218602 -0.00973121
-0.02724453 -0.07710182 -0.0815588 0.005387956 -0.049710292 0.006575311 0.017080795 -0.010029485
-0.005748826 -0.028557254 0.015354277 -0.009160412 -0.04136462 -0.057729486 0.012183042 0.007576374
0.01300699 -0.042323247 0.046143506 0.013344947 -0.0035250282 0.011384052 0.044822287 -0.0027007582
0.0032671494 0.023440508 -0.14759076 0.0050600395 0.041433744 0.026868006 0.007328269 0.0072800145
0.0017797305 -0.03031423 0.00013530228 0.024680873 0.013147545 0.0023973123 0.017493514 0.027229419
-0.07175046 0.044118788 -0.10891143 0.004384746 0.0031810082 0.0029619653 0.0030338457 0.05060855
0.025115319 0.015785968 -0.014767667 0.0058855456 0.011883933 -0.0018340003 0.08046413 0.005733892
0.020380009 -0.05762849 -0.0020331475 -0.00034756292 0.006596907 0.02012213 0.016044945 -0.01697441
-0.0010589561 0.011203364 -0.14058699 0.011212707 0.014461188 0.0012211179 -0.0034456337 0.008579897
-0.014987377 -0.038619895 -0.012280869 -0.010885515 0.036367193 -0.0036905606 -0.010559321 -0.027286712
-0.0006916856 -0.0029851072 -0.018481601 0.021861231 0.00076794607 -0.012943598 -0.029514823 -0.016105434
0.027486708 -0.0059778653 0.034431376 -0.0060805054 0.015302591 -0.02700742 -0.017609749 0.010666087
-0.007635344 -0.0060995463 0.022866417 -0.016749 0.014290811 0.030691214 -0.007739579 -0.0042987335
0.015903343 -0.021198213 -0.0015955612 -0.01585184 -0.0038037687 -0.0058392147 -0.01955022 0.03163216
0.0002903691 -0.043473728 0.0186458 -0.0113793705 0.022764476 -0.012043159 -0.013624917 -0.017979052
0.003154621 -0.0035265028 -0.024027552 -0.0007273793 -0.037234902 0.0037256454 -0.028295541 0.020275846
0.006575063 0.018724995 0.023838637 0.023672212 -0.0035954553 -0.001843466 -0.004897154 0.016237086
-0.025707016 0.015474419 -0.02764191 -0.033296693 0.017139861 0.020800062 0.009150732 -0.015575473
-0.007911221 0.024741959 -0.022375906 -0.022001393 -0.034026343 -0.01522968 -0.009999238 0.0022724462
0.047531936 -0.011593408 0.050616108 -0.0047907284 -0.023320304 -0.018031085 -0.029843451 -0.008024577
-0.019024495 0.008066032 0.009491111 0.008107337 0.010661846 -0.024220156 -0.028092235 -0.0496706
0.0047939387 -0.010732779 0.04496571 0.03235224 -0.0007848143 0.012079421 -0.009559536 -0.047678985
-0.01734536 -0.014523651 0.041314278 -0.040952522 -0.0008078727 -0.016017973 -0.04172006 0.017333005
-0.0230187 0.031765617 -0.010405428 0.010290642 0.012772879 0.008599599 -0.0022966468 0.010041357
0.0035603533 -0.0024812454 0.04847997 0.009870895 -0.018323092 0.031368367 -0.008569555 -0.024644036
00000000: 36f3 2e3c a119 ac3c 6744 803c 1244 773b
00000010: d946 11be 0950 f13c 802f cbbc 6bc0 683b
00000020: a663 92bb 5c13 fd3c 1b81 ea3c 7e53 b33b
00000030: ef9b df3c 194f 43bb c03f f23b 3531 c73b
00000040: a82f 31bd 58f9 0c3d cf52 1c3c dcb5 c2bb
00000050: 6851 e53b 70c4 663d 965b 1a3c 2b1a 083d
00000060: 0897 27bc fa86 383c f730 c0bb 2512 d73c
00000070: 31b2 c7bc c620 3936 0b31 4a3d 46ca ce3c
00000080: 3d4a d33b 9bf3 863c 695a e639 1e16 c63c
00000090: 0759 a7bc 999a 1abd 7615 a4bb 6a69 7cbd
000000a0: ff0f 32bd 7343 063d 247f f23b b039 59bc
000000b0: e3f6 05bc 35ec 883d ec37 333d c923 8a3c
000000c0: 4d6d 483b 74ce ed3a a94c 1d3c d732 73bb
000000d0: 8774 023a efd8 f83c f765 113b a76f 1fbc
000000e0: ec2f dfbc 8fe7 9dbd 4d08 a7bd 738d b03b
000000f0: 059d 4bbd b575 d73b 06ed 8b3c b652 24bc
00000100: a660 bcbb e7f0 e9bc 8190 7b3c 8d15 16bc
00000110: f36d 29bd c175 6cbd 629b 473c 3b43 f83b
00000120: 451b 553c 245b 2dbd f900 3d3d c4a4 5a3c
00000130: 2904 67bb 2d84 3a3c 9397 373d 34ff 30bb
00000140: ac1d 563b 4f06 c03c 0822 17be b0ce a53b
00000150: 6eb6 293d 4b1a dc3c fa21 f03b 308d ee3b
00000160: d945 e93a 8c55 f8bc eedf 0d39 8b2f ca3c
00000170: cd68 573c 3a1c 1d3b 8f4e 8f3c 3b10 df3c
00000180: e8f1 92bd e7b5 343d f50c dfbd eaad 8f3b
00000190: 7678 503b 881d 423b 7cd3 463b e94a 4f3d
000001a0: a4be cd3c 9351 813c 16f4 71bc 89db c03b
000001b0: d4b4 423c d762 f0ba 61ca a43d 5fe3 bb3b
000001c0: faf3 a63c da0b 6cbd 8e3e 05bb 1b39 b6b9
000001d0: de2a d83b 2ad7 a43c b070 833c eb0d 8bbc
000001e0: accc 8aba 508e 373c 09f6 0fbe 80b5 373c
000001f0: 9eee 6c3c eb0d a03a 24d0 61bb b292 0c3c
00000200: 9e8d 75bc e52f 1ebd b335 49bc 2959 32bc
00000210: c4f5 143d 55dd 71bb 0101 2dbc 6288 dfbc
00000220: 3c52 35ba caa1 43bb ba66 97bc 5316 b33c
00000230: fd4f 493a 6311 54bc 12c9 f1bc 8bef 83bc
00000240: ce2b e13c f8e1 c3bb ea07 0d3d fa3e c7bb
00000250: b8b7 7a3c aa3e ddbc 5242 90bc d0c0 2e3c
00000260: e831 fabb b4de c7bb 5a52 bb3c 3335 89bc
00000270: 0124 6a3c 246c fb3c 4b9c fdbb 64dc 8cbb
00000280: ba47 823c e0a7 adbc 2622 d1ba b8db 81bc
00000290: a648 79bb e256 bfbb c827 a0bc b990 013d
000002a0: ae3c 9839 8211 32bd 14bf 983c 8a70 3abc
000002b0: 917c ba3c ac50 45bc 0b3b 5fbc ce48 93bc
000002c0: c2bd 4e3b e61c 67bb 6ed5 c4bc 99ad 3eba
000002d0: a083 18bd f529 743b 0dcc e7bc 8819 a63c
000002e0: a073 d73b 2965 993c 3f49 c33c 3aec c13c
000002f0: bba1 6bbb 74a0 f1ba 4e78 a0bb a303 853c
00000300: 8597 d2bc 6b88 7d3c 4971 e2bc 1d62 08bd
00000310: e568 8c3c e464 aa3c f4ec 153c 4530 7fbc
00000320: 119e 01bc a6af ca3c ad4d b7bc 443c b4bc
00000330: 355f 0bbd e885 79bc d8d3 23bc 52ed 143b
00000340: d9b0 423d 47f2 3dbc d652 4f3d 8bfb 9cbb
00000350: 390a bfbc edb5 93bc 417a f4bc 8479 03bc
00000360: 42d9 9bbc 6427 043c 9b80 1b3c a3d4 043c
00000370: 06af 2e3c 5969 c6bc b021 e6bc 6673 4bbd
00000380: 7916 9d3b 8ad8 2fbc f72d 383d c883 043d
00000390: ffbb 4dba c4e8 453c 9a9f 1cbc 0a4b 43bd
000003a0: db17 8ebc 9cf4 6dbc 2939 293d d5bd 27bd
000003b0: 6bc7 53ba 2038 83bc a7e2 2abd f2fd 8d3c
000003c0: b691 bcbc aa1c 023d 877b 2abc 159a 283c
000003d0: 5645 513c 55e5 0c3c 5783 16bb 8184 243c
000003e0: d154 693b 649c 22bb ef92 463d 89b9 213c
000003f0: 4f1a 96bc 1e7c 003d 5267 0cbc 4ae2 c9bc

action_model._discrete_distribution.branches.1.bias f4 [4]
-0.0471494 0.011943249 0.009997009 0.027517581
00000000: bb1f 41bd 9ead 433c 7fca 233c 8d6c e13c
