Assets/Configs/results/=ModelTrain/AiAgents/checkpoint.pt (torch, 901218 bytes, 52 tensors)

discrete_act_size_vector f4 [1, 2]
000000 00 00 40 40 00 00 80 40
       3.0 4.0

network_body._body_endoder.seq_layers.0.weight f4 [128, 22]
000000 2e 5c 77 bc f5 66 1a bd 44 20 50 3e 01 8d 2e be
       -0.015097661 -0.037695844 0.20324808 -0.17045976
000010 28 24 6d be c3 bf 56 3e 4a e5 ab 3c 87 f3 9a be
       -0.23158324 0.20971589 0.020983357 -0.30263922
000020 b6 80 b2 3d de 8a 14 3f 8c 5a 5b bd a8 32 3f be
       0.08715956 0.58024395 -0.05355315 -0.18671668
000030 6f 76 e7 be 9b 66 ee 3d e8 18 ce 3e cf 2a 07 be
       -0.45207545 0.11640664 0.40253377 -0.13199924
000040 1d 64 c6 be 40 53 3a be 3d e2 c8 3d 79 f6 03 be
       -0.38748255 -0.1819582 0.098087765 -0.1288699
000050 15 6d 36 3e 74 cd e4 3e fc 1d d9 3e 8f 69 48 be
       0.17815049 0.44687998 0.4240569 -0.19571517
000060 b5 b1 90 bd 79 be 6d 3e d6 7b 84 be eb 56 85 be
       -0.07065145 0.23217191 -0.2587573 -0.26042876
000070 ff d2 8a 3d 0f b6 0d bf 3c 52 d3 bc 5c 04 14 3d
       0.067785256 -0.55355924 -0.025796048 0.03613697
000080 a8 aa 52 be 07 24 38 3e 78 b9 97 bd 81 a8 1e be
       -0.20572913 0.17982493 -0.07408422 -0.15493967
000090 fc 04 82 be eb 27 0b be 11 02 fa 3d f3 0a 57 3c
       -0.25394428 -0.13589446 0.122074254 0.013125169
0000a0 2c 42 15 3e 94 4f 03 3e 89 fe 6c be 70 83 c6 be
       0.14576024 0.12823325 -0.23143972 -0.38772154
0000b0 ed 65 c7 3d 7d 03 93 bd 6a 14 c1 3e d3 94 2f 3e
       0.09736238 -0.071784 0.37710887 0.17146616
0000c0 f5 2b 4a be 9d 01 70 3e 09 0d 11 be 0f ad 07 3e
       -0.19743331 0.23438115 -0.14165129 0.1324961
0000d0 25 68 06 be d7 f9 38 3f 21 9d 79 3c 66 36 e6 3d
       -0.13125665 0.72256225 0.015235216 0.112408444
0000e0 0e 84 26 bc 8c 54 7d 3d 4c d1 9a be 4c ee b5 bd
       -0.01016332 0.06184821 -0.30237806 -0.08883342
0000f0 25 b4 36 bb 39 4e b1 bc 34 f9 00 3e e3 2b de be
       -0.002787837 -0.021643745 0.12595063 -0.43392858
000100 b2 66 14 3e 0a 3f 9b be a3 ce 21 bd d7 a6 88 be
       0.144923 -0.30321532 -0.039503705 -0.2668979
000110 1f df 85 be 82 d0 1c 3c ac 32 24 3e 8a 21 3d 3d
       -0.2614679 0.0095711965 0.16034955 0.046174563
000120 69 2e 2c bf 6f 12 67 3d 75 ad 85 bd 39 90 f6 bd
       -0.67258316 0.056414064 -0.06527225 -0.12039227
000130 59 88 2d bd 27 72 bf be e5 ac c3 be 15 a9 82 be
       -0.04236636 -0.3739178 -0.38217846 -0.25519624
000140 4a a9 3d 3e 42 49 1f 3e cb 4e 63 3e 42 d9 2b 3e
       0.1852161 0.1555529 0.22198026 0.16782096
000150 0d 99 e2 3d a4 34 33 39 4d 18 16 bc c6 a0 ad be
       0.11064348 0.0001709038 -0.009161067 -0.33911723
000160 6d 41 5b be 40 e8 1f 3e ac 59 8c 3e ae 15 4d be
       -0.21411677 0.1561594 0.27412164 -0.20027801
000170 a4 6d 92 be 78 d6 2d 3e f9 2d 66 3e 81 0f d7 be
       -0.28599274 0.16976345 0.22478475 -0.42004016
000180 d9 d7 1b be 6f 5c 54 be 27 6b bf bd 37 c6 20 be
       -0.15219058 -0.20738386 -0.093466096 -0.15700613
000190 10 be e2 3d fb 82 d8 bd 5a d6 2a be 9b 67 f4 bd
       0.11071408 -0.105718575 -0.16683331 -0.11933824
0001a0 41 51 93 be 63 67 87 bd ac aa f2 bd 41 f0 8a be
       -0.2877293 -0.06611516 -0.11848959 -0.27136424
0001b0 fd 03 6d 3e 5b 92 cd bb 5e 23 82 3c 72 2f 00 3e
       0.23146053 -0.0062735504 0.015886005 0.12518099
0001c0 24 f9 33 3e e2 5a d2 bd 50 d7 77 3e 02 96 d1 be
       0.17575508 -0.10271241 0.24203229 -0.4093476
0001d0 be 43 63 3e 49 4c c8 3e 93 b0 91 3e 85 3b b6 be
       0.2219381 0.391207 0.28455028 -0.35592285
0001e0 9f 16 94 bd 2d 79 51 3b bb cb 17 3e 68 e5 53 bd
       -0.07230877 0.0031963096 0.14823811 -0.05173245
0001f0 df 64 70 bc 31 ed 9e be 28 28 a9 be 9e 3a 97 3d
       -0.014672487 -0.31040338 -0.3303845 0.07384227
000200 44 9e 14 bd aa 99 b8 be f9 f3 b4 bd ab 3a e7 3e
       -0.036283746 -0.36054736 -0.088355966 0.45161948
000210 e7 d4 04 3e 33 7d ad bd c1 81 b5 3e 1d b2 a3 bd
       0.12971841 -0.084711455 0.35450557 -0.07992957
000220 31 d5 2f 3e 3a c2 75 3e cd 88 3f 3c 52 fc 2b bd
       0.1717117 0.23999873 0.011690331 -0.04198868
000230 7b 3f 33 3e 32 4c c8 3d bd 9b 91 3e 9e a7 cd 3d
       0.17504685 0.09780158 0.2843913 0.10041736
000240 6b 43 4d 3d c8 64 a8 3d 30 ce 8d 3e 5c 36 9c 3e
       0.050113123 0.082223475 0.2769637 0.30510223
000250 0c eb 82 be 1d ef ac 3e 03 dd 82 be 7f ec 20 be
       -0.25569952 0.3377618 -0.25559244 -0.15715216
000260 a4 98 cc 3d 73 55 de bd 89 0f 9b bd 26 89 9d 3e
       0.099900514 -0.10856142 -0.075713225 0.30768698
000270 3a 39 c8 3e 30 72 00 3e 7e 6b 82 be 54 ea 92 bd
       0.3910616 0.12543559 -0.25472635 -0.07173601
000280 79 18 56 3e d7 c1 4a 3e 77 19 e2 bd 7b 9a df 3c
       0.20907773 0.19800507 -0.11040013 0.027295342
000290 e8 cf 2d 3b b2 88 80 3d f0 b1 31 3e 8d 93 83 be
       0.0026521627 0.062760726 0.17353034 -0.2569851
0002a0 8e 50 e0 3d a9 8c 6d bd f9 4e 1b 3e 85 ef 7b 3e
       0.109528646 -0.057995472 0.15166844 0.24603088
0002b0 21 df 96 3d 1f 68 db be 22 36 94 bd e8 9e 73 be
       0.07366777 -0.42852876 -0.072368875 -0.23791087
0002c0 e1 88 8f bd 7a 0b 40 3e c3 db 5b 3e 4a 59 b0 be
       -0.070085295 0.18754378 0.21470551 -0.34443122
0002d0 f5 ee 52 be 34 21 37 3e 59 aa 60 be d7 c5 57 3e
       -0.20598967 0.1788376 -0.21939982 0.21071564
0002e0 75 3e 64 be 1f 99 4a 3e 9f cd 1a 3f 69 1d 88 be
       -0.2228945 0.19784974 0.6047 -0.26584938
0002f0 ca c8 99 bd 07 ff 72 3e 75 1a d1 3e 71 a7 17 3c
       -0.075090006 0.23730098 0.40840498 0.00925623
000300 c2 34 aa bd 51 52 2b 3e fb ea cd be 75 6d 39 3e
       -0.08310844 0.1673062 -0.40218338 0.18108161
000310 66 bc 60 bd 56 20 c5 3d e6 3b 75 3e d0 1e fc 3d
       -0.05486717 0.09625308 0.2394863 0.123105645
000320 50 87 d4 3d af a1 91 3e 59 82 01 3e ea cd ae 3d
       0.10377371 0.28443667 0.1264738 0.08535369
000330 1a 84 8b bd 89 76 45 3e 30 ff 9b be bd ef 8a 3d
       -0.06812306 0.19283499 -0.3046813 0.06784008
000340 65 1b 1c bd a7 77 e0 3d 4f 8c 37 3e f4 f0 60 be
       -0.038112063 0.10960322 0.17924617 -0.21966916
000350 d9 fa 0f bd 71 88 ed be 24 06 82 be cb 6b dd bd
       -0.035151336 -0.4639316 -0.2539531 -0.108115755
000360 12 59 d2 bd 30 71 45 3e f3 b2 bd bd 98 7e 7c be
       -0.10270895 0.19281459 -0.092626475 -0.24657667
000370 29 e9 fa be c1 09 4c be 1d 01 2e be 06 c6 20 bd
       -0.49006012 -0.19925596 -0.16992612 -0.03925135
000380 9d c8 37 3e 8f 87 23 be 63 97 d0 3e 8d 02 c7 3d
       0.17947622 -0.1596968 0.407405 0.097172834
000390 3f 61 aa be bd 19 15 be ad 99 83 be da 48 40 bd
       -0.33277318 -0.145606 -0.25703183 -0.046944477
0003a0 98 24 5c bd 4c 97 98 3e 29 f7 21 bb 97 ff eb 3d
       -0.053745836 0.2980293 -0.002471397 0.11523359
0003b0 7a 75 79 be bd 8f fb bd f7 e1 71 3e f3 7e be be
       -0.2436122 -0.12283275 0.23621355 -0.3720623
0003c0 56 96 0b 3d 66 18 be be 8e 59 94 3c e4 c2 22 bb
       0.03407892 -0.3712799 0.01810911 -0.0024835402
0003d0 a8 41 86 be a5 16 b3 bd e6 fe a0 be 4b 9f 89 bd
       -0.26221967 -0.087445535 -0.31444472 -0.06719836
0003e0 45 8a 19 3e 6f 7b 93 3e ef 65 73 be ef e3 b7 bd
       0.14994152 0.2880511 -0.23769353 -0.08979022
0003f0 c1 bd 85 3e 0b 51 f8 3d ce 15 5c be 06 55 5b 3e
       0.26121333 0.12124833 -0.21492693 0.21419153

network_body._body_endoder.seq_layers.0.bias f4 [128]
000000 65 c0 fa bc f8 04 91 3c 16 2f a5 bc 36 65 71 bd
       -0.030609319 0.017702565 -0.020164054 -0.058934413
000010 af 8b 9c bb 62 a1 26 bd 70 d7 fe 3b d4 51 c7 bc
       -0.004777394 -0.04068125 0.007777147 -0.02433101
000020 02 2f 0c bc bc 86 d1 b8 46 6b 17 bd f6 72 2d bd
       -0.008556129 -9.990993e-05 -0.03696754 -0.042345963
000030 59 a0 58 bd c1 a2 5c 3a 88 bb 01 bc 8a bb e8 bc
       -0.052887294 0.0008416586 -0.007918246 -0.028409738
000040 39 ee 4e 3c 3e 3e 0d bd eb 4f d5 3c d3 60 b1 bc
       0.012630039 -0.034483187 0.026039084 -0.021652615
000050 e1 00 27 bd 0e b5 b1 3c 96 82 01 bd d3 da 85 3c
       -0.040772323 0.021692779 -0.031618677 0.016339695
000060 c3 fe 05 3d 80 20 db 3c 76 2d 40 bd 73 df e9 bc
       0.032713663 0.026748896 -0.046918355 -0.028548932
000070 42 7e 5c 3c ee fc 6b 3c 29 12 a1 bc aa ae 22 3c
       0.013457837 0.014403565 -0.01966198 0.0099293385
000080 27 3b 03 bc ac 0c 9c bc bf 74 b0 3c 70 5d 3f bd
       -0.0080097085 -0.019049011 0.021540044 -0.04671997
000090 08 2e 37 bc 2b 8b cc bc a4 69 39 bd 8c 89 a2 ba
       -0.011180408 -0.024968704 -0.045266762 -0.0012400611
0000a0 d7 e1 05 3d 21 76 25 bc d0 b7 52 bd 9a f4 b4 3c
       0.03268608 -0.010098965 -0.05144483 0.022089291
0000b0 36 18 6d bd e3 01 ca bc 51 3e 25 bc 44 ac cb 3c
       -0.057884417 -0.024659103 -0.010085658 0.024862416
0000c0 fa 37 98 bc 8c 8e 67 3d 67 e8 8c 3b d1 06 15 3d
       -0.01858138 0.056532428 0.0043001655 0.036383454
0000d0 bf 54 37 bc e7 39 b4 bc f8 76 8c 39 fb f7 4f 3d
       -0.011189639 -0.022000266 0.0002679152 0.050773602
0000e0 d0 f2 fc bc ad 75 f0 3b ef 09 69 3d b4 e6 a9 bb
       -0.0308775 0.007338247 0.05689424 -0.0051849727
0000f0 e1 11 33 bc b0 87 4b 3c 28 1c 26 3d e8 85 e3 ba
       -0.010929556 0.012422487 0.040554196 -0.0017358633
000100 97 1c 39 bc 60 f7 7f bd 3c 12 cc 3c 3c 4b 0f bd
       -0.01129832 -0.062491775 0.024911039 -0.03498386
000110 03 52 20 bd 19 4e d1 bc 41 66 b5 bc 05 66 ba 3b
       -0.039140712 -0.025549935 -0.022143485 0.005688431
000120 03 3f 2f bc dc f1 c4 bc 9f cd 33 3c 43 7b c8 b9
       -0.0106961755 -0.024041109 0.010974317 -0.0003823881
000130 9e 2d d5 3c a2 e8 72 bc c4 81 30 bd 31 b6 75 bd
       0.026022729 -0.014825972 -0.043092504 -0.059988204
000140 63 c8 84 3c bc f8 06 bd 3d c3 42 bc 4d 7b 54 3d
       0.016208833 -0.032952055 -0.011887369 0.0518754
000150 f4 f5 01 bd 47 4e eb 3c 16 46 a4 bc a0 81 b2 3c
       -0.0317287 0.028723849 -0.02005295 0.021790326
000160 7b 2a 26 bd 90 1a 31 bd 19 f6 ed 3b f3 57 7b bc
       -0.040567856 -0.043238223 0.007262003 -0.015340793
000170 e8 f8 d1 3c 84 9c d2 3c 7c d2 c6 bc ef d2 ec bc
       0.025631383 0.025709398 -0.024270289 -0.028909175
000180 f3 5d 05 ba 3a 59 f9 bc 50 35 62 3c 8f c0 8b bc
       -0.0005087547 -0.030438054 0.013806656 -0.017059593
000190 86 df 08 3d fc ff 43 3d 8c 37 47 bc e0 33 03 3d
       0.033416294 0.047851548 -0.0121592395 0.032031894
0001a0 49 78 f2 bc d4 40 60 bc fe 5b 6d bc 46 99 38 bd
       -0.029598372 -0.013687331 -0.014487265 -0.045068048
0001b0 70 91 80 ba 07 8f 12 bd bf 5e db 3b 5f b2 a7 bc
       -0.0009808969 -0.035780933 0.006694644 -0.020470796
0001c0 40 d6 24 3c 93 35 25 3c 07 dc 0b 3c 9c 9c de 3b
       0.010060847 0.010083574 0.008536345 0.0067935716
0001d0 a0 40 d8 3c b4 68 6a 3b 83 27 69 3d 3b ce bc bb
       0.026398003 0.0035767974 0.056922447 -0.0057618893
0001e0 ee 0d 98 bb 8b 20 8d bc 71 f7 22 bd f2 69 a1 bc
       -0.0046403324 -0.017227432 -0.03978676 -0.019703839
0001f0 31 7e 27 3b 95 c5 3c 3c 63 e9 6a 3d f1 34 cf bc
       0.0025557394 0.011521717 0.05735148 -0.0252938

network_body._body_endoder.seq_layers.2.weight f4 [128, 128]
000000 9d f1 e8 3c b6 a2 2e bd 68 89 41 bd d6 f1 e0 3d
       0.028435523 -0.042635642 -0.04725018 0.109836265
000010 49 cd 80 bd f3 6b 49 bd 19 73 a2 bb 33 a5 46 bd
       -0.06289155 -0.049175214 -0.0049575684 -0.04849739
000020 84 44 1f bd e7 7c 25 3e 54 4a 6d be 5c 43 0d bd
       -0.0388837 0.16160928 -0.23172885 -0.034488067
000030 ae 55 ed 3d ed c7 cc bb bd 46 15 bd f3 60 ef 3c
       0.11588608 -0.006249419 -0.036444414 0.029221034
000040 c4 4e f8 3c e7 93 4f be 8c ae 8a 3d 79 ad 95 3c
       0.030310996 -0.20271264 0.067715734 0.018271195
000050 1a b4 65 bd 9a c9 0c 3d 30 57 93 bd d0 44 fc 3d
       -0.05607996 0.03437195 -0.07194364 0.123178124
000060 e3 20 8a bb 60 6a 02 3e 12 19 17 3d 47 92 82 3d
       -0.004215346 0.12735891 0.036889143 0.063755564
000070 29 c3 03 3d 3a db 64 3b 6f 9f f2 bd 12 62 90 3c
       0.03216854 0.0034920708 -0.11846816 0.017624889
000080 1c 86 9d 3c f0 dd c0 3c 35 2c de 3d cc 07 90 3c
       0.019228987 0.023543328 0.108482756 0.017581843
000090 95 0a 28 3d 0d 30 97 bd 6c 05 0f 3d 3c a6 cf bd
       0.041025717 -0.07382212 0.03491728 -0.101391286
0000a0 12 5e 6e 3d 2a d8 c2 bd 8f c3 6d 3d b7 62 c6 bd
       0.05819518 -0.09513886 0.058047827 -0.09686797
0000b0 20 fd a7 bd b4 45 f3 bd 2a e8 5c be a3 fd 34 3d
       -0.08202577 -0.11878529 -0.21572939 0.0441872
0000c0 56 4c 73 bc 6c 81 ae 3d 4b 3b 92 bc 51 a4 b2 3d
       -0.014849743 0.08520779 -0.017850539 0.08722747
0000d0 6f 22 39 3b 99 f1 8b 3d 9a 9b 42 bd e1 98 7c bc
       0.0028249284 0.068331905 -0.047511674 -0.015417309
0000e0 d8 7b b4 3b ea a6 f4 bd 48 99 8e bd 94 ae a1 3c
       0.0055079274 -0.11945899 -0.0696283 0.019736566
0000f0 2d 82 5c be 33 c4 f1 bd b5 0c 10 bd fd 9f da bd
       -0.21534033 -0.11805 -0.03516837 -0.106750466
000100 b5 34 e1 3d ed e3 04 3d b2 7f b9 3c d6 64 2c be
       0.10996381 0.03244393 0.022643898 -0.16835341
000110 c1 de e0 bd fe 38 0f be 1c 70 09 bd 72 ae 9e 3c
       -0.10979987 -0.13986585 -0.03355418 0.019370291
000120 0a 2d 67 be d0 35 c6 3d f5 45 d4 bd 4d 5d e0 bc
       -0.22575775 0.09678233 -0.10364906 -0.02738824
000130 cc 2e 80 3e 7f da 83 3c c6 3a 49 be d4 ad c6 3c
       0.25035703 0.016095398 -0.19651327 0.02425281
000140 9f 99 35 3d b0 9f e7 3d e8 85 8a 3d 64 32 14 3c
       0.044335958 0.11309755 0.06763822 0.009045217
000150 c9 ff c2 3c c6 d8 51 bc 7b 5f 57 3d c9 04 e0 3b
       0.023803608 -0.0128080305 0.05258129 0.006836508
000160 df 1c 49 3d 51 df 06 be d5 95 1c be 3a 06 05 bd
       0.0490998 -0.13171126 -0.15291531 -0.03247664
000170 7e 2c 9c bc c8 91 fc 3b 69 1a cb bc e2 bb 53 bc
       -0.019064184 0.007707808 -0.024792867 -0.012923213
000180 07 1d 82 3d a0 58 90 3d 1b a2 b3 b8 6c 53 32 3e
       0.06353193 0.07048154 -8.5655796e-05 0.17414635
000190 8a 0d f7 3c 93 1c 23 3d c2 c1 11 be 8e de 35 bd
       0.030157823 0.039822172 -0.14234069 -0.044401698
0001a0 26 56 1f 3d ca 7b a9 bd f9 e9 e9 bd 85 b4 10 bc
       0.038900517 -0.08275564 -0.1142158 -0.008832102
0001b0 61 03 59 ba 3f 3a d6 3d 2a 1c 50 bd 84 6f 6b 3d
       -0.00082783966 0.10460328 -0.05080811 0.057479396
0001c0 29 6f 65 3e ad 1a 3c bd 9c bc 83 3d 65 31 0d bd
       0.22405685 -0.045923878 0.06432459 -0.034470934
0001d0 63 64 bd 3d 2e 89 d4 3d 57 51 39 3c 68 97 51 be
       0.09247663 0.103777274 0.011310897 -0.20467913
0001e0 82 e3 18 3e fc f4 6b bc 7a fb b5 bd ed bf 77 3d
       0.14930537 -0.014401671 -0.08885856 0.06048577
0001f0 7c 00 25 bd b3 b2 b5 bd b6 f7 c9 bc a9 9d db bd
       -0.040283665 -0.08871975 -0.02465425 -0.10723431
000200 ea 0c f4 bd c0 1a 71 bd 41 ac fd 3c 16 ed 13 3c
       -0.11916526 -0.0588634 0.030965926 0.009028694
000210 b5 f6 98 3d eb 78 2c bd 21 8f 7f bd 3e 47 e9 3c
       0.07468931 -0.042107504 -0.062392358 0.028476354
000220 a7 33 19 3b e6 92 a5 3c a4 bc 63 bd d6 ec f8 3d
       0.0023376734 0.020211648 -0.055599824 0.12154548
000230 49 02 10 3e a7 87 32 3e ed 8e 47 3d ec 38 25 bd
       0.14063372 0.1743456 0.04872029 -0.040337488
000240 da 09 2e be 07 5a 38 bd 39 2e a2 be 9d 1b d4 bd
       -0.16995946 -0.04500773 -0.3167589 -0.10356829
000250 9f 97 1f 3d a0 95 49 3d 33 a2 ad bd bb df e5 bb
       0.038962957 0.04921496 -0.08478203 -0.007015196
000260 d2 c6 66 bc 71 8c 01 3e ec d1 ff bd 83 52 8f bd
       -0.014085488 0.1265123 -0.12491211 -0.0699816
000270 24 9e 0d 3e 7e ed 39 3d bf 13 f5 bd 51 f6 bd 3d
       0.13829857 0.045392506 -0.11966657 0.09275497
000280 cc 94 a2 3d 2e 23 7d 3d e1 d2 a2 3d 86 ca 90 3d
       0.07938537 0.061801128 0.07950378 0.07069878
000290 6a 7d a6 bd a5 1d 98 bb fe 68 2b be dd 83 81 bd
       -0.081293896 -0.004642206 -0.1673927 -0.06323979
0002a0 74 19 cb 3d b6 39 d1 bc 28 25 3b bd b5 4e 02 be
       0.09916964 -0.025540214 -0.04568973 -0.12725337
0002b0 d1 16 3d 3d 5f a9 22 3d eb ad 3c 3d 75 12 8c bd
       0.046164338 0.039712306 0.0460643 -0.06839458
0002c0 2b 3b 00 be 37 82 8a bd f5 49 68 be a4 5f 56 3d
       -0.12522571 -0.06763118 -0.22684462 0.052337304
0002d0 b4 eb 4c 3d fe 89 75 be ca 89 c5 bd fb 7a 8d bc
       0.05002947 -0.23978421 -0.09645422 -0.017270556
0002e0 3a d6 6f bd 47 0b ae bd 28 83 0d be 97 22 5a 3d
       -0.05855391 -0.08498245 -0.13819563 0.053255644
0002f0 98 70 99 bd 39 7e 4d bd 4c f3 38 3d 25 f8 d9 3d
       -0.07492179 -0.050169203 0.0451539 0.10643033
000300 ad 8f 21 3d 93 2a 74 3d 6c df 8e bd cd 50 d9 3d
       0.03944366 0.059610914 -0.06976208 0.10611115
000310 65 f6 0e 3e 3c 9c 88 bd ff c9 06 3c 27 89 49 bd
       0.1396118 -0.06670424 0.008226871 -0.049203064
000320 ed 06 b8 bd 01 e5 b1 bd 66 e7 18 3e af b4 d6 3d
       -0.08985696 -0.08686257 0.14932021 0.104836814
000330 d2 ae 2c bd ae cf 9b bd 27 e5 08 3d cd 82 71 3d
       -0.04215891 -0.07607971 0.03342166 0.058962632
000340 1a 72 ea 3d 20 68 dc bc ae 94 26 be dc 4b b3 3c
       0.114475444 -0.02690512 -0.16267654 0.021886759
000350 6a 3d b5 3c 83 19 72 bd 03 b3 5b bd 94 0a e9 bd
       0.022124011 -0.05910636 -0.053637516 -0.11378971
000360 ac 9f be 3c 89 b5 96 bd 44 d1 15 be 2b e5 32 3d
       0.023269497 -0.07358844 -0.1463061 0.043675583
000370 d5 19 f0 bd f6 f1 4c bd 28 08 88 3c a0 dc 53 3d
       -0.11723677 -0.05003544 0.016605452 0.051724076
000380 3f 6f 1d be 90 70 84 3d 5f 7f cb 3c 4e 04 fa bd
       -0.15374468 0.06466782 0.024841009 -0.12207852
000390 6a c0 66 bd 6f f5 95 3d f3 8e 01 3e 43 43 e3 bd
       -0.056335844 0.07322203 0.12652187 -0.110968135
0003a0 93 2c c9 bc d0 6c 1f 3e 69 3e 07 3e ff c3 22 bb
       -0.024557387 0.15568852 0.13207401 -0.002483606
0003b0 3c 40 56 3d 1a 86 60 be 6b 3d d9 bd 00 09 90 3c
       0.052307352 -0.21926156 -0.10607418 0.017582417
0003c0 c8 35 b6 bd 8d c0 87 bd 49 fd ef 3d d3 5f ed bd
       -0.08896977 -0.06628523 0.11718232 -0.11590543
0003d0 c5 52 23 be 53 8c d0 3c bb 46 68 bd 3a 81 0b 3e
       -0.15949543 0.025457537 -0.05670808 0.13623515
0003e0 6a 8b a8 bd 99 96 6d 3d 97 5f 8c bd 4f 79 00 3e
       -0.08229716 0.05800495 -0.0685417 0.12546276
0003f0 17 ac 2d bd 26 4a 9d bc 88 63 87 3c 5c e1 03 bd
       -0.042400446 -0.019200396 0.016526952 -0.03219734

network_body._body_endoder.seq_layers.2.bias f4 [128]
000000 30 b3 0d 3c 1d 3f ce bc 79 d0 a7 3c a6 e9 15 3b
       0.008648679 -0.02517658 0.02048515 0.002287486
000010 52 7c 1a bd 5c d0 cc 3b e3 62 c6 b9 b3 26 e5 bc
       -0.037716217 0.0062504243 -0.0003783918 -0.027972555
000020 36 20 f2 bb 13 60 fc 39 11 2d b1 3a b8 ad 2d bd
       -0.0073890937 0.00048136766 0.0013517459 -0.042402
000030 69 ae 25 3c f3 38 1e bd ea 69 3e bd 40 64 f0 3c
       0.010112383 -0.03862853 -0.046487726 0.029344678
000040 57 e2 29 bb 55 d2 89 bd 67 77 24 bd 51 90 31 bc
       -0.0025922263 -0.06729571 -0.040152933 -0.01083763
000050 4b 66 6f bc 88 91 58 3d aa 78 cc bc 1c f3 dc bb
       -0.014611791 0.052873164 -0.02495988 -0.006742848
000060 d7 81 c9 bb 58 9a ed bc 9c b4 93 3c 46 24 1f bd
       -0.0061495113 -0.02900426 0.018030457 -0.038852952
000070 b9 e1 00 bb 37 09 3b bd b5 d2 38 bc 67 1e 1a bc
       -0.0019665791 -0.045663085 -0.011280705 -0.009406663
000080 17 ab e4 bc 06 96 9c bd a6 53 86 bb 7d 88 ed bc
       -0.027913613 -0.07645802 -0.004099327 -0.028995747
000090 ac 31 b4 bc 09 4c 88 bc 3f 2e a5 bd c4 01 7a bc
       -0.021996342 -0.016637819 -0.08065461 -0.01525921
0000a0 74 0d f1 bc cc 2c d9 3c 9c 62 25 bd bf 3f 0d 3d
       -0.02942536 0.026510619 -0.040377244 0.03448462
0000b0 b3 4c c8 bc 81 80 11 bd b9 50 30 3c 4e 61 2a bd
       -0.024450636 -0.03552294 0.010761433 -0.041596703
0000c0 00 e8 83 3c d2 f2 28 bd f1 a8 92 3c fa c0 ae ba
       0.016101837 -0.041247196 0.017902823 -0.0013332658
0000d0 9e 56 3d 3c 08 2c 2f bc fe e5 de bc 0d 83 f9 bc
       0.011556296 -0.01069165 -0.027209278 -0.030457998
0000e0 be c3 32 3c 6e 36 2c bc ef da 8c 3c a9 0c 85 bc
       0.010910926 -0.010511024 0.01719424 -0.016241388
0000f0 e7 42 d4 3b c1 e5 b0 3c d7 4a 2a bd 70 80 50 3d
       0.006477702 0.02159393 -0.04157528 0.050903738
000100 89 db 8e bc 0b c7 e9 bc 34 35 dd bc 64 51 b8 3c
       -0.017438667 -0.028537294 -0.027002908 0.022499748
000110 af 69 96 bb 14 a3 98 bd 0d 60 25 3c 33 cf 8e bb
       -0.004590235 -0.0745298 0.010093701 -0.004358196
000120 48 b8 07 bd 18 93 23 bd 8b da 60 bc 4d cb 16 bd
       -0.03313473 -0.0399352 -0.01372398 -0.036814976
000130 fc c8 08 bc 08 a6 05 3c a2 71 c4 bc 72 3a 84 3c
       -0.0083487 0.008157261 -0.023979966 0.01614115
000140 25 40 3f bd 23 07 a9 ba 10 41 bc 3c 0f a3 27 bd
       -0.046692032 -0.0012895804 0.022980243 -0.04092699
000150 30 78 14 bd ca c7 d2 bc bd b9 d5 3c 24 5b 4a bc
       -0.036247432 -0.025730032 0.026089543 -0.012350831
000160 5a 8c 91 ba 5b 3e 85 bb 67 19 59 bd 23 cd 29 3d
       -0.001110445 -0.0040662712 -0.05300274 0.0414554
000170 bc 5d 37 bc 3a b6 b4 bc 03 86 46 bc 15 a2 5e 3d
       -0.011191782 -0.022059549 -0.012116912 0.054353792
000180 cf ca 17 bd 0a be 6c bc c5 18 6e bc b7 dc 5b bd
       -0.037058648 -0.014449606 -0.014532273 -0.053677287
000190 5a 6a 3e bd 59 59 d1 bb e7 ca 34 bc 4e a9 99 3c
       -0.046488144 -0.006388825 -0.011034704 0.018757489
0001a0 44 ba 0d bb 9d 69 05 bd a5 b3 9a bc 96 81 9f 3c
       -0.0021625916 -0.032571424 -0.01888449 0.019470971
0001b0 90 6a 0b 3c 73 49 bd 3c 13 7d aa 3c 49 c1 47 bc
       0.008509293 0.023106312 0.020811593 -0.012192079
0001c0 27 7b cb 3c d0 bd 13 3d 49 7e ea 3c eb 67 73 bd
       0.024838997 0.03606969 0.02862467 -0.059425276
0001d0 dd 04 13 3d 91 e7 70 bb 41 a5 3c bd 13 b2 2a 3c
       0.03589331 -0.0036759118 -0.046056036 0.010418433
0001e0 59 39 45 bd bf 14 58 3c 8c 4b e9 bc 31 bf 1b bd
       -0.048150394 0.01318854 -0.028478406 -0.03802413
0001f0 21 86 fa bc a4 85 0e bd 79 72 d8 bb 5d e0 96 3c
       -0.030581536 -0.03479542 -0.006605443 0.018417532

network_body._body_endoder.seq_layers.4.weight f4 [128, 128]
000000 a9 2a 7d bd 4e a2 06 3d a5 7c 9d 3e a6 94 a4 3d
       -0.061808262 0.03286963 0.3075916 0.08036165
000010 a3 60 12 be e3 2c f7 bd 60 d9 ba bd 52 fa 35 3d
       -0.14294676 -0.12069108 -0.09123492 0.044428177
000020 3f bb 30 bd 1c 9a 6b bd 62 03 c6 3d 65 61 8d 3b
       -0.04314732 -0.057520017 0.09668614 0.004314589
000030 11 28 e9 bc 41 ec bf 3d fb 16 b5 bc fe 2d dc 3c
       -0.028461488 0.09371234 -0.022105685 0.0268774
000040 b1 b0 cd bd ae 38 49 be 34 c7 14 3e 70 4a 9a 3d
       -0.10043467 -0.19650528 0.14529115 0.07533729
000050 1b b0 0c be 6a ae c7 bd ff 4e 92 3d d1 73 c1 3c
       -0.13739054 -0.09750064 0.071439736 0.023614796
000060 09 44 aa 3c 5d a7 05 3e 53 5e 4a 3c 61 f0 03 3e
       0.020784395 0.13052125 0.01235159 0.12884666
000070 d4 8d ef bc 20 46 49 3d ad 19 94 bd be 5a 1b 3d
       -0.029242434 0.049139142 -0.0723146 0.037928335
000080 30 2e ba bd 41 61 2e 3d 7d 8b 7f 3e 9a 06 0d 3c
       -0.09090841 0.042573217 0.24955554 0.008607531
000090 c6 09 01 be c4 24 ba bd c7 f9 d4 3d 58 97 70 bd
       -0.12601385 -0.09089044 0.10399204 -0.058738083
0000a0 76 eb bf 3c e5 45 08 be 5d cc 55 3d 52 cd c4 3d
       0.023427706 -0.13307913 0.05219685 0.09609474
0000b0 45 95 5c bd 39 92 62 bd 40 63 a7 3c 72 b5 2a be
       -0.053853292 -0.05531523 0.020433068 -0.16670778
0000c0 73 ed 88 3d 0e 60 26 bc a1 63 4b 3d e9 ce 39 be
       0.06685915 -0.010154737 0.04965556 -0.18145336
0000d0 47 eb ef 3d 4a 61 74 3d 63 0e 33 3c 0b 92 04 3e
       0.117147975 0.059663095 0.010928723 0.12946336
0000e0 ac 4b 89 3d df a5 67 bd 2a d1 c6 3b 2d bc b2 3d
       0.067038864 -0.05655467 0.006067415 0.08727298
0000f0 fc c1 90 3d 8c 5d 67 3d 63 df 24 3d 2a 6b f2 3d
       0.070682496 0.056485698 0.0402521 0.11836846
000100 0f 7a 4d bc 70 cc 8a bd 02 40 53 be f8 9c db 3d
       -0.012541308 -0.067772746 -0.20629886 0.10723299
000110 88 e3 5e bd 15 cc 74 bc 73 19 89 bd 03 98 9e 3e
       -0.05441621 -0.014941235 -0.06694307 0.3097535
000120 2a 5d 12 3d f1 f2 a6 bd b1 44 a2 3d 9d 4a d8 bd
       0.03573338 -0.08151806 0.07923258 -0.10561106
000130 56 3e d4 3c 07 95 39 3d da 62 ad bd 42 a6 fe bd
       0.02590863 0.04530814 -0.0846612 -0.12434055
000140 4c c5 14 3d 78 e2 44 3d ec 41 08 bc 12 3d 06 3e
       0.03632097 0.04806754 -0.008316498 0.13109234
000150 8a 18 c2 bc 49 d9 91 3b 6b 43 a6 3d 18 2c 54 3c
       -0.023693342 0.0044509512 0.08118328 0.012949966
000160 9d 46 ae bd 25 30 90 be ee d4 50 3c 36 8a ab bd
       -0.08509562 -0.2816173 0.012746079 -0.08375971
000170 e3 1e b4 3d 54 6e 90 3d 9d 73 21 3c 54 f2 b2 3d
       0.08794954 0.070522934 0.0098542245 0.08737627
000180 4a 79 b6 bd cd 9c c1 3c dc 09 5f 3d 99 68 d5 bc
       -0.08909853 0.023634339 0.054452762 -0.026050853
000190 dd e2 4e bd 27 24 a5 bd 08 97 28 3e a1 19 98 3d
       -0.050509322 -0.08063536 0.16463864 0.07426763
0001a0 29 38 97 bb a9 4d 0c bd ab 9a 0b 3d d1 1e 86 bd
       -0.004614849 -0.03425375 0.03408305 -0.065488465
0001b0 45 c9 0a 3d 2f 24 08 3d 8e d9 fb 3b b2 74 57 3e
       0.03388335 0.033237632 0.0076858466 0.2104061
0001c0 5d d7 5c 3d 16 d1 22 be 6e c7 1d bc 4b cc a5 bd
       0.053916324 -0.15900072 -0.009630067 -0.080956064
0001d0 bf 17 4b 3c 8f 75 4c bd bd a0 6a 3d d4 59 28 be
       0.012395798 -0.0499168 0.0572822 -0.16440517
0001e0 cb 0e a3 bd a5 49 20 be 46 64 cf 3a 75 68 17 3e
       -0.07961806 -0.15653093 0.001582273 0.14785941
0001f0 41 64 b7 3d e6 9b d9 3c 34 ae 48 bd ab 67 64 3d
       0.08954669 0.026563596 -0.048994258 0.055762928
000200 db 1e a1 3d ba 3e 14 3c df e8 13 bc 74 c9 63 3d
       0.07867213 0.009048158 -0.009027689 0.055612043
000210 70 27 12 bd 99 26 bc bd af d0 05 3e 7b 3c a6 bd
       -0.03568214 -0.091870494 0.13067888 -0.081170045
000220 41 f4 5e bd 8d bf 8d 3d 97 c1 c2 bd c6 e0 00 3d
       -0.054432157 0.06921301 -0.095095806 0.03146436
000230 06 6c 6a 3c 4d bc 5a 3d c8 9d c0 bd c6 09 21 bd
       0.014307981 0.053402234 -0.094050944 -0.03931596
000240 1d 83 26 3d be c6 59 bd 27 97 fc bd 33 b8 76 3d
       0.040652383 -0.05316805 -0.123335175 0.06023426
000250 9a 18 ab bd 5f 6b 2b 3d 60 e5 08 bc ba b6 75 bd
       -0.08354302 0.041850444 -0.0083554685 -0.059988715
000260 a0 20 86 3d 47 3f 13 bd e5 f7 96 bc f5 d3 07 3d
       0.065491915 -0.035949018 -0.018428752 0.033161122
000270 ae b3 99 bc 9a 1b 6a bd a3 7f 43 be 4b 6a c0 bd
       -0.018762436 -0.05715523 -0.19091658 -0.09395274
000280 7c 86 80 3d 6d d4 24 3c 35 65 06 bd f7 74 d4 bd
       0.06275651 0.010060412 -0.032811362 -0.10373872
000290 7a c7 9b bd b3 09 b4 bd 98 e3 c4 bc 6e 73 c1 3d
       -0.076064065 -0.087909125 -0.024034306 0.094458446
0002a0 ac 26 25 3d e2 64 bd bd 43 9f c8 3d 55 fd 20 3e
       0.040320083 -0.092477575 0.09796002 0.15721639
0002b0 4e 18 3f be 6d a9 44 3c cb 3b 48 be 0a e5 ce 3b
       -0.18661615 0.012003285 -0.19554059 0.0063139247
0002c0 54 32 36 be 79 86 ec 3c a1 be ba 3d 33 b4 80 bd
       -0.17792636 0.028872715 0.09118391 -0.0628437
0002d0 a3 35 23 3e 0d a4 37 3d b5 0b ee 3d 90 af 20 be
       0.1593843 0.044834185 0.11623327 -0.15691972
0002e0 02 bb a9 bc bc 52 9c 3d d2 b7 23 3d 20 f8 42 3d
       -0.020719055 0.07632968 0.039970227 0.04759991
0002f0 67 53 a0 3d 82 59 1c 3d 8b 7b 39 bd 5a b2 13 bc
       0.07828408 0.0381713 -0.045283835 -0.00901469
000300 75 c1 77 bd 4b a3 a6 3d 9f 76 af 3c 3c 47 11 bc
       -0.06048723 0.081366144 0.021418868 -0.008867081
000310 25 ea a8 bd bc 6d 8e 3c 24 a9 c4 3c eb 81 7c bd
       -0.082477845 0.01738631 0.024006434 -0.061647337
000320 89 80 d1 bd 1c e4 35 3d 69 5b 3b be 55 42 d2 bc
       -0.10229594 0.044406995 -0.18296589 -0.025666395
000330 99 72 54 bd d8 7e fd 3b d3 4d 86 3d ff f9 1a be
       -0.0518671 0.007736068 0.065578125 -0.15134428
000340 26 6f 0a 3c c6 81 19 3e 8f b9 d9 bd e0 98 df 3d
       0.008449351 0.14990911 -0.106310956 0.109178305
000350 fc 26 1f be e1 50 c2 3d 1e 7f 5c 3e fc d7 12 bd
       -0.15542215 0.09488083 0.21532866 -0.03585051
000360 ad 10 74 3d a4 9f 17 bc 3b b7 0a 3d 37 c9 80 bd
       0.059586216 -0.00925437 0.03386615 -0.06288379
000370 8c 9c 38 3c 40 a5 26 bd 1c 27 7a bd 1a 07 0b 3e
       0.011267792 -0.04068494 -0.061072454 0.13576928
000380 92 1f ec bd f5 c4 54 3e 1b 80 e3 bd 57 49 60 bd
       -0.11529459 0.20778258 -0.111084186 -0.054757442
000390 08 fb 88 3d 59 90 df 3d a9 99 4a 3d e4 9b d8 bd
       0.066885054 0.10916204 0.049462948 -0.10576609
0003a0 4e bb 36 bd b7 4b cf bd 12 6b f9 3d 04 cf f6 bd
       -0.04461222 -0.10121863 0.12178625 -0.12051204
0003b0 19 f2 8b 3d e2 b8 29 3e a2 d1 b7 3c 20 4f 9e 3d
       0.06833286 0.16574433 0.022438828 0.07729936
0003c0 ff 09 ee bb 65 76 52 3e 7e b9 89 bc e9 94 ba 3d
       -0.007264375 0.20552976 -0.016812082 0.091104336
0003d0 a7 73 52 3d b4 5a 58 3e 44 eb e5 bb 2a ec dc bd
       0.051379826 0.2112835 -0.0070165712 -0.10787232
0003e0 21 77 2f bd 00 81 92 3b d0 a4 23 3e bd 17 18 be
       -0.04283822 0.0044709444 0.1598084 -0.14852805
0003f0 5a a4 13 bc 0f 0c 7e 3d de 3b 2c bc 88 78 dd 3d
       -0.009011352 0.06202322 -0.01051232 0.10814005

network_body._body_endoder.seq_layers.4.bias f4 [128]
000000 e0 97 00 bd 84 eb ac bc 80 82 96 bd da 09 4a bc
       -0.03139484 -0.021108396 -0.0734911 -0.01233145
000010 db 4d a1 3d e4 6a e6 bb 19 13 a4 3c 0a 8b 21 bd
       0.07876178 -0.0070317853 0.020028638 -0.03943924
000020 c9 44 cc 3c 1d 15 de bc 22 cb f1 bc 27 9f 5a 3c
       0.024935143 -0.027109677 -0.029515807 0.013343609
000030 3b 24 44 bd d7 6c e8 3c 2b 7c 8d ba ce 78 d3 bc
       -0.047886115 0.028372211 -0.0010794451 -0.02581444
000040 60 66 9a 3c a5 df e0 bc e6 24 e0 3c fa 55 b5 38
       0.018847644 -0.027450392 0.027361345 8.646767e-05
000050 92 a2 03 bd 7f a5 c2 bc 6e 57 b7 bc 57 c9 3d 3c
       -0.03213746 -0.023760555 -0.022380557 0.011583648
000060 46 85 ec bb ea e9 51 bc 87 d9 b1 3c 52 f5 88 3c
       -0.007218036 -0.012812117 0.02171017 0.01671854
000070 6e 80 07 3d 40 9c c0 3c 6a d0 56 bd 83 5c 63 3c
       0.033081464 0.023512006 -0.052444853 0.013877037
000080 30 75 55 3d d6 e7 33 bd dc 3b a9 3c 1d 99 dc bc
       0.05211371 -0.043922268 0.020658426 -0.026928479
000090 55 d9 2e 3d 6d a5 10 3d 24 65 a2 bc 45 8d 33 3d
       0.042687733 0.035314012 -0.019823618 0.043835897
0000a0 09 e2 33 3c d5 69 bb bc 68 fd 5e 3c e4 05 71 3c
       0.010979184 -0.022877613 0.013610221 0.014710877
0000b0 44 f8 dc 3c 89 03 51 bd 2e c9 26 bd ea fd 1a bd
       0.026973851 -0.051028762 -0.040719204 -0.037839808
0000c0 16 68 f7 bc a8 6b 52 3c e3 9a 20 bd 1d 41 e1 bc
       -0.030201 0.01284305 -0.03921021 -0.027496869
0000d0 3f 68 f9 bc d7 f4 41 3d 4c 01 2c bc 6f f0 e3 3c
       -0.030445216 0.047352638 -0.010498356 0.027824609
0000e0 19 89 94 bb 89 99 93 3c 63 2e d2 3c da 70 0b 3d
       -0.004532945 0.018017547 0.025656885 0.03404317
0000f0 8c ff d5 3c a3 fd f5 bc 30 c7 6a bd 57 e0 56 bc
       0.02612283 -0.03002817 -0.057318866 -0.01311501
000100 44 0a a0 bc f4 4f 31 bb 68 0d d7 bc 16 04 9f 3c
       -0.019536145 -0.0027055712 -0.02625151 0.019411128
000110 8e c0 ef 3c fe 95 28 3c 9a 23 d6 3c 82 8e fc 3a
       0.029266622 0.010289667 0.026140023 0.0019268545
000120 56 bd cd bc b7 56 07 3d f9 f3 b0 bc 2c 16 c2 3a
       -0.025114696 0.033041682 -0.02160071 0.0014807633
000130 0c 5c 53 bd e1 4a ea 3c cf 1a 93 3c 6e fd 14 bc
       -0.051601455 0.028600158 0.01795712 -0.0090936255
000140 a4 a7 08 3d 1b 26 de bc 6c a8 87 3d bc c6 0b 3c
       0.033363 -0.02711778 0.06623921 0.008531269
000150 01 dd 16 bd 74 35 6f bb b4 c6 ca ba 25 9e b8 bc
       -0.03683186 -0.0036500366 -0.0015470595 -0.022536347
000160 93 11 c1 bc e1 b6 0d bc 56 80 a0 3c 7d c3 72 bc
       -0.02356795 -0.008649559 0.019592445 -0.014817116
000170 f6 1b b0 3c 12 5d 00 bd 30 e2 d3 bc a0 c4 e3 ba
       0.021497708 -0.03133876 -0.02586469 -0.0017377324
000180 4e 72 d6 3c 03 18 03 bd 9e e5 91 3d 02 7b f2 3c
       0.026177552 -0.03200532 0.07123874 0.02959967
000190 fe f8 f6 bc f7 5f f7 3b 8b 23 b8 bc 6e 0e 27 bd
       -0.030148026 0.0075492817 -0.022477886 -0.040785246
0001a0 1f 91 07 bd 85 aa 8a bb ca 9a 9d 3c 98 89 40 bd
       -0.033097383 -0.0042317533 0.019238848 -0.04700622
0001b0 12 67 35 bc 85 7a 0a 3c 86 4c 85 bd f9 96 27 3d
       -0.011071937 0.0084520625 -0.06508736 0.040915463
0001c0 2c 50 cf bc 3d 21 30 3d ce e8 ed b9 17 76 9c 3c
       -0.025306784 0.04300045 -0.00045377616 0.019099278
0001d0 ba 33 fa 3b 5a 7a ff 3c a3 a1 05 bb b3 6b ac 3c
       0.007635561 0.031186271 -0.0020390532 0.021047449
0001e0 47 9e 85 bc e3 f9 19 bd 23 ac 4f 3d 7e 42 ba 3c
       -0.016310824 -0.037591826 0.05070127 0.022736784
0001f0 97 4a 5c 3c e9 b9 49 3c b7 78 ba 3c f9 e0 30 3a
       0.013445518 0.012312391 0.02276264 0.0006747391

action_model._discrete_distribution.branches.0.weight f4 [3, 128]
000000 d1 05 7c 3d 71 78 ab 3c 11 5b ee 3c c7 98 2c bc
       0.061528984 0.020931454 0.029096158 -0.010534472
000010 92 f2 d9 bb 3b 2b b4 3c c8 23 e7 3c 2e 17 78 3c
       -0.006651231 0.02199327 0.028215304 0.015142245
000020 92 f8 9f bb a4 2c d3 3c a8 37 22 ba dc b6 0e bd
       -0.004881927 0.025778122 -0.0006188103 -0.034842357
000030 98 50 2c 3d f4 da 83 bc c0 0c 19 3d 0e c1 e0 3c
       0.042069048 -0.016095616 0.037365675 0.027435806
000040 d9 45 82 3d 3e f3 8f 3d 21 d4 60 3c fe d8 73 3b
       0.06360979 0.07028817 0.0137224505 0.0037208195
000050 1d d6 36 3d be cf 7f 3d aa 6e e4 3c 33 3c e9 3c
       0.044637788 0.062453978 0.0278848 0.028471088
000060 a5 cb 6c 3d 8d 67 60 bb 44 98 72 3c 38 03 22 3d
       0.057811398 -0.0034241409 0.014806811 0.03955385
000070 69 74 51 3a 2a 4d c7 bc d0 9b 64 3d c1 88 1d 3d
       0.0007990064 -0.024328787 0.055812657 0.038460497
000080 b0 79 a6 bc 65 05 76 3d 63 c5 50 bc d5 01 0c 3d
       -0.020321697 0.06006374 -0.012742373 0.034181435
000090 2e 37 cc bb e9 46 31 3d b0 e3 c0 3b 02 65 cb bc
       -0.006232164 0.043280516 0.0058865175 -0.024828438
0000a0 1c 6b bf 3d 83 c8 0a 3c 13 e9 eb 3c d9 e4 93 bc
       0.09346601 0.008470657 0.028797662 -0.018053459
0000b0 49 75 d1 3c b4 d9 6d 3d 52 ba 80 3d 33 98 8b 3d
       0.025568621 0.058068946 0.06285538 0.06816139
0000c0 8c d0 a2 3b e4 68 f1 39 f9 b2 9f 3c 08 46 6f 3c
       0.0049687084 0.00046045252 0.01949452 0.014604099
0000d0 5d 9d 04 3d 92 16 18 bd ab 69 04 3d a4 97 19 bd
       0.032376636 -0.0371309 0.032327335 -0.03749813
0000e0 81 d1 dc bb e4 10 85 3b 4c cd f8 3c d6 8a 3c 3c
       -0.006738842 0.0040608514 0.03037133 0.01150771
0000f0 d1 8b 7c 3b fd ef 39 bb 93 79 a5 3c 9e f1 3d 3c
       0.0038535486 -0.0028371804 0.020199573 0.011593251
000100 be ef a4 3b 27 42 d9 3c 98 92 44 3d 61 93 5a 3c
       0.0050334623 0.026520802 0.047991365 0.013340802
000110 3a 1f c6 bb 88 38 9d 3c 6b de c3 3b 7c 3d e4 3b
       -0.006046203 0.019191995 0.005977442 0.0069653373
000120 c5 81 8d 3c 5f 1c 04 bc 05 e4 8f 3d fe e3 5a 3d
       0.017273793 -0.008063405 0.07025913 0.053440087
000130 ca 14 3b 3c bd bf 87 3b 18 a9 8a 3d 7d f4 4d 3c
       0.011418531 0.00414273 0.06770533 0.012570498
000140 2c 18 03 bc 2c 08 71 3d 12 e0 a7 bc 90 52 48 3c
       -0.0080013685 0.058845684 -0.020492587 0.012226716
000150 7b 00 8e 3d b5 6e 28 3d aa fc e1 3b 6f 6b 46 3c
       0.069336854 0.041121203 0.006896575 0.012110575
000160 33 c8 95 3b 20 1e a7 3d 6c 8b 41 3c 62 f9 43 3d
       0.0045709847 0.08160043 0.011813026 0.04784525
000170 4d 54 f7 3c 37 18 33 3d 33 41 d5 3c 3b 82 aa 3c
       0.030191565 0.043724265 0.026032066 0.020814052
000180 4e 09 77 bb c7 a6 8e 3d f7 ae b1 bc 14 42 99 3c
       -0.0037694755 0.06965404 -0.021689875 0.018708266
000190 78 6b 91 3d bd af 45 3c 8c 3a d3 3c df 0a 77 3d
       0.07100576 0.012065825 0.025784753 0.0603131
0001a0 a6 7f 83 3d 1a 42 06 3d 76 bd 94 3c b3 cb fc 3c
       0.064208314 0.032777883 0.018156748 0.03085885
0001b0 cc 71 bf 3c ea 6d 9b bb 74 6c 29 3d 7f 0f b9 bc
       0.023369692 -0.0047433274 0.041363195 -0.022590397
0001c0 1e e0 09 3c f9 25 8e ba 41 3a 83 3d 93 65 a2 3c
       0.00841525 -0.0010845057 0.064075954 0.019823825
0001d0 43 0e e4 3c b1 75 ae 3c ca 68 9d 3b 3a 61 ea bc
       0.027838832 0.021296354 0.0048037516 -0.028610814
0001e0 39 f0 a7 3c 12 bc 56 3d 76 29 2c bc 23 63 83 3c
       0.02050029 0.05242545 -0.010507932 0.016038483
0001f0 3a 8a 46 3d 61 df 8a 3d 6a 0f 25 3b fd eb 6d 3c
       0.048471667 0.067808874 0.002518619 0.014521596
000200 ed b1 d3 bb f5 3a 0e 3c e0 79 c3 3c f0 e1 1e 3d
       -0.0064604194 0.008681049 0.023861825 0.03878969
000210 1c 0c cf 3b 5e 20 09 bd de 47 00 3d f4 0d bf 3c
       0.006318582 -0.033478133 0.031318538 0.023322083
000220 b0 ba 59 3d e6 e6 88 3c 74 de b7 3c 06 31 9b bb
       0.053156555 0.016711663 0.022444941 -0.0047360687
000230 07 a0 bd bb 0e 24 b8 3c 91 36 4e bb b6 fc 94 3a
       -0.005786899 0.02247813 -0.003146563 0.0011366818
000240 90 d4 ce 3c ae db c8 ba a3 a1 8f bd 87 7b cd 3c
       0.025247842 -0.0015324259 -0.07013252 0.025083316
000250 d4 9d 97 3a b8 46 35 bd 0a 31 06 3c e6 a8 38 bd
       0.0011567422 -0.044256896 0.008190403 -0.04508295
000260 13 3d 13 3d 43 13 34 3d 04 d6 88 bd 18 c2 30 ba
       0.035946917 0.043963682 -0.06681445 -0.00067427894
000270 5d 15 9c 3c 86 1d e6 bc d8 63 e6 bc 0e 1a a5 bd
       0.019053156 -0.02809025 -0.028123781 -0.0806161
000280 b7 ce 58 bd dd bf 6a bb 41 2b 36 3d 0f 57 3c bc
       -0.052931514 -0.0035819926 0.044474844 -0.011495366
000290 81 3f c5 3c e9 0a 65 3d c2 34 e2 3c b1 83 cb 3c
       0.024078133 0.055918608 0.027613048 0.024843069
0002a0 34 88 80 bd 02 28 93 bc 2e 0e a8 bc ac 23 50 3d
       -0.06275979 -0.017963413 -0.020514574 0.05081527
0002b0 e9 bd 84 bd 7e db 9d bc 66 38 c3 bc e2 94 2f bc
       -0.06481535 -0.019269701 -0.023830604 -0.010716649
0002c0 7d 54 79 bc 84 c6 ee bc 6b 4b b5 bc a0 62 b8 bc
       -0.0152178975 -0.029147394 -0.022130689 -0.022507966
0002d0 c3 8e 51 ba cd 96 7f 3d 46 ac 19 3c ad c5 3a bb
       -0.00079939904 0.062399674 0.009379452 -0.0028499172
0002e0 77 60 64 bc 4b 21 ae bc 9c a9 6f 3c 94 6b 19 bd
       -0.013939015 -0.02125611 0.01462784 -0.03745611
0002f0 41 dd 58 3d 2e 96 a7 3c b1 ce 7e 3b 33 c1 f8 3b
       0.05294538 0.020457353 0.0038880522 0.0075913905
000300 a5 9d de bb 5a ec 94 3c 13 a6 84 39 9a 07 58 3d
       -0.006793695 0.018179107 0.00025300737 0.052741624
000310 41 cc f8 3c b3 ee c2 bc 7c 4f 0a bd 8e dc 51 3d
       0.030370833 -0.023795461 -0.03376721 0.051235728
000320 59 82 ce bc ea 17 af 3c 07 8a b9 bc 24 e5 6b 3d
       -0.025208639 0.021373708 -0.022648824 0.057591572
000330 19 5b a5 3c 83 7b 4b 3d 42 1f 71 bd 6a c7 c1 bc
       0.02018504 0.049678337 -0.0588677 -0.023654658
000340 77 3d 5c bd eb 1d 9c bb 61 34 28 bd c4 b0 f2 bc
       -0.053769555 -0.0047643087 -0.041065577 -0.029625304
000350 4b 2b b8 bc d2 08 d7 bb 3e 99 93 3b 8e 74 23 bd
       -0.022481581 -0.0065623308 0.004504352 -0.039906077
000360 2a f5 42 bc eb 32 62 bd 6f 27 47 bd 37 d7 da bc
       -0.011899272 -0.05522434 -0.04862159 -0.02671395
000370 4b f7 7c bd 85 34 29 3b e2 08 b7 3b b9 09 88 3b
       -0.061759274 0.0025818658 0.0055857757 0.0041515497
000380 a9 8d 8f 3d c2 5f e5 bc 3f d8 1a bb 7b 07 37 bd
       0.070094414 -0.027999762 -0.0023627428 -0.04468487
000390 a4 90 02 bc a2 09 0f 3d a5 24 4d bb e2 5b 65 bc
       -0.007969055 0.034921296 -0.003130236 -0.013998957
0003a0 c5 7b e0 bc 9a 8f 00 bd 27 bf 3d bd 92 10 84 bb
       -0.027402768 -0.03138695 -0.046324875 -0.0040302956
0003b0 ee e4 fd bc bd f3 18 3d fa ce 8d ba 3b 8b 10 bc
       -0.030992951 0.037341822 -0.001081913 -0.008822258
0003c0 2d e1 16 bb 28 07 8b bd df 3b 3b 3c 9d 5d 93 3d
       -0.0023022399 -0.06788474 0.011427849 0.0719559
0003d0 24 63 3a bd 8f 6d 94 bd 87 bc 2c bd f2 fb 0e 3d
       -0.045504704 -0.07247459 -0.04217198 0.034908243
0003e0 be 24 41 bb 39 79 dc bc 1a 25 b9 bb 91 f2 90 bd
       -0.0029471363 -0.026913272 -0.005650175 -0.07077516
0003f0 db 7d bc bc bf c2 65 bd e2 e3 2b bd a9 90 a8 38
       -0.023009231 -0.056093927 -0.041965373 8.037809e-05

action_model._discrete_distribution.branches.0.bias f4 [3]
000000 1b d2 c6 bc f5 29 24 bc be 14 18 3d
       -0.024270108 -0.010019769 0.037129156

action_model._discrete_distribution.branches.1.weight f4 [4, 128]
000000 65 ce 57 3c a2 3d cf 3c 75 25 8c 3c 96 28 fc 3b
       0.013171767 0.025297944 0.017107705 0.007695268
000010 80 e5 15 be 3e 1d ab 3c cb d0 99 bc 9d 2b a4 3b
       -0.14638329 0.020887967 -0.018776318 0.005010082
000020 40 b4 fa 3a e6 89 14 3d b5 e1 e7 3c 04 4f fe 3a
       0.0019127205 0.036264323 0.028305868 0.0019402211
000030 9d 5b 02 3d bd e9 a2 3a fb 48 1d 3c 33 02 03 3c
       0.03182565 0.0012429279 0.009599919 0.00799613
000040 e3 aa 1c bd 47 07 0e 3d 3a ba 21 3c ff 02 fc bb
       -0.038248908 0.03467491 0.00987106 -0.007690787
000050 ed 96 35 3c 85 b2 6f 3d 6d e1 36 3c 81 89 9f 3c
       0.011083347 0.05851986 0.011162144 0.019474747
000060 87 e8 ae bb 81 f4 31 3c a8 8e 87 bb 35 a9 f7 3c
       -0.005337778 0.010861517 -0.004136879 0.030232051
000070 3d d5 aa bc aa ef 25 bb 57 40 53 3d d3 b3 b7 3c
       -0.020853633 -0.0025319853 0.05157503 0.022424614
000080 d1 33 9c 3b 4a ed 9d 3c bc 20 b7 3b 8b 9b dc 3c
       0.004766919 0.019278187 0.005588619 0.026929637
000090 aa 29 6c bc da e5 f3 bc cf a8 5d bb 80 6a 83 bd
       -0.01441423 -0.029772688 -0.0033822542 -0.06416798
0000a0 f1 d2 20 bd c9 52 e7 3c 89 b6 17 3a a4 1c 0d bc
       -0.03926367 0.028237717 0.0005787393 -0.0086127855
0000b0 b7 71 aa bb 00 eb 8a 3d 2f 19 3b 3d fe be a4 3c
       -0.005201544 0.06783104 0.045678314 0.020110603
0000c0 f5 2d 5b bb c3 42 31 bb a1 3f a6 3b 1d fd a9 3a
       -0.003344414 -0.002704785 0.005073503 0.001296911
0000d0 3a 36 f6 3a a6 48 ee 3c 34 24 2d 3b db 12 59 bc
       0.0018784471 0.029087376 0.0026419284 -0.013249124
0000e0 9a 8a b9 bc 33 df aa bd 49 cc a6 bd 81 42 ae 3b
       -0.022649098 -0.08343353 -0.08144433 0.0053179865
0000f0 8b e4 34 bd 13 1f 09 3b 76 b2 9f 3c 84 ac 4f bc
       -0.044163268 0.0020923063 0.019494276 -0.012675408
000100 aa 24 ae bb 39 27 e6 bc 60 4a 94 3c 9e f0 94 ba
       -0.0053144293 -0.028094875 0.018101871 -0.0011363213
000110 28 3c 2d bd 33 68 85 bd 38 10 57 3c c6 df 4c 3c
       -0.042293698 -0.06514015 0.013126425 0.012504524
000120 ae 28 92 3c a4 13 37 bd 4c 78 4c 3d 59 fe 91 3c
       0.017841663 -0.044696465 0.04991941 0.017821478
000130 4c c9 47 39 af 0e 99 3c 5d 9f 00 3d c4 05 f1 ba
       0.00019053108 0.01868376 0.03140198 -0.0018388559
000140 55 78 80 b7 65 2a e5 3c be 27 1e be 78 73 e4 bb
       -1.5314823e-05 0.027974317 -0.15444848 -0.0069717728
000150 79 1f 2b 3d ed 9c ef 3c 54 8a 13 3c 88 4e 88 bb
       0.04177806 0.029249633 0.009005148 -0.0041597523
000160 ce e0 30 bb 95 eb d1 bc 76 5c c4 ba f7 9d d9 3c
       -0.0026989463 -0.02562503 -0.0014981169 0.026564581
000170 ae 9c 7f 3c fa 1a 8a 3b cb 61 a2 3c 23 5b fc 3c
       0.01560132 0.0042146416 0.019822022 0.030805176
000180 93 d1 89 bd af 7d 42 3d d6 74 ea bd b6 1f e6 3b
       -0.06729426 0.047483142 -0.11448066 0.007022823
000190 ab 6b 0f 3c 48 0e 9e 3b 27 0e b3 3b cc d2 5f 3d
       0.008753697 0.00482348 0.0054643336 0.05464439
0001a0 08 e0 c7 3c 10 1b 4b 3c 04 1d 78 bc b1 e6 24 3c
       0.024398819 0.012396589 -0.015143637 0.010064767
0001b0 24 93 3b 3c 0e a9 da 3a 2b 31 a9 3d bd 3c a1 bb
       0.011448655 0.0016682462 0.08261331 -0.0049205706
0001c0 e4 e3 63 3c 83 3f 81 bd ac 3c aa 3a 95 98 ad 3b
       0.013909314 -0.06310942 0.0012988052 0.00529773
0001d0 59 66 a8 3b 6b a2 b5 3c 08 5d 55 3c 27 91 66 bc
       0.005139154 0.022172173 0.013022669 -0.014072693
0001e0 79 b3 8f bb 25 3e 7b 3c 0a 12 18 be 95 0f 36 3c
       -0.0043854085 0.015334641 -0.14850631 0.0111121135
0001f0 32 5c 77 3c 84 87 01 bc 5c ef 1c bb 9c e1 d3 3b
       0.015097665 -0.007905845 -0.002394638 0.0064661037
000200 8e 92 cf bc 4c 97 0b bd b8 8d 37 bc ee 9b df 3b
       -0.025338437 -0.034079835 -0.011203222 0.006824008
000210 be cc 2c 3d e6 4d 02 bc 86 ee b5 ba 89 0b df bc
       0.042187445 -0.007953143 -0.001388029 -0.02722718
000220 8e 59 33 3c 3e 91 27 ba 4f 50 2e bc 9c e7 dd 3c
       0.0109466445 -0.0006392187 -0.010639264 0.027087979
000230 0c 2f 95 3b 24 74 96 bb e8 d6 15 bd 7f 36 b1 bc
       0.0045527276 -0.0045914818 -0.036581904 -0.021632431
000240 6a cb ee 3c 5a 86 58 bc 2f e5 e2 3c b7 c4 55 bb
       0.02914973 -0.013215626 0.027697174 -0.0032618472
000250 e6 31 75 3c c4 e0 00 bd 63 b4 be bc c6 64 bc ba
       0.01496551 -0.031464353 -0.023279374 -0.0014373295
000260 5d dc a6 bb 5b 5d 8a 3b 4d e2 af 3c 4f 3e 93 bc
       -0.0050921873 0.0042225546 0.021470213 -0.017974047
000270 93 52 cc 3c 7c d7 f5 3c c6 8d 37 bc e7 fd 09 bc
       0.024941718 0.030009978 -0.011203235 -0.008422351
000280 ee d1 84 3c 77 62 e2 bc 9b 18 28 3c 9f 85 a2 bc
       0.016213384 -0.027634842 0.010259773 -0.019839106
000290 7f 8a a2 3b 5b 34 80 3b 5d 25 01 bc e5 4d 32 3d
       0.0049603577 0.0039124913 -0.007882443 0.043531317
0002a0 fa 28 1e bb 76 eb 39 bd f9 a3 85 3c d4 fe 3c 3a
       -0.002413331 -0.04539057 0.01631354 0.0007209603
0002b0 00 65 37 3c 81 f4 81 bc 08 f6 a8 bc b8 0a c1 bc
       0.011193514 -0.015863659 -0.02062513 -0.023564681
0002c0 e1 68 c8 ba 86 26 63 bb 33 52 e1 bc 85 2e 68 bb
       -0.0015290045 -0.0034660413 -0.027505016 -0.0035428118
0002d0 de f0 28 bd 2d 52 13 3c 4e ad d9 bc ae e1 ec 3c
       -0.041245334 0.00899176 -0.026571896 0.028916206
0002e0 d1 47 94 3b d2 d9 a9 3c f3 0d c9 3c 0e 75 b3 3c
       0.0045251627 0.020733748 0.024542784 0.021906402
0002f0 63 45 f7 3b 4a b6 92 3a 0e 5d fb bb fe 09 81 3c
       0.0075461133 0.0011193242 -0.007671005 0.015751835
000300 08 45 ae bc 7b 22 c2 3c a8 62 0b bd de 2e d6 bc
       -0.021273151 0.023698082 -0.034029633 -0.026145395
000310 39 c4 d4 3c 40 7a 49 3c ba d2 19 3c c1 4d 6b bb
       0.025972473 0.012297213 0.00938862 -0.00359045
000320 03 a8 46 bc e6 9b 04 3d ca 05 cb bc 88 53 9b bc
       -0.012125018 0.03237524 -0.024783034 -0.01896073
000330 be 86 01 bd 0a 32 af bb 2c c7 a4 bc 77 f4 b4 b9
       -0.03162264 -0.0053465413 -0.020114504 -0.00034514416
000340 64 54 3e 3d eb 5c 92 bc 73 b1 43 3d 58 3f 23 bc
       0.0464672 -0.017866572 0.04777665 -0.009963833
000350 55 0b 02 bd 4e ce b7 bc 4b f3 d6 bc 03 70 85 bc
       -0.03174909 -0.02243724 -0.026239058 -0.016288763
000360 65 53 8b bc 67 a5 6b ba de 0a b3 3b ab 65 9c 3b
       -0.017007539 -0.00089891854 0.005463942 0.004772862
000370 58 d0 bf ba 6b 36 fc bc fe 24 fc bc 07 84 3e bd
       -0.0014634235 -0.030787667 -0.030779358 -0.04651263
000380 4f fd 8c 3c 38 08 86 bc c5 ec 53 3d 6d 84 bf 3c
       0.01721063 -0.01636134 0.051739473 0.023378575
000390 45 70 a8 bb 9d a5 d9 3c 03 3b 7d bc 53 5f 4e bd
       -0.0051403367 0.026568228 -0.015455964 -0.050383877
0003a0 94 b8 be bc e3 00 af bc cf 8d 15 3d 46 bf 44 bd
       -0.023281373 -0.021362728 0.036512192 -0.048033975
0003b0 04 86 e7 bb 64 c4 8c bb 89 2a 36 bd 7c 25 b4 3c
       -0.0070655365 -0.0042958725 -0.04447416 0.02199053
0003c0 4c a9 b3 bc b1 b5 f5 3c 88 17 93 bb 3c 68 dd 3c
       -0.021931313 0.029993864 -0.004488889 0.027027242
0003d0 19 91 68 3c be 8f d6 3a 91 a1 71 bb 64 fd b4 3c
       0.01419475 0.0016369743 -0.0036869983 0.022093482
0003e0 37 06 a2 3b d4 41 3c bc b8 c4 3c 3d 89 15 d3 3b
       0.0049445885 -0.011490304 0.046086043 0.006441776
0003f0 87 4a bf bc 22 78 8d 3c 6b f6 00 bc ed 0b b7 bc
       -0.023350967 0.017269198 -0.007871251 -0.022344554

action_model._discrete_distribution.branches.1.bias f4 [4]
000000 9b a8 3f bd 4d 61 76 3c 42 34 1f 3c 9f da cb 3c
       -0.046791654 0.015037847 0.009717049 0.02488452
