Assets/NNModels/AiAgents-1676883.onnx (onnx, 155723 bytes, 11 tensors)

discrete_act_size_vector f4 [1, 2]
000000 00 00 40 40 00 00 80 40
       3.0 4.0

network_body._body_endoder.seq_layers.0.weight f4 [128, 22]
000000 39 7e a2 3d ad 6b 97 be 93 1b 97 be b9 48 b3 3d
       0.07934231 -0.29574338 -0.29513225 0.08754105
000010 39 09 a6 3d 2f b6 a8 3d c4 95 94 be 07 eb f4 be
       0.08107228 0.08237874 -0.29020512 -0.47835562
000020 b4 67 c9 be 35 6a 96 be e5 5b d0 be 18 fc 94 be
       -0.39336932 -0.29377905 -0.4069511 -0.29098582
000030 9b 13 5e be c5 16 4e be 82 22 01 be df 13 cd bd
       -0.21687166 -0.20125873 -0.1261082 -0.10013556
000040 19 2e 49 3e e0 14 06 3e be e3 69 3d 9c 4f 9c 3c
       0.19646491 0.130939 0.057101957 0.01908093
000050 d8 8f 31 3d f6 c3 b5 be f1 f0 e8 bd 55 8d 85 be
       0.04335007 -0.3550107 -0.11374081 -0.2608439
000060 1d aa 48 3e 25 d5 a7 3e a7 d2 9b 3e ab e6 f9 3c
       0.19596143 0.32779804 0.30434152 0.030505499
000070 8c 21 37 3c 76 f0 20 3e 8d 85 c1 bd ae 09 88 3e
       0.011177432 0.15716729 -0.09449301 0.26569885
000080 22 19 07 3f 1c 7b 75 3e 70 e2 14 3e dd f4 d5 bd
       0.52772725 0.23972744 0.14539504 -0.104470946
000090 1d 8a bc bd 07 3d 3f bd ba 22 f3 3c 1d e6 0a be
       -0.092060305 -0.04668906 0.029679645 -0.13564344
0000a0 2b 0a e9 3c 8d e5 d1 be c3 67 f3 bd 9e 58 02 be
       0.028447231 -0.40995446 -0.11885025 -0.12729117
0000b0 c7 96 8e 3d b9 35 0d be 5b 66 43 be 7d 29 78 be
       0.06962352 -0.13790025 -0.19082014 -0.24234577
0000c0 34 95 b3 bc ef f4 b8 be f4 05 e1 3d 2b 09 b2 be
       -0.021921732 -0.3612437 0.109874636 -0.3477262
0000d0 e1 1a 2a be 73 48 18 bf 2b 6a 2d bf d3 cd ac be
       -0.16611816 -0.5948555 -0.67740124 -0.3375078
0000e0 e8 67 b5 3e b5 31 4c 3e 02 27 80 be 0f a0 8a 3b
       0.35430837 0.19940837 -0.2502976 0.0042305063
0000f0 0d f6 49 be 26 fd 8a be 96 d4 eb bd 8a 96 2d be
       -0.19722767 -0.27146262 -0.11515157 -0.16951957
000100 11 88 19 bc 69 04 44 3e f7 b9 86 bd b8 2c f0 3d
       -0.00937082 0.19142307 -0.06578439 0.117272794
000110 46 97 2c be d1 10 97 bc 0c 7c 5b bd 80 f3 4b be
       -0.16854581 -0.018440636 -0.053585097 -0.19917107
000120 42 4d 94 3d 14 16 00 3f c8 a7 3d bd 4b de 79 3d
       0.07241298 0.5003369 -0.046302587 0.06100301
000130 2e 4d ed 3e 49 e3 43 3e c4 8a af be b6 02 e3 bd
       0.46347946 0.19129671 -0.34285557 -0.110845014
000140 28 7b 35 bd 06 d7 93 be 6c 9e 91 be 4e fd 45 be
       -0.044306904 -0.28874987 -0.2844118 -0.1933491
000150 1a 61 82 3e a7 80 bf 3e a1 c7 89 be 63 40 98 3e
       0.25464708 0.3740284 -0.26910117 0.29736623
000160 70 4c 44 be 70 d9 ac 3d 8d 5d fd bb c0 31 41 be
       -0.19169784 0.084399104 -0.0077320994 -0.18866634
000170 69 20 8d 3d 9b 29 82 be f7 2f c6 be d1 74 ce be
       0.06890947 -0.25422367 -0.3870847 -0.403235
000180 fd 29 02 be 16 48 06 bf 8a cd 86 be b9 50 c4 be
       -0.1271133 -0.52453744 -0.2632869 -0.38342836
000190 92 5d 67 3d 03 32 37 be b3 ba 4a be 59 96 ef bd
       0.05648572 -0.17890172 -0.19797783 -0.116985984
0001a0 fd 36 8a be 08 58 80 be 90 95 41 3e 41 16 31 be
       -0.26995078 -0.25067163 0.1890471 -0.17293645
0001b0 1c 54 e2 3b 98 fb e1 bd 09 8c 90 3e b3 ff 6e be
       0.0069069993 -0.11034316 0.28231838 -0.23339729
0001c0 ce 67 5e bd 87 58 bd 3e 0f ad 55 3e be 77 e2 bd
       -0.054298215 0.36981604 0.20866798 -0.11057995
0001d0 41 cb 4f be b7 6c 42 3e 88 53 2d bf 3d 8c dd be
       -0.20292379 0.18986784 -0.67705584 -0.43271056
0001e0 b8 65 95 be 55 e9 8f be a5 fc 8e be e5 6b 75 be
       -0.29179168 -0.28107706 -0.27927127 -0.2396694
0001f0 11 f5 05 be 62 6e 81 3d 48 3a e2 bd 46 36 32 bd
       -0.13081767 0.06319882 -0.110462725 -0.04350879
000200 23 a5 06 3e 04 fb af 3e ee 5e 98 bd 8f 1d 2d bd
       0.13148932 0.34371197 -0.074399814 -0.042264517
000210 5b 3f f9 3c 39 92 28 be 50 21 b4 3d ef e8 87 be
       0.030425718 -0.1646203 0.08795416 -0.26544902
000220 fb 3c 3d bd 9f e2 d3 3c e2 da e1 3d 60 c4 ea be
       -0.046200734 0.025864897 0.11028077 -0.45852947
000230 a1 55 4a be bb ea 9b bc 61 4f a0 bc 5a 24 e2 be
       -0.19759227 -0.019032827 -0.0195691 -0.4416836
000240 3b 83 1b be 1d 08 cd be 2b 0f 68 be c9 ef 86 3d
       -0.15186779 -0.40045252 -0.22662036 0.06588704
000250 9b f3 49 be bd ef 29 bd af d4 ba bc 5c ec 8b be
       -0.19721834 -0.041488398 -0.022806494 -0.27328765
000260 08 4e 01 3e 34 bf b7 3d 1f d3 16 3e f4 dd 42 3e
       0.12627423 0.08972016 0.14728974 0.19029981
000270 a3 29 11 3e c3 d7 0d 3d 77 fe 60 3e da 59 6b bd
       0.1417604 0.034629595 0.2197207 -0.057458736
000280 08 d9 49 3e fd 04 75 3e 18 1c 4b 3e fd e3 5b be
       0.19711697 0.23927684 0.19834936 -0.2147369
000290 55 95 8f 3e 6d 43 72 3e 3d 33 dc bd 60 b6 26 bc
       0.2804362 0.23658533 -0.107519604 -0.0101753175
0002a0 95 26 43 3e 6e 9e 62 3d 17 1f 67 bd dc 0f 51 3d
       0.19057687 0.05532687 -0.056426134 0.051040515
0002b0 72 5e e9 3c 73 4b 3d be 30 d5 0a be d3 fb 59 be
       0.028487418 -0.18485813 -0.13557887 -0.2128747
0002c0 4f 8a 05 3f 9a 7b 40 3e 00 65 0b 3d 60 4b 57 bd
       0.5216417 0.1879715 0.034031868 -0.052562118
0002d0 eb 43 6c 3e cb 9f d6 3c 47 d7 09 3f 1f 24 b6 3e
       0.23072784 0.026199242 0.5384411 0.35574433
0002e0 0e c6 52 bd 85 49 a7 be c6 51 07 3f 87 79 4a 3e
       -0.05145841 -0.32673278 0.5285915 0.19772922
0002f0 c4 71 79 be 4b c1 ed 3e 40 0b 47 3e c8 fd 2c 3e
       -0.24359804 0.46436533 0.19437885 0.16893685
000300 bc a4 49 3e dd 17 9f be 17 b5 38 3c 7e 69 5c be
       0.19691747 -0.31072894 0.011273644 -0.21524617
000310 83 09 13 be 62 e2 a8 be 00 b5 c6 3e d8 49 e1 3c
       -0.14359097 -0.32985216 0.38809967 0.027501032
000320 91 69 c4 3d 13 ff ee bd ad f6 8f 3d 78 24 38 bc
       0.09590448 -0.11669745 0.070294715 -0.011239164
000330 49 6a 18 be 16 52 d9 be a1 66 39 be a0 6b 9a 3d
       -0.14884295 -0.4244544 -0.18105556 0.07540059
000340 61 97 ab be 9a 1e 42 be 0c 7b df bd 5c 69 5f 3e
       -0.3351393 -0.18956986 -0.10912141 0.21817535
000350 23 7a a7 ba 93 52 8c be 8e 17 d3 3e 03 36 3a 3c
       -0.0012777488 -0.2740675 0.41228908 0.011365416
000360 ca 90 fc 3d 65 7b b4 be e8 b8 69 3e ef 1a f1 be
       0.12332304 -0.35250393 0.22824442 -0.4709086
000370 ef 3e cf bd 98 03 93 3e 94 0f 28 bf 57 25 31 bd
       -0.101194255 0.2871368 -0.6564877 -0.0432485
000380 26 6f 8b be 2c 85 82 3c 5e c6 6b 3d 7a cd 62 3e
       -0.27233237 0.015932642 0.057562225 0.22148696
000390 70 a2 76 bd cd f3 21 3d d3 4f 04 bf ce 73 c0 3d
       -0.060213506 0.039539147 -0.516843 0.09397088
0003a0 72 d9 89 bd 65 b9 88 3e 9a 7f 9f be 80 d0 03 be
       -0.067309275 0.26703945 -0.3115204 -0.12872505
0003b0 3c 76 dc 3d e7 39 24 3e 3a 10 70 3e 9c 55 4d 3e
       0.10764739 0.16037713 0.2344369 0.20052189
0003c0 c7 02 87 3e a5 07 ea 3e f8 f8 a4 be 67 3e 84 bc
       0.26369306 0.45708957 -0.32221198 -0.016143037
0003d0 2e 8b 4e be f0 a8 b9 be 6c 63 b2 3e 47 d3 60 be
       -0.2017028 -0.36261702 0.34841478 -0.21955596
0003e0 ab 20 a0 3e 78 50 70 3e db 73 c8 3e fc 05 41 bd
       0.31274924 0.23468196 0.3915089 -0.047124848
0003f0 4c 88 3e 3e 58 8d 58 3e 3c 7a 30 bf ea 4d 71 be
       0.1860668 0.21147668 -0.68936515 -0.23564878

network_body._body_endoder.seq_layers.0.bias f4 [128]
000000 ef d2 2f bd cf 8b 8e 3d 03 5b 85 bd 01 a4 48 bd
       -0.04292577 0.0696026 -0.065115 -0.04898453
000010 5e 75 b0 bd 10 17 29 bc cd 84 08 be 8a 6a 70 3d
       -0.08616136 -0.01032044 -0.1333191 0.058695354
000020 31 37 46 3d e0 80 4a bd 0e 00 99 3b 32 96 19 be
       0.04839248 -0.04943931 0.004669196 -0.14998701
000030 7e c1 d9 bd ae 2a af 3c 98 9b 8a 3c ba 84 95 3d
       -0.10632609 0.021382656 0.016919896 0.07300706
000040 c9 94 d5 3d b9 12 78 3d 90 e9 a0 bb 5d 2d 3f 3d
       0.10428769 0.06056473 -0.0049106553 0.04667412
000050 55 c3 87 bd 51 0d c1 3d d5 55 32 3c 2e 27 16 be
       -0.066290535 0.09426368 0.010884722 -0.14663383
000060 ee 0d 25 3e 13 00 b0 3d 32 31 f5 bd 3b 63 0d 3d
       0.16118595 0.08593764 -0.11972274 0.03451846
000070 55 e1 b1 3d 58 8d 5a be a3 69 b9 3d a6 e8 32 3d
       0.08685557 -0.21342981 0.09053352 0.043678902
000080 2f fb 48 bd 53 22 9c 3d d1 69 55 3a 41 6e eb bd
       -0.049067672 0.07623734 0.0008141073 -0.11495639
000090 2b 31 2d be c8 fa 07 ba 77 f0 ee bc 24 33 1d be
       -0.16913287 -0.00051872106 -0.029167397 -0.1535154
0000a0 e3 d1 b4 bc 50 e2 53 3d 27 6f 33 3c b4 e5 35 bd
       -0.022072738 0.0517295 0.010951794 -0.044408515
0000b0 b3 89 9b bc 8f 4d 14 be 24 b5 62 3d 59 93 ad bc
       -0.018986559 -0.14482711 0.05534853 -0.021188425
0000c0 15 dd 83 3c 3e db b3 bd 98 44 bc bd ab 14 c8 3d
       0.016096631 -0.087820515 -0.09192771 0.09769567
0000d0 0d 7c bd 3d d2 19 1f be 40 af 27 3d e3 19 ba bd
       0.092521764 -0.15537193 0.040938616 -0.09086969
0000e0 e2 6c 17 bb cb f9 b4 bd a8 52 c2 bd 76 1b 1d be
       -0.002310567 -0.08836707 -0.09488422 -0.15342507
0000f0 ff 8f 0e be 3a 8c 80 3d 62 44 33 3d d4 a7 ba 3c
       -0.13922118 0.06276746 0.043766387 0.022785105
000100 17 54 a1 3d ea 6e 70 be 93 f6 5d be 20 45 8c bd
       0.07877367 -0.2347981 -0.21676092 -0.06849122
000110 0b 85 d9 bd a3 d8 98 bd 91 eb bc 3c 87 4a 13 3d
       -0.10621079 -0.07463195 0.023061546 0.035959747
000120 61 da c9 3d de 25 fa 3c 08 0d 0f 3d a1 83 c5 bd
       0.098561056 0.030535635 0.034924537 -0.09644247
000130 f0 30 04 be 0b 98 cb 3d 24 e5 84 bd ea 09 2a be
       -0.12909293 0.09941109 -0.064890176 -0.16605344
000140 bb cf cc bd 38 44 e0 bc 43 df 3b be a6 a9 23 bc
       -0.10000559 -0.02737628 -0.18346886 -0.009989178
000150 b4 0b 2f 3d b6 e7 c5 bd 15 61 79 3d 9f 17 28 3d
       0.04273577 -0.09663336 0.0608836 0.04103815
000160 f3 49 fa bc d3 9f 01 3d fb b6 ab 3d d0 73 c6 3b
       -0.03055284 0.03164656 0.0838451 0.0060562864
000170 3e 55 f2 3b e7 3b d8 bd 3b 60 6a bd ac 92 d5 bd
       0.0073954156 -0.105583005 -0.05722068 -0.10428366
000180 b0 71 67 bd 52 02 d5 bd a5 2d 93 3d 52 2a a7 3c
       -0.056504905 -0.10400833 0.071864404 0.020405922
000190 fd 21 10 bd 2c 33 08 bd 37 87 49 be ce c1 37 bd
       -0.035188664 -0.033251926 -0.19680487 -0.04486256
0001a0 80 b5 fb 3c f3 f3 ce bc b6 fc ea 3d 28 22 8d bc
       0.030726194 -0.025262808 0.11473982 -0.017228201
0001b0 27 a6 1d be 16 68 5d be 88 63 4d 3c 7a 24 35 be
       -0.15395413 -0.21621737 0.012535937 -0.17689696
0001c0 0a 01 09 3e 45 13 83 bd fc c3 a7 bd 2f 79 ac 3d
       0.13379303 -0.0640016 -0.08191678 0.084215514
0001d0 fe 31 17 3e a6 51 e8 3c e9 43 dc bd 8a 11 d3 bc
       0.14765164 0.028359246 -0.1075514 -0.0257652
0001e0 e1 87 85 3d cd 3f 55 3d 17 28 5c bc 26 fe 32 bd
       0.065200575 0.0520628 -0.013437293 -0.043699406
0001f0 9e 2c 52 bd a7 15 b4 3d 50 69 1a 3e 61 e1 26 be
       -0.05131208 0.08793192 0.15079236 -0.16296913

network_body._body_endoder.seq_layers.2.weight f4 [128, 128]
000000 37 2b 96 3e 8e ca 6d 3e 0f d8 a7 3c e9 c3 7d 3b
       0.29329845 0.232218 0.020488767 0.0038721508
000010 68 18 06 3e 15 b9 ab 3d f6 67 20 3e ae 67 aa 3e
       0.13095248 0.08384911 0.15664658 0.33282226
000020 8f 02 2f 3e 36 8b a8 3d a2 52 79 bd 09 14 4e bd
       0.1709082 0.082296774 -0.06086982 -0.050312076
000030 8e ef 14 3e ee f3 3c 3e 2d ef 84 bd 4c f0 1e 3d
       0.14544508 0.18452427 -0.06490932 0.038803384
000040 1a f4 04 3e ac 13 bc 3d 4a 36 dd 3d 3d f6 a1 ba
       0.12983742 0.091834396 0.108013704 -0.001235671
000050 86 58 45 3e 02 68 01 bd ee 72 ae 3d c8 ba c1 3d
       0.1927205 -0.03159333 0.08518015 0.09459454
000060 30 5a db bd 2c 70 83 3d 70 95 34 be df 86 b9 3d
       -0.10710561 0.064178795 -0.17635131 0.09058928
000070 d0 c0 d7 bd 11 d4 1c bb 81 60 a2 be 08 8d 36 3e
       -0.10534823 -0.0023930112 -0.31714252 0.17827237
000080 ae 5f a5 3e ed 55 6e be 90 72 8f bd 54 90 48 3d
       0.3229956 -0.23274966 -0.07004273 0.048965767
000090 9b 55 58 3d f4 1f 6d 3e ed b0 34 3d c1 60 3f bd
       0.052816015 0.2315672 0.044114042 -0.04672313
0000a0 77 df 99 3e 1d f2 b8 bc a0 a9 3a be 9d 4c 30 3e
       0.30053303 -0.022576386 -0.1822877 0.17216726
0000b0 7d 28 aa 3c 16 54 1f be e0 9a 2f be 7f b9 78 3a
       0.02077126 -0.1555942 -0.17148924 0.000948809
0000c0 ee 10 e2 3e 51 6b a2 3d 3c 6a 99 3e 2b 58 87 3e
       0.4415354 0.07930625 0.29963863 0.26434454
0000d0 b7 a1 3a 3e bb 4e 5f 3d 5f db 03 3d 4a 88 fe 3d
       0.18225752 0.054518443 0.03219163 0.12428339
0000e0 cb 29 9e 3d a4 d1 bc 3d 27 d0 b0 3d 45 d4 14 bd
       0.07722815 0.09219673 0.08633452 -0.03633525
0000f0 b6 a6 ed 3c cd 3d 11 3e 43 8e 68 bc bc a9 93 bd
       0.029010158 0.14183731 -0.014194074 -0.07210109
000100 50 02 6b be ae cb 4d bc 25 52 44 be 28 70 83 3e
       -0.22950101 -0.012560768 -0.1917196 0.25671506
000110 1d 3f 93 3d ac 7f 92 3d 49 fd 13 3e 72 66 82 3e
       0.07189772 0.07153258 0.1445209 0.25468785
000120 98 d5 a3 bc ea e5 5d 3e 9f 1d 8a 3e 9b 82 32 3e
       -0.01999931 0.21669737 0.26975724 0.17432635
000130 39 c2 cc 3d 45 41 b0 bd bb 3a e7 bd 63 a1 af 3d
       0.099979825 -0.08606199 -0.11290499 0.08575704
000140 c5 e1 3a 3e c6 ca 47 3d 20 7c d6 3b 41 e2 a0 3e
       0.18250187 0.048777364 0.0065455586 0.31422618
000150 05 a3 d4 bd 1e a5 69 3d 29 a8 f9 3d 94 70 65 3e
       -0.10382656 0.057042234 0.12190277 0.22406226
000160 e0 42 80 3d 12 f1 77 be eb 4d 9c 3e 72 44 fb bd
       0.062627554 -0.24213055 0.30528197 -0.12268914
000170 20 9e bf 3d eb 66 16 3e 3f 38 ec bc a9 35 bf 3d
       0.09356332 0.14687698 -0.028835414 0.09336407
000180 43 36 d0 bd 3e 15 a4 3c ef e0 db 3c 6e 55 e8 3c
       -0.101665996 0.02002966 0.026840655 0.028361049
000190 dd 8e dd 3d c9 11 52 3d 24 09 7f 3e db 17 90 3c
       0.10818265 0.051286492 0.2490583 0.0175895
0001a0 94 5e 97 3e b4 3c 84 3d 45 3d 7d 3e 58 49 23 be
       0.29564345 0.06456891 0.24730404 -0.15945947
0001b0 ff 3b 00 be 30 26 30 bd a2 5d 56 bd 76 3f 22 3e
       -0.12522887 -0.04300517 -0.05233539 0.15844521
0001c0 0d ed da be 4a b5 16 3d 03 1a 97 3e 21 ab a2 3e
       -0.4275898 0.036793984 0.29512033 0.31771186
0001d0 0d 5b 14 be 11 0c 0a be 8a 5a 05 be fd b1 a1 3d
       -0.14487858 -0.13481165 -0.13022819 0.07895277
0001e0 58 e7 16 3e 57 a3 32 3e 22 a8 f0 3d 26 21 2e 3d
       0.14736688 0.17445122 0.11750819 0.04251208
0001f0 25 d9 a5 3d ce c7 0d be 26 e1 7d be 35 4f 81 3d
       0.08098058 -0.1384575 -0.24792919 0.06313936
000200 28 f2 4a bd e0 64 97 bd 29 0a 95 bd 52 36 a1 3d
       -0.049547344 -0.07392287 -0.072773285 0.07871689
000210 8b f7 b5 bd bc 4c c7 bc e9 89 20 3e 28 49 c1 3d
       -0.08885106 -0.024328582 0.15677609 0.094377816
000220 93 22 a0 3d 6e 31 f4 bd d7 0a 5e be dc 08 c2 bd
       0.078190945 -0.119234905 -0.21683823 -0.09474346
000230 58 c3 09 be 7d dd ae 3d 80 75 23 be 4a 72 d8 3a
       -0.13453424 0.08538339 -0.15962791 0.0016513553
000240 9b 00 e4 3c 0e 32 a1 3d 34 f7 9b 3d 92 b4 95 bd
       0.02783232 0.07870875 0.0761551 -0.07309832
000250 66 6f e8 3d 33 2d 79 3e 48 5a da bd d5 71 98 bd
       0.113493726 0.24333648 -0.10661751 -0.07443587
000260 60 53 e2 bc 84 d8 86 bd 00 32 25 be c1 89 d7 bd
       -0.027627647 -0.06584266 -0.16132355 -0.10524321
000270 91 06 58 be e0 37 fa bd 11 b6 10 3d 17 ae cd bd
       -0.21096255 -0.122176886 0.035329882 -0.10042971
000280 36 f6 b4 3d a4 1f a3 bb fb 18 a9 3d 49 36 55 be
       0.088360235 -0.004978137 0.08256718 -0.2082149
000290 66 c4 ac bc 45 67 53 bc b9 48 c3 bb 5d 68 ea bd
       -0.021089744 -0.012903039 -0.005959597 -0.11445687
0002a0 70 5b b3 3d f6 75 b4 3c 53 18 9b bd 8e 17 b8 bd
       0.08757675 0.022028904 -0.07572999 -0.08988868
0002b0 f4 ae 17 be 2a a4 39 3c 1d ca 63 3d d1 22 39 be
       -0.14812833 0.011330644 0.055612672 -0.18079688
0002c0 ca 21 db 3c 20 9a a6 bd 81 fc 04 be 9e f6 88 3c
       0.02674951 -0.08134866 -0.12986948 0.016719159
0002d0 ce a2 08 be e8 50 c6 bd 7e d7 a4 bd 7f 0b bb bd
       -0.13343355 -0.096834004 -0.080489144 -0.09133052
0002e0 99 8d b4 bc 25 91 ad bd 36 b2 64 3c 26 e4 e3 3a
       -0.022040175 -0.0847495 0.013958504 0.0017386719
0002f0 19 8b 94 bd e5 5b fb bc 62 63 cb bd 6e b6 4d 3d
       -0.07253093 -0.030683467 -0.09931065 0.050222807
000300 09 0e 24 ba 8e 01 46 bd 36 d1 7e bd ae 57 7b 3d
       -0.0006258195 -0.048341326 -0.062211238 0.061362915
000310 ff c1 bf bd 2d 6d 8f 3d 0a dc a5 bd 5f ec 3e be
       -0.09363174 0.070032455 -0.0809861 -0.18644856
000320 ae 87 04 3e 85 3a af 3d 0d 7c 33 be 44 3c d5 bd
       0.12942383 0.085560836 -0.1752779 -0.104118854
000330 78 a6 b6 bd 7f dd fb 3d 8c 35 f8 bd 28 5d 10 bc
       -0.0891847 0.122981064 -0.12119588 -0.008811273
000340 38 18 3a 3d 85 c8 4b bd aa bd 08 3d 5b 7d fe bd
       0.045433253 -0.049751777 0.033384003 -0.124262534
000350 f5 7b fe bc 19 8c 08 3e 36 4b 14 be 5a f6 7b be
       -0.031064967 0.13334693 -0.14481816 -0.24605694
000360 ce 81 1a 3d 7a 17 3b bd 89 68 6b bd 50 f5 88 bd
       0.037721448 -0.045676686 -0.05747274 -0.06687415
000370 7e 3f 62 bd 35 4a d0 bd 97 0d 79 be c9 a2 45 bd
       -0.055236332 -0.10170404 -0.2432159 -0.048250947
000380 5f 3f da bc 57 a4 b8 3d a7 a3 b4 bc c8 4c 16 bd
       -0.026641546 0.0901572 -0.022050692 -0.036694318
000390 2a 32 52 be fa b9 9b bd 44 fd 30 be b6 1f f3 3d
       -0.20526949 -0.076038316 -0.17284113 0.11871283
0003a0 7c 28 c9 bd 0a 78 43 be 0a fa 51 be 96 08 e6 bd
       -0.09822175 -0.1908876 -0.20505539 -0.112321064
0003b0 4e 09 b7 3d fe b5 a9 bd 19 b9 5e be 87 08 87 3d
       0.089373216 -0.082866654 -0.21750297 0.06593423
0003c0 f3 fd 9a bd 31 8c 38 3e ea 7d b6 bd d8 0f 8a 3d
       -0.07567968 0.18022229 -0.08910735 0.06741303
0003d0 80 be 56 be a5 c4 d1 3c 60 7d 96 3b e2 79 13 3d
       -0.20971107 0.025606463 0.0045925826 0.03600491
0003e0 0f 59 80 3d 67 9e 6c bd ff a3 c9 bc f3 67 16 be
       0.062669866 -0.05776825 -0.024614332 -0.14688091
0003f0 56 e6 1e bd c1 de 06 3d 66 de e1 3d 2d 70 9d bd
       -0.038793884 0.03292728 0.11028747 -0.076874115

network_body._body_endoder.seq_layers.2.bias f4 [128]
000000 c5 84 86 bd 47 89 46 3c 27 b8 e5 bc ce ad c3 3c
       -0.065682925 0.01211769 -0.028041912 0.023886587
000010 c8 e8 8e 3c fa 75 2d 3d e4 e1 eb bc 48 d8 3e 3c
       0.017444983 0.04234884 -0.028794236 0.011648245
000020 d5 28 53 3d a5 16 bc 3c 97 79 84 3d e0 57 13 3d
       0.051552612 0.022960017 0.06468504 0.035972476
000030 ae 22 c3 3d e0 8a c5 bd 8d 37 43 bc 13 43 09 3d
       0.09528099 -0.09645629 -0.0119151 0.033511233
000040 e5 1b 08 3e f3 d4 2f 3d 19 42 86 3d 78 c7 39 bd
       0.13291891 0.042927694 0.06555576 -0.045356244
000050 b1 27 f5 3c 2a be 8c 3c 73 f0 8b 3c 3a b8 d5 bc
       0.029926153 0.017180521 0.017082429 -0.026088823
000060 98 fe 41 3d d3 c6 09 3d 2b 18 09 3e 47 29 d5 bc
       0.04736194 0.03363688 0.13388126 -0.02602066
000070 28 4d 51 be 91 58 68 bd ef f0 a1 3c a2 8c a0 bd
       -0.20439589 -0.05672509 0.019768206 -0.078393236
000080 ef c6 94 3d 2a 3e ac 3d 49 78 b6 3c cd 04 6d bd
       0.07264506 0.08410294 0.022274153 -0.057865907
000090 45 22 0a 3e bd 4f cb bd ea 1b 17 3c 8e f3 37 be
       0.13489635 -0.09927318 0.009222964 -0.17964002
0000a0 1d f1 fc ba 5a 58 ef 3d 37 3b b0 3b 9e 47 0a bd
       -0.0019297932 0.116867736 0.0053781527 -0.033759706
0000b0 ee 52 b5 3d b1 ac 08 be e4 e4 54 bb ba 0f 88 3d
       0.08853708 -0.13347127 -0.0032485062 0.066436246
0000c0 6c 88 26 bc 40 c6 e6 3d d8 27 4c 3d 30 86 18 3c
       -0.010164361 0.11268282 0.049842685 0.009309337
0000d0 bb ea 99 bd 53 0a d0 3c 40 75 85 3d 4c b4 37 bc
       -0.075154744 0.025395548 0.06516504 -0.01121242
0000e0 47 1c 0f 3e 7a 7b ef 3d 80 1a ef 3c 5a 95 01 bd
       0.1397563 0.11693473 0.02918744 -0.031636573
0000f0 60 0d 9d 3d 01 d8 04 be 02 d3 f1 bc 81 3b f0 3c
       0.07668567 -0.12973024 -0.029519562 0.029325249
000100 67 bb 94 3d e3 e6 9e 3c 75 2a bf bd 6c ae bd bd
       0.07262307 0.019397205 -0.0933427 -0.09261784
000110 c7 57 00 3d 58 09 b4 3c f8 a2 ff 3c f2 d2 0b be
       0.03133371 0.021977112 0.03120564 -0.13654688
000120 15 fd 77 3d d3 1a 58 3d 58 aa 1e 3d 3c b6 8c 3d
       0.060544092 0.052759957 0.03873667 0.06870696
000130 e8 74 ac bc 49 f3 e4 3c 7c 39 ee 3d 29 50 61 3d
       -0.021051839 0.027948039 0.11632058 0.055008087
000140 2c f2 98 bd 0e 44 03 3c ac c7 1a be b3 6c 3b be
       -0.074680656 0.008011831 -0.15115231 -0.18303184
000150 a4 53 cc bd 9f c4 ea 3c 8f 7d a6 3d 38 ce 01 bd
       -0.09976891 0.02865821 0.08129417 -0.031690806
000160 67 5c 69 bc d3 93 8c 3d 0b b0 0f be 41 95 52 be
       -0.014243222 0.06864133 -0.14031999 -0.20564748
000170 4f fb 98 3d 01 48 fb bd 50 b4 a3 bd 78 8b 1b 3c
       0.07469808 -0.12269593 -0.07993376 0.009493701
000180 e3 ac b7 bd 5e 73 d5 3c 9c dc 7e 3d 15 e6 a4 bc
       -0.089685224 0.026055988 0.06222211 -0.020129243
000190 e2 94 b9 3c 17 c4 c0 3c 94 01 20 be fb f7 e4 3c
       0.022654 0.023531003 -0.15625602 0.027950278
0001a0 0b f9 4e bd 33 2e 83 3d 62 d9 52 3d d9 3a e7 3c
       -0.050530475 0.06405296 0.051476844 0.028226303
0001b0 6d 74 2f 3e 9f d6 24 be 18 5c b3 bd 8c f0 2f 3d
       0.17134257 -0.16097496 -0.087578 0.042954013
0001c0 a2 0a 99 3d c3 d8 ae 3c 68 1d ea bd 99 cb a8 3d
       0.07472731 0.021343594 -0.1143139 0.08241958
0001d0 45 df 6d bb 19 82 12 3c 85 f3 4d 3d 8a f1 f2 3d
       -0.003629641 0.0089421505 0.050281066 0.11862476
0001e0 f4 17 46 3d 71 5e c6 3c 9e db 1a 3d f4 8c 83 3d
       0.048362687 0.024214955 0.0378071 0.06423369
0001f0 c7 a2 31 3c df 2f a9 bc 0e 46 b9 bc 20 66 73 bd
       0.010842032 -0.02065271 -0.022616412 -0.059423566

network_body._body_endoder.seq_layers.4.weight f4 [128, 128]
000000 86 33 06 3e 91 ea 5c bd 29 49 97 bc 41 cc 72 3d
       0.13105592 -0.053934637 -0.018467503 0.059276823
000010 28 b2 d6 3d ae d6 d0 3d 84 50 5d 3d ac 9f 95 3d
       0.10483199 0.10197197 0.054031864 0.073058456
000020 7f 5e 8c 3e 33 af 2d bd eb 58 91 3e 9f 4c 26 3d
       0.27415845 -0.04240341 0.28388152 0.040600415
000030 13 1f b2 3d 42 24 0f bd f6 e9 e7 3c f7 69 02 3e
       0.08697333 -0.034946688 0.028309803 0.12735735
000040 51 d1 7d bd c6 23 b3 3d ab f1 b8 3d e4 7a 83 3c
       -0.061967198 0.087470576 0.090304695 0.01604981
000050 81 92 24 3d 5a f2 0e bd de 1e c9 3d fa fe 14 be
       0.04017878 -0.034899093 0.098203406 -0.14550391
000060 ab 2a 0b 3e 0c b3 92 bd df e7 9b bb 03 72 39 3d
       0.13590495 -0.07163057 -0.004757866 0.045274746
000070 d1 69 23 bc 1c 12 83 3e 3e 37 72 bc 38 8f c7 3e
       -0.009973959 0.25599754 -0.014783679 0.38976455
000080 cb 53 49 be da cf ca 3d d0 1f 90 3c 5e b3 f2 bd
       -0.1966087 0.09902926 0.017593294 -0.11850618
000090 b1 a2 52 3e ca 2e 81 3e 4a 89 6f bd cc a3 fb 3d
       0.20569874 0.2523101 -0.05848054 0.12287101
0000a0 3c 53 33 be 56 61 2b 3e c0 fd 60 bc 65 a4 82 bd
       -0.1751222 0.1673635 -0.013732374 -0.06379012
0000b0 9d ef 7d be 3f 0e 09 bd 70 61 21 bc 1b d3 de bc
       -0.24798436 -0.03346085 -0.009849891 -0.027200272
0000c0 60 89 2e 3d c2 ef 91 bb 3f 22 ae bd 30 76 db bd
       0.04261148 -0.00445363 -0.08502626 -0.10715902
0000d0 e3 80 4d bd f9 a2 98 bd e8 19 ef bd 6b b4 b6 bd
       -0.050171744 -0.074529596 -0.11674863 -0.08921131
0000e0 10 c9 4f be 04 cc fe bb ea f4 0e 3d 24 33 7e 3d
       -0.20291543 -0.0077757854 0.034901537 0.06206049
0000f0 0d 0a c7 bd b5 fa 50 be 25 84 94 bd 78 fc 1b 3e
       -0.09718714 -0.20408137 -0.07251767 0.15233028
000100 c0 53 d1 bc 95 89 1e 3e bc ec 31 3e b1 ca 95 3c
       -0.02555263 0.15482171 0.17375463 0.018285127
000110 c7 7c 07 bc 76 db 6d 3e 60 a9 7a 3e 11 7c 33 3e
       -0.008269495 0.23228249 0.24478674 0.17527796
000120 0d a0 04 be 5f 76 6f be 3f 20 a9 3d fa 9d c8 bd
       -0.1295168 -0.23384999 0.082581036 -0.09795757
000130 29 e5 95 3d 41 fb 4d be 22 a6 53 3d 3b 85 8f bc
       0.073190995 -0.20115377 0.05167211 -0.017519584
000140 85 6f 37 3e 5f e1 96 3c 8c 6b b7 3b 3e 30 20 3e
       0.17913635 0.018418012 0.0055975374 0.15643403
000150 5a b2 55 3e ae 6f e3 3d 4f d2 90 be 01 6e 96 bd
       0.20868817 0.111052856 -0.28285453 -0.073452
000160 9f 5a c1 bd c8 eb b1 3b f5 8d 8c bc b2 b2 aa bd
       -0.09441113 0.0054297186 -0.017157534 -0.08334865
000170 c9 fc 52 3c 7b 77 f0 3d de b8 50 3e 11 e4 c4 bd
       0.0128776515 0.11741539 0.20383021 -0.09613813
000180 c5 8f c6 3e 78 ec cd 3d 7d 13 e6 bd 39 6e f2 3d
       0.38781562 0.100548685 -0.11234186 0.118374296
000190 5b ce 33 bc 37 d7 1b be cc ca f0 3d 81 d0 4a be
       -0.010974492 -0.15218817 0.117574304 -0.198061
0001a0 5d b3 20 3e 06 25 13 bc ac 17 40 bd 14 1f be 3d
       0.15693422 -0.008980995 -0.046897575 0.092832714
0001b0 d0 e1 4f 3d ce cd 12 3e 5f 25 f7 3d 19 cc f2 3c
       0.05075246 0.14336321 0.12067675 0.029638337
0001c0 c9 31 09 be b5 b0 c5 bd 5f a7 c7 bc d5 74 01 be
       -0.13397898 -0.09652845 -0.024371801 -0.12642224
0001d0 cd d0 c4 bc 9c 3b 31 3d c2 c5 f9 3d b5 5d 07 bd
       -0.024025345 0.04326974 0.121959224 -0.03304835
0001e0 e4 d3 c8 bd 5b 20 79 3d 20 7b 1c be 1a d3 3b be
       -0.0980604 0.060821872 -0.15281343 -0.18342248
0001f0 ef e6 bc 3c 02 5c 63 be f2 54 79 3b 17 76 8d 3d
       0.023059336 -0.22203067 0.0038045016 0.069072895
000200 97 f4 05 3e f7 27 2e bc f9 f3 8f bb 2c 9a 0c 3d
       0.13081585 -0.010629646 -0.0043930975 0.034326717
000210 cb 69 6e be f5 fa 4c be 4f 97 7f bd 54 6a 25 3e
       -0.23282544 -0.20017608 -0.06240016 0.16153842
000220 6a f3 5c 3d 19 10 35 be ee 38 6e 3c ee a9 71 bd
       0.053943075 -0.17681922 0.01453994 -0.05899995
000230 1d bc 8c 3d 0b b2 6e be 52 41 68 3d 8d a9 b3 bd
       0.06871817 -0.23310106 0.05670292 -0.087725736
000240 3e e8 1f 3c ba 41 95 bd d9 aa 15 be 15 b0 55 bd
       0.009759961 -0.07287927 -0.14615954 -0.052169878
000250 1b e9 b7 bd f9 ae 0f be ad 8e 8d bd e6 9b 52 3d
       -0.08980008 -0.1403159 -0.06911979 0.051418208
000260 09 25 48 bd 06 6f 3b bd a1 24 67 3e f2 68 be bd
       -0.048863444 -0.045760177 0.22572567 -0.092973605
000270 71 e3 cc bd 5a 81 a0 be f9 f6 34 be 96 ce 62 be
       -0.100043185 -0.31348687 -0.17672338 -0.22149119
000280 ba b3 05 bd 31 43 ad 3b 3c b6 57 be 64 3f fc 3d
       -0.032642104 0.005287551 -0.2106561 0.12316778
000290 0a d8 57 3e f2 cf 16 3d 48 6c a8 bd 23 67 d3 bb
       0.21078506 0.036819406 -0.08223778 -0.006451504
0002a0 13 5b 1b be 3c 2a 5b 3e 38 ed cd 3c e3 e5 72 bc
       -0.15171461 0.2140283 0.025137529 -0.014825317
0002b0 f4 e0 08 be f8 64 4f bd 76 8a 81 3d c8 b7 2d 3c
       -0.13367063 -0.0506334 0.063252375 0.010602899
0002c0 92 c9 04 3b cf a0 82 bd 1a ee c1 3d 05 2b 1c 3e
       0.0020261747 -0.06378328 0.094692424 0.15250786
0002d0 ef 74 40 be cd e2 48 be 58 50 79 bc 75 4a ce ba
       -0.18794607 -0.19617768 -0.015216909 -0.0015738743
0002e0 ca 68 13 be b9 a1 22 bd 3d d1 3c be b1 a8 e1 bd
       -0.14395443 -0.039705012 -0.18439193 -0.110185035
0002f0 d7 cc af bd 9f 34 f1 bd ce 79 97 3c ac a4 b9 3d
       -0.08583992 -0.11777615 0.018490698 0.09064612
000300 53 a8 a0 3d a6 ca 1b be 4c cc bb bd 9a f4 16 bd
       0.07844605 -0.15214023 -0.09169826 -0.036854364
000310 0f d3 0e be 37 17 d5 bc e2 97 00 be 1b be 16 be
       -0.139477 -0.026012046 -0.12557939 -0.14720957
000320 63 6b 36 3e 12 5e c3 3c 79 fc 33 be 36 70 71 bd
       0.17814402 0.023848567 -0.1757678 -0.058944903
000330 5d 1b e1 bd 71 26 de bd c4 95 87 3d f2 48 73 bd
       -0.10991547 -0.10847176 0.066203624 -0.059395738
000340 64 c2 27 be cd 9a 91 bd 56 6f 09 3e c2 22 2e be
       -0.16382748 -0.07109604 0.13421378 -0.17005447
000350 30 01 a8 bd 49 32 6a be 70 74 07 be b8 d4 de bd
       -0.082033515 -0.22870745 -0.13228011 -0.10880417
000360 88 a7 f6 3d 91 16 06 3d c9 03 35 be 8c c5 0f bd
       0.12043673 0.032736365 -0.17677225 -0.035100505
000370 67 01 64 be 09 aa 19 be 45 0c 01 be 1d 0b 05 be
       -0.2226616 -0.1500627 -0.12602337 -0.1299252
000380 a4 6f 66 be 90 34 27 be 27 a3 0c be 9d 92 07 3c
       -0.22503525 -0.16328645 -0.13734113 0.008274701
000390 ad cb 09 bb 00 e1 4a be 5e fc db bd 0f 41 2d be
       -0.0021025941 -0.19812393 -0.107414946 -0.16919349
0003a0 be 85 f3 bd b6 e2 87 bc 05 0c bb bc dd 68 b1 be
       -0.11890744 -0.016587596 -0.02283288 -0.34650317
0003b0 72 d2 c1 3d 7f 55 c1 bd 2c b1 3f 3d d7 db cc 3d
       0.094639674 -0.09440135 0.046799824 0.100028686
0003c0 28 97 05 bd 0d 71 96 be cd ae 2c 3d 5e 25 4e be
       -0.032614857 -0.29383126 0.04215889 -0.20131442
0003d0 6b ae 97 3c 2d d1 4c be 5d 25 ab 3d bc be 19 3e
       0.018515786 -0.20001669 0.08356736 0.15014166
0003e0 ae 4f 97 be b3 b9 e9 3d dd 80 63 bd 34 a3 b3 3c
       -0.29552978 0.114123724 -0.055542815 0.021928407
0003f0 c7 ba 93 3d 39 d3 88 3c cb 89 95 bd 41 6c 2a be
       0.07213359 0.016702281 -0.073016725 -0.16642858

network_body._body_endoder.seq_layers.4.bias f4 [128]
000000 d3 da e0 bd 6b 5b d5 3d 3a 88 f9 bd 78 60 80 bb
       -0.109792374 0.10417827 -0.12184186 -0.00391775
000010 39 44 b4 3c 4e 87 ab bd 3b db 3b bd 83 8d 87 bd
       0.022005187 -0.08375417 -0.04586337 -0.06618788
000020 b8 da f1 bd 2b 09 7b bd 5f ed bb bd 6a ba 61 3d
       -0.118092954 -0.06128804 -0.09176134 0.05510942
000030 37 3a e7 3c 69 61 b6 bc 37 18 93 3d 02 40 24 3d
       0.028226001 -0.022263246 0.07182353 0.040100105
000040 22 05 dc bd 5a 1a 0d 3d 90 24 a7 bd 6b ea 4b 3d
       -0.107431665 0.03444896 -0.081612706 0.049784105
000050 be 49 1d be 4f a5 82 bd 60 ff 8f 3c 03 80 41 3c
       -0.15360162 -0.06379186 0.017577827 0.0118103055
000060 9f f7 91 bc 53 40 bd 3d 12 a3 aa bd f3 5e b4 3c
       -0.01781827 0.092407845 -0.083318844 0.022017932
000070 ba 3d 1e be 89 a3 19 3b 82 03 8e 3c 66 55 13 bd
       -0.15453234 0.0023443422 0.017335657 -0.035970114
000080 7d 40 21 3c 0c fb 8c 3d cf d2 9a bc 25 2a 54 3c
       0.009842035 0.06883821 -0.01889935 0.012949501
000090 67 f9 de bc 0f 87 5d bd bc a4 77 bd d7 cf 06 be
       -0.027218534 -0.05408388 -0.060459837 -0.13165222
0000a0 8e 3c 8c bd bb 2c 20 3d ed 11 4d bd 30 e5 fe bb
       -0.068474874 0.03910516 -0.050065923 -0.007778786
0000b0 81 55 82 3e 84 e4 d5 3c 23 25 60 3d d7 6e 49 3d
       0.2545586 0.026109941 0.054722916 0.04917797
0000c0 10 9f bd 3c 3c 36 8a bc 52 93 01 be 51 a2 94 3d
       0.023147136 -0.016871564 -0.12653854 0.07257522
0000d0 e8 ca 35 be 52 8f 0c 3a ef 81 9f 3c d6 8e 56 3d
       -0.17753184 0.00053619326 0.019471137 0.052382313
0000e0 5e 35 23 3d 87 ca a3 3b 7e b8 61 3d 67 40 a9 bd
       0.039845817 0.0049985084 0.055107586 -0.08264237
0000f0 f6 64 37 bc 5e 4c 4a 3c 8e 9f de 3d c1 fa 0f 3d
       -0.011193505 0.012347309 0.108702764 0.035151247
000100 3b 73 c4 bd c6 3b af 3d dc b6 96 bd ee 3d 41 3e
       -0.09592291 0.08556323 -0.073590964 0.1887128
000110 6f 48 e4 bd e6 56 b8 bd a2 80 88 3d ea 6d 7d bc
       -0.11146628 -0.090009496 0.0666516 -0.0154681
000120 19 b7 74 3c c7 ca 2c 38 42 af b2 bd 6f 8e 61 3c
       0.014936232 4.1196847e-05 -0.08724834 0.013766869
000130 73 c0 fe bd fc fa 92 bd cd 72 47 3d 27 5a a8 bd
       -0.124390505 -0.07176778 0.048693467 -0.0822032
000140 5a 87 c4 3b 1d 29 24 be f1 4c 95 bd 11 cb 4a 3d
       0.0059975805 -0.16031308 -0.07290066 0.049510065
000150 ff 27 1b be fc d9 87 bd 8b d4 39 3d 06 db a2 bc
       -0.15151976 -0.06633374 0.045368712 -0.01987983
000160 c0 5c a3 bd cd 97 f4 3d af d9 54 bc 32 a2 ab 3c
       -0.07976675 0.11943016 -0.012991353 0.020951364
000170 e5 78 82 bd 05 5b bd bd 16 92 8b 3c a1 13 3c bd
       -0.06370715 -0.09245876 0.017037433 -0.045917157
000180 8d d8 1a 3e 5c d3 b3 bd 3c b7 bd 3c 29 6a 38 bc
       0.1512167 -0.08780548 0.023158662 -0.011255779
000190 a6 84 b5 bd b7 ed df bd 51 73 48 bd 73 0b dc 3d
       -0.08863191 -0.109340124 -0.0489381 0.10744371
0001a0 58 0c 00 bb 10 3c 0d 3e fa 9c b4 bc 94 93 07 3e
       -0.0019538607 0.13792443 -0.022047509 0.1323989
0001b0 22 d4 9f bc a1 c4 62 bd cb 0b 7e 3b ce 72 dc bd
       -0.019510332 -0.0553633 0.0038764353 -0.10764085
0001c0 e9 ed 16 3e c5 50 95 3b 4f d0 c9 3d 9d d4 03 3d
       0.14739193 0.0045567476 0.09854185 0.032185186
0001d0 89 a1 0c be 31 4c 05 3d bb 6b 0c be 25 b8 bb bc
       -0.13733496 0.032543365 -0.13712971 -0.022914955
0001e0 1c 9b 9e bd 00 a4 ed bd 88 79 8c 3d 4e 53 74 bd
       -0.077444285 -0.11603546 0.06859118 -0.059649758
0001f0 c6 b4 03 3e 4d ef 3e 3d 76 ab db bd d4 b6 6f bc
       0.12861928 0.046614934 -0.10726063 -0.014630992

action_model._discrete_distribution.branches.0.weight f4 [3, 128]
000000 72 78 b8 3d ed 94 99 bc 06 fc 88 3d 75 38 be 3d
       0.09007348 -0.018747771 0.06688695 0.09288112
000010 b5 8b d8 bc ec 33 8b 3d 9a 27 a3 3d 4c 46 c8 3d
       -0.026433805 0.06797013 0.07966538 0.09779033
000020 58 46 e5 3d 6d c4 57 3d e7 9e 38 3d a7 bb b2 bd
       0.11195058 0.05267756 0.045073416 -0.08727198
000030 9a 43 a4 3c 3e 64 ac bc d2 a0 27 bc db 4b 1d bc
       0.020051766 -0.021043893 -0.010231214 -0.009600605
000040 a2 92 31 3e b6 db de bc 0c 07 15 3e 98 44 b2 bc
       0.17341092 -0.027204376 0.1455347 -0.021761224
000050 43 99 b9 bc 6f fb 15 3e ed 95 5c 3c 95 66 ba bb
       -0.022656089 0.14646696 0.0134634795 -0.0056884983
000060 6c 14 e1 3d b1 87 a7 3d f0 68 a6 3d c6 8c 80 bc
       0.10990223 0.08180178 0.08125484 -0.015692126
000070 c4 a2 b8 3d e5 51 03 bd 6f 92 eb 3c 37 0c f0 3d
       0.0901542 -0.032060523 0.028756348 0.1172108
000080 0b f0 48 3d 8c 66 17 3c 74 18 70 3d ba cf a6 bd
       0.049057048 0.009240758 0.05861707 -0.081450894
000090 51 4b 06 3d 39 c5 29 3d 64 29 0e 3e d3 b2 a6 3d
       0.03278667 0.04144785 0.13882977 0.08139577
0000a0 0e f4 22 3d fd fe dd bb f1 f8 e6 3d 2f 31 8b 3d
       0.03978353 -0.0067747817 0.112779506 0.067964904
0000b0 95 1b 85 bd fa 10 53 3c 42 c8 5f 3d 6f 1f eb bc
       -0.064994015 0.0128824655 0.05463434 -0.028701512
0000c0 d5 e2 df bd a0 06 ec 3c 44 b0 b3 3d a8 9c dc bd
       -0.10931937 0.028811753 0.087738544 -0.10772067
0000d0 91 52 34 bc 41 69 06 3c 77 61 cc 3d 43 96 a3 bd
       -0.0110060135 0.008203805 0.099795274 -0.079876445
0000e0 a6 13 78 bd 46 87 1b bd ac 17 62 bd 9e b3 c0 bc
       -0.060565613 -0.037970804 -0.055198357 -0.023523148
0000f0 ce 3a 02 3e c6 6b ce 3c 7b 0e de 3c b9 b0 d6 3c
       0.12717745 0.025197875 0.027106514 0.026207315
000100 ba 8a c5 3c c2 43 14 bd 33 e5 bf 3d c5 f3 19 be
       0.024114002 -0.03619743 0.09369888 -0.15034397
000110 79 f4 42 bb 09 2c 28 3d 6f 02 7c bd 7b c7 20 3e
       -0.0029747768 0.04105762 -0.06152576 0.15701096
000120 bd 9a 86 bd 43 0d 9e 3b a8 76 31 3e 3e db ae 3d
       -0.06572483 0.0048233583 0.1733042 0.08537911
000130 c2 28 69 3d c3 b4 3a 3e 08 a5 d1 3c ea d3 dc 3c
       0.056923635 0.18233018 0.025591388 0.026956517
000140 00 2a e5 bb 50 8d 6d 3d a2 65 b0 3d 59 e9 a7 bb
       -0.006993532 0.057996094 0.08613135 -0.0051242528
000150 20 96 0a 3e 50 ec be 3d 93 8c 2b bd f1 31 06 3d
       0.1353383 0.09322417 -0.04188211 0.03276247
000160 4a ce 9c 3d 6d 68 fd 3c cd 46 06 3d 97 e4 06 bd
       0.07656534 0.030933583 0.032782365 -0.032932844
000170 99 9c 92 3d 63 1a 30 bc ba 5b da bc 0e dc 5e 3e
       0.07158775 -0.010748479 -0.026655067 0.21763632
000180 2f c5 07 be fb 61 75 3d ea 89 90 3c ab b3 83 3c
       -0.13258813 0.059907895 0.017643888 0.016076883
000190 82 64 ad 3d d5 89 01 3e 7e a0 91 3d 39 5d f2 bd
       0.08466436 0.12650235 0.071106896 -0.11834187
0001a0 ac 06 6b 3d a5 ec 98 bd 55 10 3b 3d 0d 24 91 3d
       0.05737941 -0.07467011 0.045669872 0.07086954
0001b0 1d d9 fc bc 63 31 64 3d e0 5f 81 3d e6 3a 32 3d
       -0.030865246 0.05571116 0.06317115 0.0435132
0001c0 c8 6c 77 be 9e e0 95 3d 51 25 ff bc 6a 39 26 3c
       -0.2416259 0.07318233 -0.031145724 0.0101455245
0001d0 78 41 a6 3d bc ad a6 bd e5 9c da 3d 4c 2c 99 3d
       0.08117956 -0.08138606 0.106744565 0.07479152
0001e0 a8 52 19 3e 33 bd 94 3d 59 d1 2f bd 7c ec c8 3d
       0.14972937 0.072626494 -0.04292426 0.09810731
0001f0 c5 50 cb bd cf 18 a4 bd 8a 4f aa 3d ff 6d c1 3d
       -0.09927515 -0.08012544 0.08315952 0.09444808
000200 27 9c 15 be b0 85 ae bd ac e1 91 bd 61 a0 bd bd
       -0.14610349 -0.085215926 -0.071231216 -0.092591055
000210 b2 b8 ca bd e3 0e 15 be 65 b6 0f bc 14 5f 0a be
       -0.09898509 -0.1455646 -0.008771514 -0.13512832
000220 95 c6 32 bd 18 04 49 bd 11 58 86 bd ae 22 b7 bd
       -0.043646414 -0.04907617 -0.06559766 -0.089421615
000230 a5 4c 43 bd 30 26 4b 3d 83 e9 c8 3d c6 c5 53 3e
       -0.047680516 0.049596965 0.09810164 0.20680913
000240 12 88 a6 bd 12 34 f0 bd 56 0f 11 be 02 7a 26 be
       -0.08131422 -0.117286816 -0.14166006 -0.1625748
000250 3c b5 2f bd 88 2f 9f 3d b4 dd cd bd 5c 64 cf bd
       -0.042897448 0.07772738 -0.10052052 -0.10126564
000260 ef d3 5e be fb 2f 61 be 41 9c f7 bc 53 d2 32 3e
       -0.21760534 -0.2199096 -0.030225875 0.17463045
000270 30 5d 59 bd 0e 11 ac bd 24 34 a3 bd a9 4d 85 bd
       -0.053067386 -0.084016904 -0.079689294 -0.06508953
000280 cd e8 e6 bd 41 a7 b2 3d d9 61 d9 bd 96 f6 e9 bd
       -0.11274872 0.087233074 -0.10614366 -0.11423986
000290 73 32 5f bd 57 48 11 be f3 1e 63 be a4 f6 c9 bc
       -0.05449147 -0.14187752 -0.22179775 -0.02465374
0002a0 ac 60 13 be d4 bb 5b bc 6b 4e f4 bd c5 a4 ec bd
       -0.14392346 -0.013411481 -0.119290195 -0.11554865
0002b0 d1 57 82 3e 86 53 ad 3d b9 5a 26 bd 09 b2 1a 3e
       0.25457624 0.084631965 -0.040613864 0.15106978
0002c0 27 b3 09 3e b6 94 23 be 26 45 08 be 7e a2 e4 bd
       0.13447247 -0.15974697 -0.13307628 -0.111638054
0002d0 ee 1e 08 bb 0d f5 05 bc 10 85 db bd 1c 4a b6 3d
       -0.0020770389 -0.0081761 -0.10718739 0.08900854
0002e0 25 ea ec bd aa e3 3b be 74 5f 93 bd dd 48 40 3d
       -0.11568097 -0.18348566 -0.071959406 0.046944488
0002f0 7f a7 68 be 7f dd be bd c0 13 10 be 17 f2 32 bd
       -0.22720145 -0.09319591 -0.14070034 -0.043687906
000300 02 b8 cf bd a9 2c eb 3c 9f c4 2e be b4 a8 4e 3e
       -0.101425186 0.028707819 -0.17067192 0.20181543
000310 a3 5a 13 bd 9b 65 87 bd 1c c7 59 be 9b 94 3e be
       -0.03597511 -0.066111766 -0.2126736 -0.18611376
000320 ba 05 5e 3d a4 be 06 bd f6 67 22 3d 4a 09 90 be
       0.05420468 -0.032896653 0.039649926 -0.28132087
000330 d8 70 8c bd 63 53 de b8 a9 46 9d bd 22 ae ee bd
       -0.06857461 -0.00010601317 -0.07679493 -0.11654307
000340 46 6b 76 3d 0c 89 d1 bd 80 36 2c be 16 93 e2 3d
       0.060160898 -0.10231218 -0.16817665 0.11063211
000350 d0 ab 17 bd 79 de 5c be 93 22 23 be 33 c9 85 bd
       -0.037029088 -0.21569242 -0.15931158 -0.06532516
000360 f0 e6 45 3d cb 02 64 3d df 31 34 3c f1 7a ce 3d
       0.048315942 0.055666726 0.010998218 0.10082043
000370 c3 20 3d 3d 22 17 8e bc f2 e0 8b bd 3a eb ba 3b
       0.046173822 -0.017345015 -0.06830014 0.0057043107
000380 bb 25 73 3e 42 e8 d1 bd 86 7b ec bd 26 d5 7e bd
       0.23744862 -0.10249378 -0.11546998 -0.062214993
000390 3d 1f 3e bd 1c 24 f2 bd a6 91 2e be 57 87 f6 3d
       -0.04641651 -0.118232936 -0.17047748 0.12037533
0003a0 a4 f6 1c be a5 e1 f7 bc bb 64 48 be c6 de 33 be
       -0.15328461 -0.030258963 -0.19569676 -0.1756545
0003b0 1c b5 75 bd 11 87 d5 bd 4c fb 03 be 0b 2e ab bd
       -0.059987172 -0.104261525 -0.12888831 -0.083583914
0003c0 42 cf 9e 3e e1 3f b4 bd 97 c2 99 3d d7 ac 9f bd
       0.310175 -0.088012464 0.07507818 -0.077966385
0003d0 80 21 72 bd 7d ac b0 bd 50 f9 04 be 43 15 18 be
       -0.05911398 -0.086266495 -0.1298573 -0.1485186
0003e0 8f c0 60 bd df 07 76 bd f4 0d f8 3d ee 96 07 be
       -0.05487114 -0.0600661 0.12112036 -0.13241169
0003f0 73 66 fb bd bc 92 6d bd 6f e7 71 bd d3 a4 c1 bd
       -0.122754 -0.058001265 -0.059058603 -0.09455266

action_model._discrete_distribution.branches.0.bias f4 [3]
000000 c1 0f ff bd 2b 9b 2a 3e 08 f9 2f bd
       -0.12454177 0.16660754 -0.042962104

action_model._discrete_distribution.branches.1.weight f4 [4, 128]
000000 30 df e2 bc 60 06 0f 3d f3 5e 1c 3d 83 ef ae 3d
       -0.027694315 0.03491819 0.038176488 0.08541777
000010 30 47 21 bd fc 02 ea 3c 0a bb 31 3d d6 bb 20 3c
       -0.03937453 0.028565876 0.043391265 0.009810409
000020 ba b1 0b bd a3 b7 bb 3d 84 a9 40 bc 2c b5 e8 3c
       -0.03410504 0.09165885 -0.011759166 0.028406702
000030 13 9d d5 3b dc c7 c5 3d b9 6e 32 3c 1b 00 c5 bd
       0.006518969 0.09657261 0.010890656 -0.09619161
000040 25 ad fd bc 46 4d c3 3c 67 36 5c 3d 19 cc fe bc
       -0.03096635 0.023840558 0.05376282 -0.03110318
000050 c5 c2 90 bb a6 bb 56 3d 37 a1 8b 3d 59 8d 52 3d
       -0.0044177496 0.05242505 0.06817859 0.05140433
000060 4d a9 fe 3c 08 60 db bb 64 f0 cb ba 29 6d 8e 3a
       0.031086588 -0.0066947974 -0.0015559313 0.0010866272
000070 c7 93 37 3d 53 9b 9b 3d a8 b6 8a bd 98 c2 b0 bc
       0.044818666 0.07597985 -0.0677312 -0.021577165
000080 94 7c a4 3d eb 0d f6 bd c5 f7 b4 3d 81 d5 9c 3c
       0.08031574 -0.120143734 0.08836321 0.019144775
000090 ec f1 1d bd 59 42 de bb f5 2e 39 3d 52 ca 2d 3d
       -0.038560793 -0.0067828116 0.045210797 0.042429276
0000a0 53 95 9c 3c d9 3e 4a 3c 41 0a a0 3b eb 8b 98 bd
       0.019114172 0.012344086 0.004884035 -0.07448562
0000b0 9f 07 35 3c d5 cf 9a bd 3c 5f 8a bd e2 60 85 3d
       0.01104918 -0.07559172 -0.06756446 0.065126196
0000c0 8c dc 03 bc a4 a1 92 bd 8b 9f fa 3b cd 16 62 3d
       -0.008048188 -0.07159737 0.0076484135 0.055197526
0000d0 1f 4a 90 3c 63 a4 16 3b f1 a3 2d 3d 72 e1 04 bd
       0.017613469 0.0022986166 0.042392675 -0.032441564
0000e0 cc 65 c4 3c 2c 48 07 3d fa 5b 8a bd ff f5 a3 3c
       0.023974322 0.033027813 -0.067558244 0.020014761
0000f0 96 92 42 3d 94 3c b9 bc 2c a6 2a bd 86 c0 8a 3d
       0.047503076 -0.022611894 -0.04166238 0.06775002
000100 19 45 63 3d 4b f2 af 3d 6e 06 fc 3c e3 02 8e 3c
       0.05548582 0.085911356 0.030764785 0.01733536
000110 53 23 ca 3d ce 2a 7b 3d 56 4c 16 3d ce 32 9c bc
       0.09870019 0.06132012 0.036693893 -0.019067194
000120 25 18 73 bd 1a 50 4e 3d af 6e 29 bb 80 a6 01 3d
       -0.059349198 0.05036936 -0.0025853326 0.031652927
000130 5e a7 76 ba 60 4c 96 3c 28 61 ae 3b 5a b8 bf 3d
       -0.0009409095 0.018346965 0.0053216405 0.09361334
000140 28 43 32 bd 6e 67 30 3d 8b e9 16 3d 20 71 05 bd
       -0.043521076 0.04306739 0.036843818 -0.032578588
000150 86 2e b1 3c 31 75 f3 3b a5 18 eb 3c bb da 00 3d
       0.02162863 0.007429742 0.028698275 0.031458598
000160 98 87 01 3d 17 12 e8 bb 27 cd a6 3d df 78 45 bb
       0.031623453 -0.0070822346 0.081445985 -0.003013186
000170 5e d4 95 3d 78 66 a4 3c 7e 2a 8d bc 6d 1e ab bd
       0.073158965 0.020068392 -0.017232176 -0.08355413
000180 e0 6b 1f bc e9 8a e6 bc 98 34 02 3b d0 61 89 bd
       -0.009730309 -0.02814241 0.0019867774 -0.067081094
000190 86 1a 92 3d 5e ab 51 3d 7e 0b 27 3d a2 1d bc 3c
       0.07133965 0.05118882 0.040782444 0.022963349
0001a0 9b ad 03 3d 9e 97 ca 3c d6 78 73 3d a7 a9 3b 3d
       0.032147985 0.0247305 0.05944141 0.04581609
0001b0 6b 89 37 bc cb 46 ca 3c 9d f5 2a bd 68 a2 4b 3c
       -0.011202197 0.02469196 -0.04173814 0.012428857
0001c0 7c 3b e0 bc fc 54 b7 3d 89 37 b8 3d f6 87 9e bc
       -0.027372114 0.08951756 0.089949675 -0.01935194
0001d0 dc e2 c5 3c 21 18 87 bc 98 bb f3 3c 26 c4 51 bd
       0.024156027 -0.016490998 0.029752538 -0.051212452
0001e0 f3 76 26 bb bb 02 20 3d be 4d a8 3c 8b 2e 92 3c
       -0.002540049 0.039065104 0.020544883 0.017844459
0001f0 b8 40 8d bd f2 50 fb 3d be e6 9f bb ef 15 6f 3d
       -0.0689711 0.122712985 -0.0048798015 0.058370527
000200 be 45 fc bb 91 0e 63 bc 9b 6a 01 bc a8 35 01 be
       -0.0076987436 -0.013858453 -0.007898952 -0.12618124
000210 0c fa d4 bc 01 fb 49 bd 8e b1 0f 3d f2 2d 2d bd
       -0.025998138 -0.04931164 0.03508144 -0.042280145
000220 c6 85 5a bd 0b 9c 34 3d 0d 9c 17 3c d7 a8 34 be
       -0.053350233 0.044094127 0.009253514 -0.17642532
000230 8e 36 b8 bd 20 84 70 3c d1 78 9a 3c 36 9e 3d bd
       -0.089947805 0.014679939 0.018856438 -0.04629346
000240 06 4b 6f bc 57 69 8d bd 69 29 47 bd 86 c2 ab bd
       -0.014605289 -0.069048576 -0.048623476 -0.08386712
000250 f7 2b b7 3c 5e 67 e0 bc 2b c1 a1 bd 71 e4 3a bc
       0.022359831 -0.02739304 -0.07898172 -0.011407004
000260 47 9a 8b bd de 67 00 3d 20 ac 27 bd b8 d7 ab bc
       -0.068165354 0.031349055 -0.040935636 -0.020976886
000270 e3 66 37 bc 33 39 28 3c ee 91 b7 bd ee 23 8b bd
       -0.011193964 0.010267544 -0.08963381 -0.067939624
000280 e6 e3 e8 bd 72 b9 75 3d 10 eb 0a bd 70 86 ab bd
       -0.11371593 0.059991308 -0.03391558 -0.08375251
000290 18 ee 57 3d cf 22 6a bd 2a e7 2a bd b8 b6 08 bd
       0.0527173 -0.057162102 -0.04172436 -0.03337738
0002a0 2f db 82 3c 5e 98 b8 3d 1a ec 42 bd ea aa 41 3d
       0.015973656 0.09013437 -0.047588445 0.047282137
0002b0 3b 7f 03 3d de bc b2 3d f9 60 97 3d 76 bd cf bd
       0.03210376 0.0872743 0.07391543 -0.10143559
0002c0 9e 64 2e bd 3e fa 81 3c 45 54 7e 3a 8b 32 45 be
       -0.042576425 0.015866395 0.0009701888 -0.19257562
0002d0 ab 61 fb ba c0 53 37 bd 53 7a 60 bd 74 4d c4 3c
       -0.0019178888 -0.044757605 -0.054804157 0.023962714
0002e0 f5 4e 07 be b1 f6 af bd 23 ed 9b bc 2c e2 d2 bc
       -0.13213713 -0.085919745 -0.019033974 -0.025742613
0002f0 8c 57 01 bd 1f c7 68 3d b9 ab 17 be f7 4e 20 3b
       -0.03157763 0.05683052 -0.148116 0.002446113
000300 e6 85 18 bd f9 48 73 bd a3 4e 8f bd 3d 68 82 bd
       -0.03723707 -0.059395764 -0.06997421 -0.06367538
000310 5a 6a 35 bd 1f 86 71 bd 42 c5 2f bd 73 a5 b4 bc
       -0.044290878 -0.0589658 -0.04291273 -0.022051549
000320 16 f1 99 bd 55 54 67 bc 53 83 89 bd 0e 20 bf bd
       -0.075166866 -0.014119227 -0.06714501 -0.09332286
000330 dc 53 31 bd d8 50 33 bd 9d 60 c8 3c 4f ed 87 bd
       -0.043292865 -0.04377827 0.024460131 -0.0663706
000340 83 c4 03 be d6 9d 7b bd b8 73 f3 bc 6d 9d 99 bb
       -0.12867932 -0.06142982 -0.029718265 -0.004687956
000350 60 77 a2 bc 0d 22 17 bd 3a 65 da bd ea 68 22 3a
       -0.019832313 -0.036897708 -0.10663839 0.0006195443
000360 cc 2d ea bb a0 12 67 3d 53 85 f7 3c bb f8 15 bd
       -0.0071465727 0.056414247 0.030214941 -0.03661416
000370 84 0d 8b 3c 2e 84 fa 3c d3 95 f0 bb 3e 16 2f bd
       0.016974218 0.030580606 -0.007342079 -0.04274582
000380 43 51 e4 3d d1 f6 64 bd 36 22 a7 bd 8f 24 84 3d
       0.11148312 -0.055899445 -0.08160822 0.064522855
000390 16 14 7c bd d8 46 ed bc 3a 6f 8c bd e8 8a ac bc
       -0.061542593 -0.028964445 -0.06857152 -0.02106233
0003a0 7e 69 7f bc 5a 6b 34 be 6d f1 bb bd 25 57 5c 3c
       -0.015589116 -0.17619076 -0.09176908 0.013448511
0003b0 fd dd 47 bc 7b 44 2d bd bb 7e a3 3d a4 15 26 bd
       -0.012198922 -0.042301636 0.07983156 -0.04054798
0003c0 fe b4 d3 3d 40 c4 41 bc 35 51 39 bd 93 89 08 be
       0.10337256 -0.011826575 -0.04524346 -0.1333373
0003d0 de e9 dd bc ed ea 8f bd 21 7a fd bc 69 14 76 3b
       -0.027089056 -0.070272304 -0.030942025 0.0037548786
0003e0 b5 84 55 3c 84 73 4b 3d 0c fc 18 3d 4c 44 ad bc
       0.013032128 0.04967071 0.037349746 -0.02115073
0003f0 f9 da 8e 3a 15 49 5d 3c 99 ff d5 bc 9b 51 b7 bd
       0.0010898999 0.013506194 -0.026122855 -0.08951112

action_model._discrete_distribution.branches.1.bias f4 [4]
000000 0d 7b 01 bb b1 74 7e 3c 18 4e 40 bd c1 36 04 3d
       -0.0019757182 0.015530751 -0.046949476 0.03227878
