Assets/NNModels/AiAgents-500021.onnx (onnx, 79410 bytes, 9 tensors)

discrete_act_size_vector f4 [1, 2]
00000000: 0000 4040 0000 a040
3.0 5.0

network_body._body_endoder.seq_layers.0.weight f4 [128, 3]
00000000: e831 a73e 42aa f3be 5ae0 a7be c6f1 2e3f
00000010: 3486 80bd 8115 0dbf 7cb5 793f a99b 4bbf
00000020: d448 3b3d e1c2 9d3d 4e20 333f 6651 883e
00000030: 19d6 3fbf aff3 a43f 7282 b53d cc95 3e3e
00000040: ac69 f13d 6658 d5bc f171 f53d 43d3 ab3f
00000050: b194 b5bd fc9a c5be fccb 3c3f c9cd a9be
00000060: 8bac 70bf fe9d 31bf 1f81 9dbf 70d5 153f
00000070: beb4 3e3f 61e2 b7bf a022 573e 2e69 f03e
00000080: a000 0fbf 439d b03e a83a af3e caeb a4be
00000090: 75c9 0abc 8a6c 1bbf f004 81be 7bab 2a3e
000000a0: fa7e cabe f974 d7be 4983 b43e aebb 213d
000000b0: 2412 dc3e 00cc 18be 0a5a 233f a7e0 723f
000000c0: 9291 80bf 1ef8 d33e b97e 20bc ae4a 943e
000000d0: 3cd9 8bbf 4869 8a3f 60c7 c23e 34e3 813f
000000e0: 74bf abbe 9f61 413f 744d d5bd 1737 253f
000000f0: 124b 52bf 739f e7be 5dfd 303f 7670 063f
00000100: 3483 a23f 45eb bd3e 0e3f 5d3e 83fd b9bd
00000110: 6bcf 0fbf f34c 983f d0b4 03be 8fca 24bf
00000120: 703a 093e cccc b13e 4960 fdbe c96c 11be
00000130: 27e5 e3be 54c1 a53f c348 aabc 28d9 963d
00000140: b9aa 4b3f 7648 8dbe 9454 e33d d103 a23e
00000150: ade4 a6be cba7 1b3f a0db e53e 53d9 debe
00000160: b231 50be cc6e ecbd 9de2 05bf 5fad 073f
00000170: 15c4 883f 6c08 cf3d e848 e43e e777 5c3f
00000180: 7851 4ebe 5147 a9b9 7f79 50bf 5dd2 33bf
00000190: 28b7 92bf 6059 443f bc5b 8b3e 443b b3be
000001a0: 0600 883f 4206 adbe d302 c8bd 1c16 2cbf
000001b0: bea9 8e3e f3bd c23e f688 853f e9c1 af3e
000001c0: d4c4 853e 8555 96be 54d8 23bf 13be c4be
000001d0: 94b5 59bf db93 8fbe 8a32 f2be 31d8 08bf
000001e0: 1786 d8be 9cc2 cabe 3edf bfbe 603d 7fbe
000001f0: 3911 f9be f4b3 08bf 0df5 543e 992a 913f
00000200: aac2 37be 8d3b df3e 0c01 e13e af38 96be
00000210: bc3b 14bf 5e86 963f f728 a5be ef32 833e
00000220: 2102 ae3e eb2d 88bf 7afe 37bf 75ed f73e
00000230: c7b4 88be f811 043f 5fa4 923f 4922 82bc
00000240: a6a2 5a3f 7b49 debe faac 90bf a470 bfbe
00000250: c3c2 193f 11fb 013f fbb0 163f af48 12bf
00000260: 61bc 743d 2734 77bd 533f 5d3f 700e 9b3d
00000270: f85e ecbe 3633 20bd 2811 1fbd 34f7 8e3c
00000280: ca6b a83f ec5c fc3c b93b d33e d4a4 283d
00000290: 59c0 193f 33ac 203e 11e0 943f eefc 713e
000002a0: be6b a4be c3ee bb3e 1937 b0be fd4d b73e
000002b0: ae16 1fbf ff47 c33e c683 83be 9822 1c3e
000002c0: f1db 603f 0e80 9d3e 2dd4 4d3f 9b0c 9a3e
000002d0: a13d ad3e 6613 183e cbbf 43be 65c2 27be
000002e0: efed 9bbe 9c3c 923e ea18 093f 8b4f 443f
000002f0: 69f1 8b3e dc87 aebe 5f42 2a3d 39d3 f83e
00000300: b883 4c3f 9f27 f33e 856e 69be ed54 463e
00000310: 3a67 2e3f d940 993e 8539 d4bc a24f b83e
00000320: 8a01 ea3e 4444 983e 9441 a1bf d096 253f
00000330: b22a ed3e 44a3 453e bce3 97bc f035 14bf
00000340: ff15 a63e 45bf eebe d2e6 413e 3925 5c3f
00000350: c4c0 26be 2911 5d3f fc3a cebe 2dfd 873e
00000360: 7886 c83d 3de2 4fbf 9bf0 bdbe c4c7 4e3f
00000370: 7be6 8fbf 7e4f f63e 6a47 55be 28be 2c3f
00000380: e223 12bf a5ba 863e 7ce3 68be 0aea a7bd
00000390: cacc c1be d179 3fbe e43c 26bf 26ed 323e
000003a0: 07ed 92be 7b2e 733f 4b27 65be 8416 493f
000003b0: 9c14 8b3e 64aa 9c3e 6549 723e ab67 34be
000003c0: b42d d33e bb29 1bbe d634 2d3f 45d2 8c3f
000003d0: 18ef adbe af16 e8be 9336 aebe 95a9 1a3f
000003e0: a795 d3bc 111e e6bd 03bf 473e 1396 10be
000003f0: 91a1 f53e bb93 f93d 131f 1e3f 09d0 ad3e
0.32655263 -0.47590834 -0.32788354 0.68337667 -0.06275597 -0.5511094 0.9754255 -0.79534394
0.04572375 0.07703186 0.6997117 0.26624602 -0.7493606 1.2886866 0.08862771 0.1861183
0.117877334 -0.026043128 0.11984623 1.3423847 -0.08866251 -0.38594806 0.73748755 -0.33164814
-0.9401328 -0.693817 -1.230503 0.58528805 0.7449454 -1.436596 0.21009302 0.46955246
-0.5586033 0.3449498 0.3422444 -0.32211143 -0.008470883 -0.6071249 -0.2519908 0.16666977
-0.3955 -0.4208143 0.35256413 0.039485626 0.4298259 -0.1492157 0.63809264 0.9487404
-1.0044425 0.41400236 -0.009795838 0.28963226 -1.092567 1.0813379 0.38042736 1.0147462
-0.33544505 0.7553958 -0.10415164 0.64537185 -0.821458 -0.45238838 0.691366 0.5251535
1.269629 0.3709356 0.21606085 -0.09081557 -0.5617587 1.1898483 -0.12861943 -0.6437158
0.13401198 0.3472656 -0.49487522 -0.14201654 -0.44510767 1.2949624 -0.020786649 0.07365638
0.7955738 -0.27594346 0.11100116 0.31643537 -0.3259634 0.60802907 0.44894123 -0.4352518
-0.20331457 -0.1154457 -0.5229891 0.5299892 1.068484 0.10109028 0.44586873 0.86120456
-0.20148265 -0.00032287327 -0.8143539 -0.70242864 -1.1462145 0.76698875 0.27218425 -0.35006154
1.0625007 -0.33793837 -0.09766164 -0.67221236 0.27863878 0.38035545 1.0432422 0.3432763
0.2612673 -0.2936212 -0.64001966 -0.38426265 -0.8504269 -0.28042492 -0.47304183 -0.5345488
-0.42289802 -0.396016 -0.37475008 -0.24925756 -0.48645952 -0.53399587 0.20796604 1.1341125
-0.17945352 0.4360012 0.4394611 -0.2934012 -0.5790365 1.1759756 -0.32257816 0.25624797
0.33986 -1.0639013 -0.71872675 0.48423353 -0.26700422 0.5158992 1.1456412 -0.015885489
0.8540443 -0.43415436 -1.1302788 -0.37390625 0.6006281 0.5077372 0.588638 -0.57142156
0.059749965 -0.06035247 0.8642475 0.07571113 -0.46166205 -0.03911134 -0.03883472 0.01745186
1.3157895 0.030806027 0.41256502 0.041172817 0.60059124 0.15690689 1.163088 0.23631641
-0.3211345 0.36705598 -0.34417036 0.35801688 -0.6214398 0.38140866 -0.25686473 0.15247571
0.87835604 0.3076176 0.8040188 0.30087742 0.33836082 0.1485115 -0.19116132 -0.1638275
-0.30454966 0.28561866 0.5355364 0.7668387 0.2733262 -0.34088027 0.041567203 0.4859865
0.79888487 0.47491166 -0.22796066 0.19368334 0.6812626 0.29932287 -0.025906334 0.35998255
0.457043 0.29739583 -1.2598138 0.64683247 0.46321636 0.19300562 -0.01854121 -0.578948
0.32438657 -0.46630302 0.18935707 0.859943 -0.16284472 0.8635431 -0.40279377 0.26560345
0.09791273 -0.8120459 -0.3709763 0.8077357 -1.1242212 0.48107523 -0.20828024 0.67477655
-0.57086 0.26314273 -0.22743028 -0.08198936 -0.37851554 -0.18698813 -0.6493666 0.17473277
-0.28696463 0.949928 -0.2237827 0.7854998 0.2716416 0.30598748 0.2366081 -0.17617671
0.41245806 -0.15152638 0.67658746 1.1001669 -0.33971477 -0.45329806 -0.34026012 0.6041501
-0.025828196 -0.112362035 0.19506459 -0.14119749 0.47974828 0.121863805 0.61766165 0.3394778

network_body._body_endoder.seq_layers.0.bias f4 [128]
00000000: 28fa 053d a480 cbbd 900a 333d bf1f 033d
00000010: ff58 103d 8751 41bd 80f4 563d c73c 813a
00000020: 11a0 0f3d bbc5 00bd 3fae 94bc a8da 9d3d
00000030: 7e9a 1fbc 8be7 483d 81f0 4e3c de88 09bd
00000040: cd46 f03d 15bd 61bc 2671 2f3d 5163 bd3d
00000050: 3cd6 9e3d 7adb c93c f9a1 cc3d de62 5c3d
00000060: 3a32 1dbd 3a36 bebb 7e4a 403c f006 28bc
00000070: c319 fabd cdf1 873c 66a6 05be 912c 4cbd
00000080: b188 113e fff7 24bd dfe1 2dbd 6a50 8b3d
00000090: d430 85bc 09da 0f3d abfa b2bd 5deb 08bd
000000a0: 1168 cf3c 406c 603d 4057 8d3d ce6a 5b3d
000000b0: fe47 eb3d cbe3 b73d f19f af3c fe45 043e
000000c0: bf9b b2bd fd38 8c3a 09a9 953d a411 c73d
000000d0: 484f 4f3d b1c4 be3c 3d44 0d3d c429 14bd
000000e0: d7d9 5b3d 51b9 313d cc63 ec3c 8269 ff3c
000000f0: d9f3 4cbd 7c8a d03c 5d9b 8abc d707 eabd
00000100: e1b5 22bc 3275 173d b8a3 e4bb 9c85 75bd
00000110: 17cc 8b3d 1b2c 203d 33a8 dd3d a026 ff3d
00000120: 949e de3d 8a19 8f3d d68d acbc 1c89 743c
00000130: d2c2 2c3d 08ee c63b 8f26 33bd e5c6 a13d
00000140: 7ca0 4bbd 3b71 fabb 0424 b73d b963 943c
00000150: 8a06 63bd a8f7 5c3d 6ea4 b8bd 0e69 98bd
00000160: 2e6c e5bc b1b1 d73c 4b41 113e 3565 b23c
00000170: 96e6 dabc 6478 22bd 859a ba3d 26fb 94bd
00000180: 2c43 f43c 62e3 233d 8f88 ecbd bc69 fabc
00000190: ea23 783b 665d e3bc e79d a83d 8e7d 603d
000001a0: 6d00 b83d 2c91 e1bc 4d96 12bc 4b7e 05bd
000001b0: 848c 8fbc e440 9cbd 532b ab3c c8bb 223e
000001c0: 6712 323e bf57 473d c255 7cbd 1d8f 783c
000001d0: e6c6 93bc 7eff f93c b101 09bd d3c0 8ebd
000001e0: c552 033d 2995 b8bd 8445 213d 1253 77bb
000001f0: 6ae2 c93a ebaf 983c 5e17 033e 80b8 223d
0.03270927 -0.099366456 0.043711245 0.032012697 0.035241123 -0.04719689 0.052479267 0.0009860032
0.03506476 -0.03143857 -0.018149493 0.07707721 -0.009741424 0.04904894 0.012630583 -0.033577792
0.11732254 -0.013777991 0.042832516 0.09247459 0.07755706 0.024640787 0.09991831 0.053805225
-0.038377978 -0.005804804 0.01173651 -0.01025556 -0.12211945 0.016594792 -0.13051757 -0.04984719
0.142123 -0.04027557 -0.042451736 0.06802447 -0.016258635 0.035120044 -0.08739217 -0.033427585
0.025318177 0.054790735 0.06901407 0.053568654 0.11488341 0.08978995 0.02143857 0.12917325
-0.087211125 0.0010698136 0.073076315 0.097201616 0.050612718 0.02328715 0.034488905 -0.036172643
0.053674545 0.043389622 0.02885618 0.03117824 -0.05003724 0.02545666 -0.016919786 -0.114272766
-0.009931059 0.036977 -0.0069775246 -0.059941873 0.068260364 0.039104562 0.10823097 0.12458539
0.1087009 0.06987293 -0.021063726 0.014925268 0.042177983 0.006070856 -0.043737944 0.07899264
-0.049713597 -0.0076428927 0.08942416 0.018113958 -0.055426158 0.05394712 -0.090157375 -0.074419126
-0.028005686 0.026329847 0.14185064 0.021776775 -0.02672128 -0.039665595 0.091115035 -0.07274465
0.029817186 0.04001177 -0.11549484 -0.030567996 0.0037863203 -0.027754497 0.082332425 0.05480724
0.08984456 -0.027535044 -0.008946967 -0.032591145 -0.017523058 -0.076295644 0.020894682 0.15891945
0.17389832 0.048667666 -0.061605223 0.01517084 -0.018039178 0.030517336 -0.03344888 -0.06970372
0.032061357 -0.09012825 0.039372936 -0.0037738723 0.001540256 0.018638572 0.12801883 0.039726734

network_body._body_endoder.seq_layers.2.weight f4 [128, 128]
00000000: 3c98 dabd b95e cebc 1975 bbbd b3cc c8bd
00000010: a0cc 1abc 1ed7 e6bc a5d9 febd e9b9 e7bd
00000020: ab06 fa3c 39c4 683d ef4c 3dbd 981d 62bd
00000030: 3283 e03d 6a6f 503d 3ee9 eebd 256c 4f3e
00000040: 5e96 21be cd81 53bd e928 c3ba d36b fb3d
00000050: 2db4 b93c b7ed 49bd f62c 803d 2b76 2ebe
00000060: fc71 5a3e 39ad 6fbd e418 00bd db98 303d
00000070: b218 ac3d f36c 183d 4fd6 af3d d315 27bc
00000080: f3f6 b7bd 2099 d03c c239 323d 92b7 53bd
00000090: 5d63 a13d 13ec 91bd 38df 8e3c 739f 1dbd
000000a0: 5767 7f3d 4784 1cbd eb63 d1bd f2ef bb3d
000000b0: d0e5 4bbd 720a 3d3c 1edf 82bd f6cc 183e
000000c0: b6f3 52be 4247 ae3d 9c16 b8bd a01f 3abc
000000d0: b88d 433d 67d0 19be 5546 4abd cc71 1c3d
000000e0: 8010 913d 6266 5cbd 3349 7a3b 7c99 0b3e
000000f0: 1ece b7bd a17f 1f3e 0e93 c9bd 394d 6a3d
00000100: dfba 25be 39f9 8cbd ca83 8e3c 8290 043c
00000110: 02d0 5e3c 0f51 35be d785 f7bd 077f d9bd
00000120: 7d70 023d 90d1 32be bb10 f1bd 733d f03d
00000130: fc49 6fbd b8b1 283d 4ccc 8fbc a460 42be
00000140: a3ef 2bbd de52 38be 814e 0a3e 7da8 bc3d
00000150: e69d 07bd c1dc debd 5985 00bd e13f 1f3e
00000160: bc9c 323e c2d7 71bd 14dc ecbc f431 babd
00000170: 2bf3 71bd bad2 883b f081 01bd 5db6 6fbd
00000180: 8048 ccbd 23f7 f73d ddbe 12bd 367c c6bd
00000190: 5e45 943d 5d76 813a d453 01be 7f10 743d
000001a0: d426 f7bd ba32 a0bd f8e4 4ebe a0b9 17bc
000001b0: 26eb 723e aa14 fc3c 24c1 38bc 3af7 15be
000001c0: 68c8 d43a fa1a a63d 10c5 ed3c f738 1f3e
000001d0: 5e1d d63d 5a9d b3bd 4e7d 153d 7483 aabb
000001e0: 1393 89bd d666 85bd 5232 e73d 123c 213c
000001f0: 3c77 663d 9a79 b1bd d90e cf3d 2d13 83bc
00000200: 139f 443c 4a1e dbbd 19b9 71bd 0ec0 643d
00000210: afec d1bc a3c7 b1bb a8a8 eabc 4f04 0e3e
00000220: 49e5 41bd 03d9 0a3d c725 1fbe b50e ce3c
00000230: d0d0 b1be 3403 39be 857d 13bb 96a2 f23c
00000240: 846a 39bc 3114 6c3c aabd edbc ffb7 a5ba
00000250: 75b5 293e d1a8 54be 2420 4cbe cc79 05be
00000260: d03e 69be f819 0ebe b2a1 923d 868a 89bd
00000270: f374 adbc 8931 e03d 1b90 f5bd 7518 01be
00000280: 55bd e3bc b7e5 88bd 04db 83bc b8ce b7bd
00000290: eb8c 413d 7459 7bbd efd2 04be 0138 c0be
000002a0: b82e 2ebe 9609 c8bd da02 96bd 965f b5bd
000002b0: 4dd4 b23b 3988 8abe de23 80bd 4552 b7bd
000002c0: 8a92 8cbe 0e75 023d af8e b13d 7915 543d
000002d0: 72be 30bd bcec b53c 00d5 823d 6490 ca3d
000002e0: 810e 04be 8acc 003d dcfd 333d ebc1 863e
000002f0: 6c6d c7bd 4a8b aabd 6fd0 05be ab90 663d
00000300: 1673 28bd ed06 f23d 96ad adbd 788c 273d
00000310: 7956 933d 886d ec3c db81 0f3e 3d77 f5bc
00000320: 33f2 30be 6f2c ed3d 1ea6 11be 224f 1f3e
00000330: 7ec2 7bbe b187 4c3d 6ef2 e83d eba8 5b3d
00000340: 63d7 fbbd 091b 403d 5d92 2a3d 1340 c6bd
00000350: 83d1 0b3d adfe f2bd 9bd3 383d 0fa3 31be
00000360: ace7 8cbc 78e6 e83c b0ae 2dbe cdf4 66bc
00000370: 75e0 da39 316f 33be d197 94be 5354 c03d
00000380: 3551 03be f40a e1bc d44e bbbc c80d 5cbe
00000390: 2f91 0a3c 0cd2 abbe d27f 103d 076b 68bd
000003a0: 008f 263d 1e43 b2bd 2268 0abd a991 8fbd
000003b0: ebdc 523d e4b7 f4bc 64bc d2bc bf57 703d
000003c0: e7cc da3d d47e 54be 71df 01be 78ae 90be
000003d0: 40d7 d93b 327b eb3d 7858 ecbc cca2 ffbd
000003e0: e2af b9bd 0953 65bd cf69 3cbd b7da 8c3c
000003f0: 7c84 80be 2007 e03d b92b 9fbd 0cb0 7dbd
-0.10673568 -0.025191652 -0.09153194 -0.09804668 -0.0094482 -0.028178748 -0.12443856 -0.113147564
0.030520758 0.056827758 -0.046215948 -0.055204004 0.109625235 0.050887503 -0.11665581 0.20256098
-0.15780017 -0.05163746 -0.0014889512 0.12276425 0.022668922 -0.04929897 0.062585756 -0.17037265
0.21332544 -0.058514807 -0.031273738 0.043114524 0.08403148 0.037213277 0.08585798 -0.010198074
-0.08982649 0.02546364 0.043512113 -0.05168874 0.0788028 -0.07125106 0.017440423 -0.03848214
0.062354412 -0.038212087 -0.10224136 0.09176625 -0.049779713 0.011538135 -0.063902125 0.14921936
-0.20600781 0.08509685 -0.089886874 -0.011360079 0.047742575 -0.15020905 -0.04938348 0.038194463
0.07083225 -0.053808577 0.0038190603 0.13632768 -0.089748606 0.1557603 -0.098425016 0.05720255
-0.16184567 -0.06883473 0.017396826 0.008091094 0.013599398 -0.17706703 -0.12086075 -0.10619932
0.03184556 -0.17462754 -0.11770769 0.117304705 -0.058420166 0.04118511 -0.017553471 -0.18982178
-0.041976582 -0.18000361 0.1350651 0.09211824 -0.033109568 -0.10881949 -0.03137717 0.15551712
0.17442602 -0.059043653 -0.028913535 -0.09091559 -0.059069794 0.004175511 -0.03161806 -0.058523525
-0.09974766 0.121076845 -0.035826553 -0.0969166 0.07239793 0.0009877194 -0.12629634 0.059586044
-0.12067953 -0.07822175 -0.20204532 -0.009260565 0.23722515 0.030771572 -0.011276517 -0.1464509
0.0016234042 0.08110614 0.02902463 0.15549074 0.1045482 -0.08770247 0.036496453 -0.0052036587
-0.06717505 -0.06513755 0.11288895 0.009840982 0.056266055 -0.08665772 0.10110254 -0.016000355
0.012000817 -0.106991366 -0.059014414 0.05584722 -0.025625555 -0.00542541 -0.028644875 0.13868831
-0.047337804 0.033898365 -0.15541755 0.025153497 -0.34729624 -0.18067628 -0.0022505235 0.029618543
-0.011316899 0.014409111 -0.029021103 -0.0012643336 0.16573127 -0.20767523 -0.19934136 -0.13034743
-0.22777867 -0.13877094 0.07159747 -0.067158744 -0.02117393 0.10946948 -0.119903766 -0.12606986
-0.027800241 -0.0668444 -0.016095646 -0.08974975 0.04725353 -0.061364606 -0.1297109 -0.37542728
-0.1701001 -0.09767453 -0.07324763 -0.08856122 0.005457437 -0.27057055 -0.06256841 -0.089512385
-0.2745555 0.031849913 0.08669793 0.05177829 -0.043150373 0.02220761 0.06388283 0.098908216
-0.12896158 0.031445064 0.04394327 0.26319823 -0.097376674 -0.083273485 -0.13067792 0.05629031
-0.04112538 0.11817727 -0.084803745 0.040905446 0.07194228 0.028860822 0.1401438 -0.029964084
-0.17279892 0.11580741 -0.14223525 0.1555753 -0.24585912 0.049934093 0.11374365 0.05362789
-0.12296941 0.046900783 0.04164349 -0.0968019 0.034135353 -0.11864982 0.045123678 -0.17347358
-0.017200314 0.028430209 -0.16961169 -0.014096451 0.00041747434 -0.17522885 -0.29022077 0.093910836
-0.12823947 -0.027471043 -0.022864737 -0.21489632 0.008457466 -0.3355869 0.03527815 -0.056742694
0.04066372 -0.08704208 -0.033790715 -0.07010204 0.051480215 -0.029872842 -0.025724597 0.05867743
0.10683613 -0.20751506 -0.12682892 -0.2825811 0.0066479743 0.11498107 -0.028850779 -0.12482223
-0.0906675 -0.05598739 -0.045999344 0.017194135 -0.25101078 0.10938859 -0.07772011 -0.06193547

network_body._body_endoder.seq_layers.2.bias f4 [128]
00000000: e9df 8cbb 4a72 ac3d aafe 353d 9ad6 87bc
00000010: 4734 2b3d 41b3 bfbc faa0 b03c efde 42bc
00000020: 41f5 aabb ccc6 fabc eeb1 773d 83f9 2b3d
00000030: 8ffb e13d 9ef0 153d dde1 033c f506 c53c
00000040: bf87 193d 96a8 c53b c6c7 0ebd b765 d83d
00000050: 6ae1 8a3c ed7e ab3c fba9 66bb e5f8 e1bb
00000060: b516 9dbb 69c5 5e3c 2f05 033d 143a 7d3d
00000070: 5bd1 6d3c cf99 a53d 1496 b23d 640f 843c
00000080: 0282 503d 8cd4 2fbd daf9 75bd 4fe7 8f3c
00000090: 1fd9 573d 436f 8f3d 14f4 1d3c dff4 2ebd
000000a0: c98a 723d ad95 18bd 27e8 13bd 7600 073c
000000b0: b4a0 cbbc 4eb4 ad3d f12b bebc 6ef1 54bd
000000c0: 1596 9b3d 568a 073c 4103 b23c f9e5 9dbc
000000d0: d399 52bd 6556 b73d 0bba 3e3d e21c f8bc
000000e0: a887 5dbd 6955 c53d d588 863d 8d2e 8b3d
000000f0: 6e12 d43d 38cf 65bd 7b38 c13b 84f7 8b3b
00000100: 6b9c 023e aa4d b4bc 741d 5d3c 2984 31bd
00000110: 54e2 44bc ae86 8ebc 9d01 863d 784f b03d
00000120: d694 cf3c 92b6 f23d f53e 39bc 40d4 8fbb
00000130: 4306 5d3e 9154 3d3d 6568 013d d9b0 1ebd
00000140: c38b 2f3c 1f3d fb3c 1636 92ba 30ee 6b3d
00000150: 6b80 e6bc a3f8 9fbb 5d99 fabc ee93 843c
00000160: 87bb 283e 5e10 9a3d 1b6a 32bc 6269 e83a
00000170: 0848 9a3d 7201 e83d b6f2 4fbd b2a3 edbc
00000180: 8dd3 523d ce64 0e3d 1787 af3d 8dab 11bc
00000190: a580 853d 8f54 0f3d cd26 df3c 258d 763d
000001a0: ce09 173e 0210 73bb 964f 8a3b 183d 4dba
000001b0: f1e2 80bd bf76 c0bb 8b8b 0b3d d4f0 0cbd
000001c0: c34b 5fbd 22b1 163d 65d4 1c3d a39a f9bb
000001d0: ca12 aa3c 7b78 4fbd 0313 1d3c c971 6d3d
000001e0: 0908 813c 0838 843c 3e36 8b3c 3244 663c
000001f0: ad15 0abd 47b7 d3bc f87b 5e3d 4159 af3d
-0.004299153 0.084202364 0.04443232 -0.016581822 0.041797902 -0.023400905 0.021561135 -0.011893972
-0.005217225 -0.030612372 0.06047242 0.041986 0.11034309 0.036606424 0.0080494555 0.024051169
0.037482973 0.00603206 -0.034858488 0.105662756 0.016953189 0.020934546 -0.003519653 -0.0068961256
-0.0047939667 0.013596871 0.031987365 0.061822966 0.014515246 0.08085977 0.087200314 0.01612062
0.050905235 -0.04292731 -0.06005273 0.017566351 0.052697297 0.07003643 0.009640712 -0.042713996
0.059214387 -0.037252117 -0.03611007 0.008239856 -0.024856903 0.08481656 -0.023214312 -0.051988058
0.07596985 0.008272728 0.021730067 -0.019274699 -0.05141623 0.08952025 0.046564143 -0.03028721
-0.05408445 0.09635431 0.065690674 0.06795988 0.10355078 -0.056105822 0.0058966256 0.0042714495
0.12754981 -0.02200969 0.013495792 -0.04333893 -0.012016851 -0.017398205 0.065432765 0.086089075
0.025339525 0.11851229 -0.011306514 -0.004389316 0.2158442 0.046223227 0.0315937 -0.038742874
0.010714474 0.030668793 -0.0011155035 0.0576002 -0.028137406 -0.0048819347 -0.030590707 0.01618382
0.16477786 0.07522653 -0.010889555 0.0017731602 0.0753327 0.11328401 -0.050768577 -0.02900872
0.05147128 0.034764104 0.08570688 -0.008890999 0.065186776 0.03499275 0.027240181 0.0601932
0.14749834 -0.0037088399 0.004220913 -0.0007829233 -0.06293286 -0.0058735306 0.034068625 -0.03440936
-0.05451561 0.03679002 0.038288493 -0.007617311 0.020760912 -0.05065201 0.009587052 0.057969842
0.015750902 0.016139999 0.016993638 0.014054345 -0.033712078 -0.02584423 0.054317445 0.08561946

action_model._discrete_distribution.branches.0.weight f4 [3, 128]
00000000: 78b7 a6bc a98f 3cbd bb2d 2abb ba16 ca3d
00000010: c2a7 713d da6c 373b 00b2 b73b e7a5 a3bc
00000020: 96ad d63c c275 dabc e2f8 ea3a b995 f5bc
00000030: 824f 1fbd dbec b73c 2015 02bd e0f9 51bd
00000040: 2aea 41bd 3e4a ffbb ba3d 683d 2d42 67bd
00000050: 2b25 b43c 5236 483c 100f 7abc 3b74 0abc
00000060: 75eb d1bb ed2a f3bc 0c78 263d 4233 40bd
00000070: cd32 f5bc 76cc d7bb ade7 913b 95ae c5bc
00000080: 2129 543c 0c7a 8a3d 9c61 903d bc2e 703b
00000090: c17b ecbc 2647 07bd 2e1b 933c a987 7c3d
000000a0: 9d21 4cbd 4cd9 9f3b adac 1d3a c52a 83bc
000000b0: 82dc 703c f04c 83bc b19d e13c b946 c23d
000000c0: 9a15 223c 82a6 cfbc 77fc d83d 56c6 bc3d
000000d0: c7a7 0d3d 1e88 713c eb41 09bd c477 b03d
000000e0: 5077 9a3d 27d7 9f3c 1c8d 37bc b33a 0cbb
000000f0: 064e d0bc 31cd 923d 9e6b 01bd 7314 05bd
00000100: 261e 6fbd 0ec4 ddb9 3f3e f33a 88a7 c83d
00000110: 3f2c f1bc 4dd4 993c 94cf b23c 55f2 143c
00000120: 96f0 e53c f543 7dbd 80ba 413c 71e4 8abb
00000130: 2c85 a0bd e439 863c 7b01 93bc 1047 803d
00000140: ae7a 8abc f986 bb3d d412 873d c5d5 31bd
00000150: 6fc2 833d d11c ea3c f966 8b3d 0f83 34bd
00000160: ef9f 95bd 09f6 13bd 6ad5 a0bb bde8 ae3b
00000170: b45d 43bd 21a3 5bbb 298a bf3d 0a00 db3d
00000180: a2e2 093d af32 ae3c 30c1 9bbd 1154 82bc
00000190: 1958 97bd a6fa febc c0c1 0cbd b83c 2a3c
000001a0: 743b 38bd 1925 b53a f5ee b43d a9bf 1b3c
000001b0: e5de a13d bfca 57bc 2a9c 0bbd f7d7 ba3c
000001c0: fb61 a23d 5b4f 453c 1cb0 013c 8b2b b63c
000001d0: 1fc2 14bd 9124 ba3d 9d8b 08bb ea75 173d
000001e0: be11 05bd eb4f 80bc 4d59 213b 63e2 b93b
000001f0: bbb1 bc3c d7c1 d0bc ad67 a83c a102 4f3c
00000200: 4fb2 013c 7ac7 e33b 3a68 55bd 9002 333e
00000210: c33a 31bd 6d99 83bb 1d06 053b 0a08 b43c
00000220: 6379 02bd 3e65 8f3c 52c2 d6bc 7b1f ce3c
00000230: 36c8 d8bc d5d5 e6bc d8f2 083c b43c 043d
00000240: d8a0 0e3c 7c47 003d 4fcd 863d 0afc 0b3e
00000250: 520b e3bc 700c 153d 8fb2 753c c531 013d
00000260: 5bed ae3c cb0f e83b 18ed b13c 5c50 773d
00000270: fec0 e73b ff47 c83d 3ab1 cd3c 10f9 333d
00000280: f519 6d3c 83f3 e13d 3a84 d7bd dbf9 a23c
00000290: 8e54 0ebc 9922 a7bc 8d45 663c c68e 053e
000002a0: ffa9 f73b 06e3 29bc f2b1 803c 49ee bb3c
000002b0: 8bb7 643b b172 5dba 0b39 95bc e300 a5bd
000002c0: 317f 803d 2d5b 843c acac 41bc f51c 043e
000002d0: 6913 b53d aabc a83d b53a d9bc b817 0b3e
000002e0: 7916 febd bc1d d73d 87a6 aa3d da34 1dbd
000002f0: bc7f 0bbd dba7 203e ab3c 803c d2d3 53bc
00000300: 1eff 4abc c11a 7a3c ac55 7c3c bf05 203e
00000310: 0594 0c3b 975e e1bc d526 193d dca0 b13d
00000320: 6553 633a aab1 923d 463b fbba 3f4b 0dbd
00000330: 3618 08be 5d7b 373d caf4 32bc f331 113e
00000340: 2321 9e3a bb49 ef3b 4fc0 753d 98d1 763b
00000350: a54b 9bbd 6765 d13c 406b 563d 8837 feba
00000360: c501 98bd 09de 033d f838 cdbc a64f 533c
00000370: 8003 013d 7886 0c3e fbde 113e 905b e03d
00000380: 2c9c 273d e4e9 153d f84a 5cbc 6320 9239
00000390: 88db 033d b762 163c 758c b13c 233f 633d
000003a0: 7cea 97bd 498a 78ba 8c82 bd3c bbc0 973c
000003b0: 5c67 1d3e 03d9 50bc 538d 1abc 50cb 2a3b
000003c0: 9499 0b3e 01b4 b83c c107 883d 4aca 233c
000003d0: d62e 11bc 8d92 093e b3b6 733c 71f0 413d
000003e0: 8a97 1ebc d8f6 693c 5df2 37bb 69a6 f3bb
000003f0: 6e65 843b bbd3 fcbb edee 763d 7aba c5bc
-0.020351157 -0.046035443 -0.00259672 0.09867616 0.058997877 0.0027988465 0.005605936 -0.01997657
0.02620582 -0.02666748 0.0017926956 -0.02997862 -0.038894184 0.022451809 -0.031758428 -0.05126369
-0.047342457 -0.007790833 0.056699492 -0.056459595 0.02199038 0.012219982 -0.01526238 -0.008450563
-0.0064062425 -0.029683555 0.04064183 -0.046923883 -0.02993145 -0.006585653 0.0044526667 -0.024131099
0.012949259 0.0676156 0.070498675 0.003664895 -0.028867604 -0.033026837 0.017957296 0.061652813
-0.049836744 0.0048781987 0.00060148054 -0.016011605 0.014701011 -0.016027898 0.027541013 0.094861455
0.0098928455 -0.025347952 0.10595029 0.09217517 0.034583833 0.0147419255 -0.03351013 0.086165935
0.07542288 0.019511772 -0.011203077 -0.0021397292 -0.02542783 0.071680434 -0.031596772 -0.032490205
-0.05837836 -0.00042298477 0.001855798 0.09797579 -0.029440043 0.01877799 0.021827497 0.00909098
0.028068822 -0.061832387 0.01182425 -0.004238658 -0.078379005 0.016385026 -0.017945042 0.06263554
-0.016904201 0.09156603 0.06595388 -0.043416757 0.0643357 0.028578194 0.0680675 -0.0440703
-0.073058955 -0.03612331 -0.0049082534 0.005337803 -0.047696784 -0.003351398 0.09352524 0.10693367
0.0336634 0.021264402 -0.07605207 -0.015909227 -0.0738985 -0.031125378 -0.034364462 0.010390453
-0.044978574 0.001382026 0.0883464 0.009506145 0.07903842 -0.013170897 -0.034084477 0.022808058
0.079288445 0.012042846 0.007915523 0.02223756 -0.03631794 0.09089006 -0.002083517 0.036977686
-0.032487623 -0.015663108 0.0024619878 0.0056727394 0.023033967 -0.025483055 0.020557249 0.012634904
0.007916047 0.0069512697 -0.05210135 0.17481446 -0.04326893 -0.0040160925 0.0020297833 0.02197649
-0.031854045 0.01750433 -0.026215706 0.025161495 -0.026462656 -0.028178135 0.00835868 0.032284454
0.00870534 0.031318173 0.06582128 0.13670364 -0.027715359 0.036388814 0.014996185 0.031541605
0.021353414 0.007081961 0.0217195 0.06037937 0.007072567 0.09779357 0.025108922 0.043938696
0.014471521 0.11032774 -0.10523267 0.019894531 -0.008687152 -0.02040224 0.014054668 0.13042745
0.007558107 -0.010369068 0.015709851 0.022940772 0.003489944 -0.00084475713 -0.018215677 -0.0805681
0.0627426 0.016156757 -0.011820953 0.12901671 0.08841593 0.0823911 -0.026517252 0.13583267
-0.1240663 0.10503718 0.08332544 -0.03838048 -0.034057364 0.15689032 0.015653929 -0.01292892
-0.012389926 0.015265168 0.015401285 0.15627192 0.0021450531 -0.027510924 0.03739055 0.086732596
0.00086717895 0.07162793 -0.0019167445 -0.03449559 -0.13290486 0.044795383 -0.01092262 0.1417921
0.0012064319 0.0073024905 0.059997853 0.0037661549 -0.075827874 0.025561048 0.052348375 -0.0019395212
-0.074222125 0.03219417 -0.025051579 0.012897408 0.03149748 0.13723171 0.14245217 0.10954964
0.04092042 0.03660001 -0.013445608 0.0002787142 0.032191783 0.009178809 0.02167342 0.055480134
-0.07417771 -0.00094810553 0.023133539 0.018524518 0.1537146 -0.012747052 -0.009433108 0.0026061125
0.13632804 0.02254677 0.06642104 0.00999696 -0.008861264 0.13434811 0.014875102 0.047348443
-0.009679684 0.014280044 -0.0028068044 -0.007435609 0.0040404117 -0.00771567 0.06028645 -0.02413677

action_model._discrete_distribution.branches.0.bias f4 [3]
00000000: d793 51bc b6ac 60bb 600a 613c
-0.012791595 -0.0034282631 0.013735384

action_model._discrete_distribution.branches.1.weight f4 [5, 128]
00000000: a92b 78bc 7ca1 383c f8ca c33c 9d33 13bc
00000010: 84f2 abbc 13fd 40bc 737b 57bc ec00 24bc
00000020: dcdb 7a3c bb16 b73c a48b 7d3b 04cc 0bbd
00000030: 8bca a73c 8a21 78bc 9c11 7b3c 5b74 893c
00000040: 124a 0a3c 1615 fd3c a939 35bb 7d6c 473c
00000050: 269b ec3c ec61 18ba 58f5 913b 05f9 7cbc
00000060: 7ff0 4b3c c597 e83b 6035 c53c 0e91 233d
00000070: bbee 363d 2a37 fd3c 7eb0 273d b792 adbb
00000080: 96ae e53c c43c b9bc f69a 55bc 1cc0 aabc
00000090: 9ec3 883c 05d5 1d3c cb9f b33c 108b 22bc
000000a0: ef7b 4c3c 8c3c b4bb ceef a93c 00b8 f93c
000000b0: 3956 d83c 392b dd3c 29b2 523c 6296 c2bc
000000c0: 2748 043d 4601 e73c b5f0 1abc b896 c4bc
000000d0: 03bc 713c ecc5 92bc 169a 513c c0ff 8dbc
000000e0: f105 41bc 96b3 e23c eea7 be3b eb6a 053c
000000f0: ea34 023c 1369 67bc 8a79 90bc d29a c4bc
00000100: 05f3 393d 0efd 85bc c1be 5a3c 1369 afbc
00000110: fcf9 8cbc f6f0 ec3c 0d68 073c e92d 6f3c
00000120: 82bf 3b3c 07f3 eabc 1128 e8ba 27dc 083c
00000130: 22e8 103d 1dce caba 9ec8 e23c d8bf 0bbd
00000140: e133 9f3c b839 2d3c 30fc 7e3c 4d03 a23c
00000150: 23af dfbb 8ead 793c 2836 383c c823 f7bc
00000160: ed03 f83c 9a69 bdbc 3017 983c 1669 f93c
00000170: ddcc 4dbc 962b aa3c 2028 603b b269 7cbc
00000180: 5f1d a03c 8f8d 363c adbc e73c abf4 8c3b
00000190: f720 e83c 9249 2d3c d069 9fbc 1b06 d53c
000001a0: 157b d53c c858 81bc eb66 903c bb90 683c
000001b0: 9e6b 52bc 7d2c 9e3b a178 e23c b057 613c
000001c0: 6057 06bd 5ede febb 7326 66bb a7e3 733c
000001d0: dcd9 fc3c be2c eebc 6a3e 033d 7fcb 203d
000001e0: d1be 143c 3bc5 143d 0960 0ebc e266 9dbc
000001f0: 748e 6a3c bdef 42bb 4b3b cc3a c14c 953b
00000200: be3e 083d add5 8abc ed67 42bd 7476 693d
00000210: 36df 9bbc a59c de3c 329b 183d b726 643c
00000220: 0382 34bc 3f56 33bc 8d63 ec3c a815 523d
00000230: 98d7 35bc 87fd 013b 47e2 82bc 3013 9e3b
00000240: 5dda bbbc 51bd 55bc 8dec e43b 6c88 223c
00000250: 7620 9a3b 232f 0cbc decf 323c 5941 bb3b
00000260: 7c0b 4cbc 2a0d 6a3c 5990 6d3c 7eec 78bc
00000270: 1d3e 71bc fe80 12bd 42a6 a03a b0f0 013d
00000280: 7bb5 0dbc dc7c 513d 0f14 d8bb 184f 1d3c
00000290: de33 abbc a38d 5ebc 0780 63bc 531f 443d
000002a0: d004 68bc 0c60 e73c dee9 1fbc 0626 c1bc
000002b0: 52c2 f2bc 9204 803a b2a1 b0bb 1e84 c8bc
000002c0: 4b98 0cbd d114 7bbc b1e1 353c 8592 813d
000002d0: 28e5 b63b d59a fe3c 5aba 62bc 85ff 323d
000002e0: 0813 153c 9f2b e8bc 937c 8d3c 6589 d43b
000002f0: 75e1 92bc f6a5 7d3d fccf b33c ebed 5e3d
00000300: 3a4e 00bd 715b f63c a2f7 c3bb 4c03 223d
00000310: ced0 c23c 3e5c 90bc 76eb 09bd 0d90 9bbc
00000320: 42c0 923c eed0 a93c ee8a fcbc aead 8ebb
00000330: 94d7 febc af99 203c 8457 953b 3add 803d
00000340: ab3f b23c 43f6 293d 11e2 0a3d 93a7 80bc
00000350: 8cfd db3b 4011 05bc 8a13 a0bb de23 383d
00000360: ec76 07bd 24b8 643d 35a2 033c 13cd 18bc
00000370: 50b1 573d 9790 f53a ef21 483d 9b7f 683d
00000380: e544 63bc 051f 0d3c 697e e8bc 1f25 143c
00000390: eda4 f53a 3bee 26bc cdf5 103d 9c5b 03bc
000003a0: 7d01 11bd e705 773c 580f 0b3c b427 103c
000003b0: 4d06 593d da36 3dbc 9c43 09bc d97f a73b
000003c0: 9d99 af3c 6d7c 2d3a bb27 c83b 9d68 c6bc
000003d0: 24ec aebc ec31 9d3c 8f99 e3bc 1e04 8fbc
000003e0: 0aeb f3bb 9fd8 86bc 31a1 113d f1a0 663d
000003f0: 1621 3d3c 8568 823b 4679 19bb 94a8 543c
-0.015147128 0.01126897 0.023900494 -0.0089844735 -0.020989664 -0.011779088 -0.013151991 -0.010009985
0.015311208 0.022349706 0.0038687969 -0.03413011 0.020482322 -0.015144715 0.015324023 0.016779115
0.008440511 0.030893844 -0.0027652776 0.012171862 0.028882574 -0.00058129313 0.004454296 -0.01544023
0.012447475 0.0070981705 0.024073303 0.039933257 0.044661265 0.030910093 0.0409398 -0.005297031
0.02803735 -0.022611983 -0.013037434 -0.020843558 0.01669484 0.009633307 0.021926781 -0.00992085
0.01248072 -0.005500382 0.02074423 0.030483246 0.026408302 0.02699815 0.0128598595 -0.023753349
0.032295372 0.02819885 -0.009456803 -0.02399765 0.014754298 -0.017916642 0.012793085 -0.017333865
-0.011781202 0.027673524 0.0058183586 0.008143167 0.007947186 -0.014124173 -0.01763608 -0.023999605
0.045397777 -0.016356017 0.013351143 -0.021412408 -0.017209046 0.028923493 0.008264554 0.014598348
0.011459233 -0.028680338 -0.0017712136 0.00835327 0.03537763 -0.0015472803 0.027683552 -0.034118503
0.019433917 0.010572843 0.015563056 0.019776965 -0.006826298 0.015239133 0.011243381 -0.030168429
0.03027531 -0.023121644 0.018565744 0.030445617 -0.01256105 0.020772737 0.0034203604 -0.015406059
0.019545255 0.011142149 0.02828821 0.0043016276 0.028336031 0.010576623 -0.019459635 0.026003888
0.026059667 -0.015789405 0.0176272 0.014194663 -0.012843041 0.0048270808 0.027645411 0.0137538165
-0.03279817 -0.007777973 -0.0035118132 0.0148858195 0.030865602 -0.02907407 0.032041945 0.03925657
0.009078697 0.036320906 -0.008689889 -0.019214097 0.01431619 -0.0029744946 0.0015581636 0.004556269
0.03326296 -0.016947592 -0.047462393 0.05699773 -0.019027334 0.027174303 0.03725738 0.013925246
-0.011017325 -0.010945856 0.028856063 0.051290184 -0.011098765 0.0019834952 -0.015977038 0.0048240647
-0.022931272 -0.013045625 0.006986207 0.009920221 0.0047035767 -0.00855616 0.010913817 0.005714577
-0.01245391 0.014285365 0.014499747 -0.015193103 -0.014724282 -0.035767548 0.001225658 0.031723678
-0.008649225 0.051144466 -0.006594188 0.009601377 -0.020898756 -0.0135835735 -0.013885505 0.047881436
-0.014161304 0.02824404 -0.009760348 -0.023577701 -0.029633675 0.0009766987 -0.0053903693 -0.02447706
-0.034324925 -0.015324787 0.011101172 0.063267745 0.005581517 0.031079689 -0.013838375 0.043700714
0.009098776 -0.028341113 0.017271316 0.0064861053 -0.017929772 0.06192585 0.02194976 0.054426115
-0.031324603 0.0300729 -0.005980448 0.039553925 0.023781206 -0.01762211 -0.03367182 -0.018989587
0.017913941 0.020729508 -0.030827966 -0.0043542003 -0.031108655 0.009802266 0.004557552 0.062921956
0.021758875 0.04149462 0.033907 -0.015704906 0.0067135748 -0.0081217885 -0.0048851417 0.04495608
-0.033072397 0.055839673 0.008034279 -0.009326237 0.052659333 0.0018735108 0.048860487 0.05676232
-0.013871406 0.008613353 -0.02838059 0.0090420535 0.0018741168 -0.0101886345 0.035390664 -0.008017447
-0.03540181 0.015077091 0.008487545 0.008798528 0.052984525 -0.011548722 -0.008377936 0.005111676
0.021435553 0.0006617967 0.006108252 -0.024219805 -0.021352835 0.019188844 -0.027783183 -0.017458018
-0.0074437903 -0.016460715 0.035554115 0.05630583 0.011543533 0.003979745 -0.0023418232 0.012979645

action_model._discrete_distribution.branches.1.bias f4 [5]
00000000: d718 9fbc 7530 213d fcb7 8e3a c315 223c
00000010: b2c5 8cbd
-0.019421024 0.039352853 0.0010888572 0.009892884 -0.06873645
