Assets/NNModels/AiAgents-78940.onnx (onnx, 73555 bytes, 6 tensors)

network_body._body_endoder.seq_layers.0.weight f4 [128, 1]
0	0x3f4159d2	0.7552768
1	0xbf8aa8e9	-1.0832797
2	0xbee5d9e3	-0.44892797
3	0x3f61d049	0.8820844
4	0x3fa4102a	1.2817433
5	0xbfaab7f1	-1.3337384
6	0xbec4d54f	-0.38443992
7	0xbea50d5c	-0.32236755
8	0x3f858f7a	1.043441
9	0x3e5b5d75	0.2142237
10	0x3f92cf2c	1.1469474
11	0x3ed949b0	0.42439032
12	0x3f4c9323	0.7991201
13	0x3c01c895	0.007921358
14	0x3e8ae9c1	0.27131465
15	0xbf29440c	-0.66119456
16	0xbfb66088	-1.4248209
17	0x3e0fc4f0	0.1403997
18	0xbe4ac6a5	-0.1980234
19	0x3f73c522	0.95222676
20	0x3f5ff9e5	0.87490684
21	0xbdf1138e	-0.11771308
22	0xbea929a7	-0.3303959
23	0x3f99b972	1.2009718
24	0x3f89addc	1.0756183
25	0xbf30b101	-0.69020087
26	0xbe02d6a1	-0.12777187
27	0xbeb92422	-0.3616038
28	0x3f3b9fb6	0.73290575
29	0xbe680816	-0.22659335
30	0x3f071c9e	0.5277804
31	0xbdb0cf18	-0.0863325
32	0x400500c1	2.078171
33	0xc01d08d2	-2.4536633
34	0x3e4234b5	0.18965419
35	0x402021cd	2.502063
36	0x3ed4d83e	0.4157123
37	0xbd5646c5	-0.052313585
38	0xbe7a8512	-0.24464825
39	0x3e0f06bd	0.13967414
40	0xbdcc9faf	-0.09991395
41	0x3fb8cf94	1.4438348
42	0x3f81e781	1.0148774
43	0xbf3229b1	-0.69594866
44	0xbf9cee2f	-1.2260188
45	0x3e88425b	0.26613125
46	0x3e409f35	0.18810733
47	0xbfa9a6b8	-1.3254004
48	0xbecdc0d0	-0.40186167
49	0x402caceb	2.698054
50	0x3dc3aa71	0.095539935
51	0x3f8ca7ff	1.0988768
52	0x3f871629	1.0553638
53	0x3db57a4d	0.08861218
54	0x3f9027d4	1.1262155
55	0xbe3612ad	-0.17780562
56	0xbe81af75	-0.25329176
57	0x3e9150b4	0.28381884
58	0xbf042560	-0.5161953
59	0xbf93a736	-1.1535404
60	0x3fac373f	1.345436
61	0x3f00c25b	0.5029656
62	0xbf62fa4c	-0.8866317
63	0x3fe123b2	1.7589018
64	0xbec14f1b	-0.37755665
65	0x3f1dc870	0.6163397
66	0xbe0cc7d3	-0.13748102
67	0x3f343d8e	0.70406425
68	0x3dc8015b	0.097658835
69	0xbda30460	-0.07959819
70	0x3daa900b	0.08328255
71	0xbe969f2e	-0.2941832
72	0x3f9c45f7	1.2208852
73	0xbed58928	-0.41706204
74	0x3f8c9352	1.0982459
75	0xbfd0bea0	-1.6308174
76	0xbeb15093	-0.34631786
77	0xbf676be6	-0.90399015
78	0xbe195e78	-0.14977443
79	0x3f49f52c	0.7888973
80	0xbf1b6f96	-0.6071714
81	0x3fe801a0	1.8125496
82	0x3fdfc425	1.7481734
83	0x3fc657f7	1.5495595
84	0xbfb17635	-1.3864199
85	0xbf569bac	-0.83831286
86	0xbf8595ff	-1.04364
87	0x3d98b3f4	0.07456198
88	0xbeb5700b	-0.35437045
89	0xbf1d8812	-0.6153575
90	0xbfc4cca4	-1.5374951
91	0xbf9820fb	-1.1885065
92	0x3f0a2178	0.5395732
93	0x3fa66c62	1.3001826
94	0x3fa50d7d	1.2894741
95	0xbeddafb0	-0.432981
96	0xbef21784	-0.47283566
97	0x3f64b5f3	0.8934013
98	0xbe688c65	-0.22709806
99	0xbfa7c8b0	-1.310812
100	0xbe2cc92e	-0.16873619
101	0x3ef2541c	0.47329795
102	0x3e969688	0.2941172
103	0x3efdb3b2	0.4955116
104	0xbfd1c112	-1.6387045
105	0xbf9edc8a	-1.2411053
106	0xc0087aa7	-2.132486
107	0x3fcb41d2	1.5879462
108	0x3facee1b	1.3510164
109	0x3e922c4b	0.28549418
110	0xbd6e6191	-0.058198515
111	0x3e10b8dd	0.1413302
112	0x3dd2fa00	0.1030159
113	0xbf234aea	-0.63786185
114	0x3cddb47c	0.0270636
115	0x3e34cb88	0.17655766
116	0x3f1a2dfc	0.60226417
117	0xbe771ae4	-0.24131352
118	0xbf1d0ae2	-0.6134473
119	0x3fe6a3de	1.8018758
120	0xbf8d52da	-1.1040909
121	0xbffd9e11	-1.9813863
122	0xbf51d9a4	-0.8197272
123	0x3f92404b	1.1425871
124	0x3fc1936e	1.5123117
125	0xbd8c7547	-0.068583064
126	0x3ec53ca6	0.38522834
127	0xbf082ef2	-0.5319663

network_body._body_endoder.seq_layers.0.bias f4 [128]
0	0x3dc5a632	0.0965084
1	0x3d940208	0.0722695
2	0x3d0194a9	0.031635914
3	0x3d75f8a5	0.06005158
4	0x3dbde8db	0.09272929
5	0x3d53866b	0.051641863
6	0xbdaf229c	-0.08551523
7	0xbd839f85	-0.0642691
8	0x3d9e218c	0.07721242
9	0xbd5b3e5e	-0.053526275
10	0x3db0ba6b	0.086293064
11	0x3c4c93ed	0.01248644
12	0xbd23090b	-0.039803546
13	0x3d36ae45	0.04459979
14	0xbd0ae355	-0.033908207
15	0x3d1af76c	0.037833616
16	0x3d789aee	0.060694627
17	0xbdc5256c	-0.09626278
18	0x3d7c67ac	0.061622307
19	0x3c2b32b1	0.0104490975
20	0xbdc6b2c2	-0.09702064
21	0xbd5c97bc	-0.053855643
22	0xbca2727f	-0.019829987
23	0xbd9416ff	-0.07230949
24	0x3c402e03	0.01172972
25	0x3d3b913d	0.045792807
26	0xbde3ff9f	-0.1113274
27	0x3c25aa03	0.010111335
28	0xbdfd32d7	-0.123632126
29	0xbdf0173f	-0.11723184
30	0xbd0f17f1	-0.03493494
31	0xbdd08a99	-0.101826854
32	0x3d98f583	0.07468703
33	0x3dba745f	0.09104227
34	0x3c61ca8b	0.0137812
35	0x3de38e80	0.11111164
36	0xbd70b22c	-0.058763668
37	0xbbe05b11	-0.0068467935
38	0xbd6abb8f	-0.057307776
39	0xbd8e5566	-0.06949882
40	0xbd8c7b88	-0.06859499
41	0x3d15abea	0.036540903
42	0x3ce048f0	0.02737853
43	0xbd89558a	-0.067057684
44	0x3d255600	0.04036522
45	0xbda65224	-0.08121136
46	0xbdbc6500	-0.09198952
47	0x3d81c09e	0.06335567
48	0x3c20752a	0.009793559
49	0x3d9324fb	0.07184788
50	0xbd68c3bf	-0.056827303
51	0x3cf54fcc	0.029945277
52	0x3d8ca55a	0.06867476
53	0xbdb90aaf	-0.09035241
54	0x3da92e83	0.082608245
55	0xbd8f6ada	-0.07002802
56	0x3cfb3ac7	0.030667676
57	0x3d2e5d08	0.04256919
58	0x3c910604	0.017703064
59	0xbcc12b44	-0.023580201
60	0xbc3d1751	-0.011541204
61	0x3ab5bb8d	0.0013865099
62	0x3c14c75e	0.009080736
63	0x3c273b12	0.010206955
64	0x3d26f468	0.040760428
65	0xbde2b501	-0.1106968
66	0xbda490a3	-0.080354
67	0xbd5c9e56	-0.05386194
68	0x3c87ad2e	0.01656207
69	0xbd242534	-0.040074542
70	0xbcbcda03	-0.023053175
71	0xbd8b6826	-0.06806974
72	0xbd280999	-0.041024778
73	0xbd75679b	-0.05991326
74	0x3dcdf9e3	0.10057428
75	0x3da0f2a0	0.07858777
76	0xbc3d58c2	-0.011556806
77	0x3c97374f	0.01845899
78	0xbe04a036	-0.1295174
79	0xbd03f5cf	-0.032216843
80	0xbdc736ed	-0.09727273
81	0xbdcf0008	-0.10107428
82	0x3cb22195	0.021744529
83	0x3dc43db2	0.0958208
84	0x3cdf543d	0.027261848
85	0x3d2f6de7	0.04282942
86	0x3c9e5297	0.019326491
87	0x3de495dd	0.11161397
88	0xbdb6baa0	-0.08922315
89	0x3b98544d	0.0046487213
90	0x3cfb5d57	0.030684156
91	0xbd9d197e	-0.07670878
92	0x3d441e3a	0.04788039
93	0xbd6abb35	-0.05730744
94	0x3db2ea42	0.087360874
95	0xbdf28112	-0.118410245
96	0xbb98b7af	-0.0046605687
97	0x3d85a13b	0.06524893
98	0x3be71000	0.007051468
99	0xbde12129	-0.10992653
100	0xbd65d5cc	-0.056112096
101	0xbd8bfc29	-0.06835205
102	0xbddf9147	-0.10916381
103	0x3d195905	0.03743841
104	0x3c33da2b	0.010977308
105	0x3c73accd	0.014872742
106	0x3da9694a	0.082720354
107	0x3d1ad84b	0.03780393
108	0x3d0b6e85	0.034040947
109	0xbda0efb1	-0.078582175
110	0xbd0626b7	-0.032751765
111	0xbd764b86	-0.06013062
112	0xbcba8078	-0.022766337
113	0xba15315a	-0.0005691253
114	0x3db0d6a1	0.08634687
115	0xbd8d4466	-0.068978116
116	0xbc0bf3f9	-0.008542054
117	0xbc64b876	-0.013959995
118	0xbd4681ac	-0.04846351
119	0x3dc3d040	0.09561205
120	0xbd72c0ec	-0.059266016
121	0x3b8dd2a1	0.0043280874
122	0x3d952a99	0.072835155
123	0xbd7a8aff	-0.061167713
124	0x3ca2f620	0.019892752
125	0x3cf7f1d0	0.030266672
126	0xbd325e64	-0.04354705
127	0x3cc8c851	0.02450958

network_body._body_endoder.seq_layers.2.weight f4 [128, 128]
0	0x3d27892a	0.040902294
1	0xbdf9c919	-0.121965595
2	0x3d58a435	0.052890975
3	0xbdb2b0ae	-0.08725105
4	0x3d9f66fe	0.07783316
5	0xbd0696eb	-0.03285877
6	0x3defd91a	0.11711331
7	0xbda561da	-0.08075304
8	0xbd8c2910	-0.068437696
9	0xbe04c702	-0.1296654
10	0xbdb4a30b	-0.088201605
11	0xbe0f4d24	-0.1399427
12	0xbd915a25	-0.07097272
13	0x3d8d7058	0.069061935
14	0xbcd28cd7	-0.025701923
15	0x3d854cd0	0.065087914
16	0x3cfa6d7b	0.030569782
17	0x3ceb05fb	0.028689375
18	0x3d35dc8a	0.044399776
19	0x3d3560e0	0.04428184
20	0x3d0148e4	0.031563655
21	0xbd14fba7	-0.036372807
22	0xbd07ec81	-0.033184532
23	0x3d50a16a	0.050935186
24	0xbddd0eaa	-0.107938126
25	0x3c893aa4	0.016751595
26	0x3ddd07f5	0.10792533
27	0x3c492b90	0.0122784525
28	0x3db572b3	0.08859768
29	0xbd44a703	-0.048010837
30	0x3d2ac646	0.041692995
31	0x3e088dc9	0.13335337
32	0x3d308621	0.043096665
33	0x3bc74cd5	0.006082157
34	0xbde3bd68	-0.11120111
35	0x3d9f9d6d	0.077936985
36	0x3e37e5a0	0.17958689
37	0x3d236a7a	0.039896466
38	0xbc8808c9	-0.016605752
39	0xbb9926a3	-0.0046737953
40	0x3c27e64a	0.010247776
41	0x3da6d0ac	0.0814527
42	0xbce378e6	-0.02776761
43	0xbdb225e1	-0.08698631
44	0xbe786224	-0.24256188
45	0xbe07e741	-0.1327181
46	0x3e271513	0.16316633
47	0xbe2404b4	-0.16017419
48	0xbdad9da0	-0.0847733
49	0x3d903595	0.0704147
50	0xbe213843	-0.15744118
51	0xbd17179e	-0.036887757
52	0xbd76b448	-0.060230523
53	0xbc5f3b5c	-0.013624992
54	0x3d6311db	0.05543695
55	0xbd0c62e6	-0.034274004
56	0xbd9a86ec	-0.075452656
57	0xbc720898	-0.014772557
58	0xbcb4a3d8	-0.022050783
59	0xbd3ce6d6	-0.04611858
60	0xbda7b785	-0.081893004
61	0x3c626e09	0.01382018
62	0xbe1e7216	-0.15473208
63	0x3df8cb12	0.121481076
64	0x3c97c302	0.018525604
65	0x3b4744ac	0.0030405922
66	0xbe56c55e	-0.20973727
67	0xbd481b43	-0.048854124
68	0x3da3f7b8	0.08006233
69	0xbd833d62	-0.06408192
70	0x3d78e6cc	0.06076698
71	0xbd9b5052	-0.07583679
72	0xbe35343d	-0.17695709
73	0xbcb4b161	-0.022057237
74	0xbd920937	-0.07130664
75	0xbcb2e961	-0.0218398
76	0x3cafa922	0.021442953
77	0xbd9bad85	-0.076014556
78	0xbce8448e	-0.028353002
79	0x3dba30a1	0.090913065
80	0xbdbb6b8a	-0.09151371
81	0x3d995b9d	0.07488177
82	0xbd9ddcf4	-0.07708159
83	0xbcc31a35	-0.023816207
84	0xbdf49d2c	-0.11944041
85	0xbd81fa3f	-0.06346559
86	0xbda97523	-0.08274295
87	0x3acf67be	0.0015823764
88	0x3d0d310c	0.034470603
89	0x3c4bfa92	0.012449877
90	0xbd783dd5	-0.060605843
91	0x3d57c590	0.052678645
92	0x3de414de	0.111367926
93	0x3d8efac4	0.069814235
94	0x3c4c6d51	0.012477235
95	0xbe146d5a	-0.1449484
96	0x3de8dc5f	0.113701575
97	0x3c2d5275	0.010578741
98	0x3e3e592f	0.18588708
99	0xbe044dd9	-0.12920322
100	0x3e1a45b4	0.15065652
101	0x3ca400a9	0.020019846
102	0xbcd327b1	-0.025775762
103	0x3d6f3dbe	0.05840849
104	0xbcfe6fe0	-0.031059206
105	0x3df42345	0.1192079
106	0x3c56d0c1	0.013111294
107	0x3b37b641	0.0028032216
108	0xbdb41c9c	-0.08794519
109	0xbc743df5	-0.01490735
110	0xbd00cdff	-0.031446453
111	0x3d2bdeb7	0.041960444
112	0xbe1e38cb	-0.15451352
113	0x3bdfa7e5	0.0068254345
114	0xbd517eba	-0.051146246
115	0xbdc2bc75	-0.095086016
116	0xbae59ad9	-0.0017517462
117	0xbd9dc3ee	-0.07703386
118	0x3cad3dea	0.021147687
119	0xbddb8bac	-0.1072
120	0x3d539ba1	0.05166209
121	0xbe2689b5	-0.16263469
122	0xbdfbd410	-0.12296307
123	0xbe0dfa30	-0.1386497
124	0xbe1606bf	-0.14651011
125	0x3dd1f8d6	0.1025254
126	0x3e494a50	0.19657254
127	0xbc750b37	-0.014956287
128	0xbc48e903	-0.012262586
129	0x3e7e76e3	0.24850039
130	0xbce125d7	-0.027483864
131	0xbdbf04ee	-0.09327112
132	0x3d80716f	0.06271636
133	0x3d84fe28	0.06493789
134	0x3d4e022d	0.050295044
135	0xbd67d322	-0.056597836
136	0xbdee8b7e	-0.116477
137	0xbe077c6c	-0.13231057
138	0x3c00695c	0.00783762
139	0x3d3a0577	0.045415368
140	0x3dd5cb38	0.104391515
141	0x3b4a3b0b	0.0030857946
142	0x3d2ad35d	0.041705478
143	0x3dc76f43	0.09738018
144	0xbd9af3d9	-0.075660415
145	0x3d9b9200	0.07596207
146	0xbbe3345c	-0.006933732
147	0xbda34df1	-0.079738505
148	0x3cffc07b	0.031219712
149	0xbe3807a9	-0.17971672
150	0x3d3d243a	0.046177126
151	0xbd3a264f	-0.04544669
152	0xbd94de29	-0.07268936
153	0x3cdc7c5c	0.026914768
154	0x3dde1fa8	0.10845882
155	0xbd93269a	-0.07185097
156	0xbe555296	-0.20832285
157	0x3d7af23a	0.06126616
158	0x3d206460	0.039158225
159	0x3e588d6c	0.21147698
160	0xbd61d7a7	-0.055137303
161	0xbd48b73f	-0.049002882
162	0xbca0f751	-0.01964918
163	0xbda512d2	-0.0806023
164	0x3e039c0e	0.12852499
165	0x3c8d15c2	0.017222289
166	0x3cbdf095	0.023186008
167	0x3c824847	0.015903605
168	0x3dc5f0da	0.096650794
169	0x3d897730	0.06712186
170	0xbdd7d6cd	-0.10539017
171	0x3e1d08bf	0.15335368
172	0xbdc0f681	-0.09422017
173	0x3dc9e1d7	0.09857529
174	0xbbcd5d1f	-0.0062672044
175	0xbdae2af6	-0.08504288
176	0x3dd71dfa	0.105037645
177	0xbd877a3c	-0.06615111
178	0x3e001c51	0.12510802
179	0x3d3d17b1	0.046165172
180	0x3dc7035e	0.09717439
181	0x3dbcebae	0.0922464
182	0x3da20441	0.079109676
183	0x3e0f29fa	0.13980857
184	0xbd98cce6	-0.07460956
185	0xbc62a5b0	-0.013833448
186	0xbd73000e	-0.059326224
187	0x3d8d1160	0.0688808
188	0xbc882097	-0.016617103
189	0x3d8b7f43	0.068113826
190	0xbd61566c	-0.05501406
191	0xbc186fe1	-0.009304018
192	0xbe69f81b	-0.22848551
193	0x3e41718d	0.18890972
194	0xbd318af6	-0.043345414
195	0x3dcbe0ec	0.0995501
196	0xbd041904	-0.03225042
197	0x3da232e0	0.0791986
198	0x3b4cf651	0.0031274746
199	0xbdb1ae1c	-0.08675787
200	0x3dccfcd5	0.100091614
201	0x3d7b5fea	0.061370768
202	0x3dcb3f56	0.0992419
203	0xbd957f25	-0.072996415
204	0x3e5ff523	0.21870856
205	0x3d1d7231	0.03843898
206	0x3cdb190a	0.026745338
207	0x3d205264	0.039141074
208	0xbd1f9399	-0.03895912
209	0x3be3b042	0.006948502
210	0xbd5abd59	-0.053403232
211	0x3e1739d3	0.14768152
212	0xbdd1a3a4	-0.1023629
213	0x3d420d21	0.047375802
214	0xbd97c800	-0.07411194
215	0xbdc1134b	-0.09427508
216	0x3da1e9d9	0.07905931
217	0x3ce31b3e	0.027722951
218	0x3d3c102b	0.045913856
219	0xbc8cf77d	-0.017207855
220	0xbe0176f0	-0.12643027
221	0xbd13079d	-0.035895932
222	0x3c858280	0.016297579
223	0xbd09acfd	-0.03361224
224	0x3d551904	0.05202581
225	0xbd1b0c07	-0.037853267
226	0xbd149b4b	-0.03628091
227	0xbb9c014e	-0.0047608977
228	0xbd84a1fe	-0.0647621
229	0xbd0766c8	-0.033057004
230	0x3dd78123	0.10522678
231	0x3e256964	0.16153485
232	0x3cbfca34	0.023411848
233	0xbd6a95ac	-0.057271644
234	0x3e08323c	0.13300413
235	0x3dac1251	0.08401931
236	0x3e10597b	0.14096634
237	0xbcad8b98	-0.021184728
238	0xbdfbd993	-0.12297358
239	0x3ccc2ce6	0.024923753
240	0xbd909398	-0.07059401
241	0xbdcb13f6	-0.099159166
242	0x3bf14c41	0.0073638265
243	0xbcf8fb50	-0.030393273
244	0xbd0e393b	-0.034722548
245	0x3e0331d9	0.12811984
246	0x3dfd5071	0.123688586
247	0xbcd56e5a	-0.026053596
248	0xbd1ba34e	-0.037997536
249	0xbd4b1376	-0.049579106
250	0xbd86fbea	-0.065910175
251	0x3d6c650f	0.057713564
252	0xbd1d1b53	-0.038356137
253	0xbd7713dd	-0.060321677
254	0xbc7140d5	-0.01472493
255	0x3cc2be17	0.023772283

network_body._body_endoder.seq_layers.2.bias f4 [128]
0	0x3d1eba96	0.03875216
1	0xbd86d627	-0.06583815
2	0x3cda5173	0.026650166
3	0x3d2db486	0.04240849
4	0xbc4c2638	-0.012460284
5	0xbcc80f66	-0.024421405
6	0xbc12b9e3	-0.008955452
7	0x3d334c1e	0.043773763
8	0x3d9fc80c	0.07801828
9	0x3d7274af	0.05919331
10	0x3c737a65	0.014860724
11	0xbd38e873	-0.045143556
12	0xbd100729	-0.03516308
13	0x3d4e8d53	0.050427746
14	0xbd7172ec	-0.05894749
15	0x3cad6a22	0.021168772
16	0x3cb432cf	0.021996884
17	0x3d44b2d4	0.048022106
18	0xbcf2e30a	-0.029649276
19	0x3cdcf474	0.026972033
20	0xbd5aa5d5	-0.053380806
21	0x3bdd5d90	0.0067555383
22	0x3d05b735	0.032645423
23	0xbd904cc2	-0.070458904
24	0x3d8f558e	0.0699874
25	0x3b9fbbb7	0.0048746723
26	0x3c5a5caf	0.013327762
27	0xbcf80b70	-0.030278891
28	0x3cd326ba	0.025775302
29	0x3d6b8d70	0.057507932
30	0xbd941ef5	-0.07232467
31	0x3dc12e71	0.09432686
32	0x3d228568	0.039678007
33	0x3c2a9be5	0.010413145
34	0x3dc53970	0.09630096
35	0xbd1fec68	-0.039043814
36	0xbc9ba6ad	-0.019000376
37	0x3dabc7d2	0.08387722
38	0xbd029cb8	-0.03188774
39	0xbd2637a8	-0.04058042
40	0x3cb02272	0.0215008
41	0x3d27e01e	0.04098522
42	0x3e0d6b3f	0.13810442
43	0x3e0b314a	0.13593021
44	0x3d939cda	0.072076514
45	0xbd0b7f25	-0.0340568
46	0xbd744e04	-0.059644714
47	0xbc6f72da	-0.014614785
48	0xbd368832	-0.04456348
49	0x3d7739cd	0.060357857
50	0x3c78408a	0.015152106
51	0x3da381bc	0.07983729
52	0xbda0d392	-0.07852854
53	0x3d08de9f	0.033415433
54	0xbcaf1307	-0.021371378
55	0x3d387dc5	0.04504182
56	0xbbdeefd4	-0.006803492
57	0xbd2ceb7c	-0.042216763
58	0xbd01b665	-0.031668086
59	0x3d86e6c2	0.06586982
60	0x3deef017	0.11666887
61	0x3bd53c60	0.0065074414
62	0x3ddfa31e	0.10919784
63	0xbd74fe18	-0.059812635
64	0x3ddda1bd	0.10821865
65	0xbc798add	-0.0152308615
66	0x3cc45107	0.023964418
67	0xbd29eecd	-0.041487504
68	0xbd96c9df	-0.073627226
69	0x3cb48fde	0.022041257
70	0x3ca0aca5	0.019613573
71	0x3d7469ea	0.05967132
72	0xbca5e479	-0.020250546
73	0xbc955b05	-0.018231878
74	0xbd2e533a	-0.04255984
75	0x3d21dd4c	0.039517686
76	0xbd210fbd	-0.03932165
77	0x3d040a4c	0.032236382
78	0xbb9b3082	-0.004736007
79	0xbd210ffd	-0.03932189
80	0x3d97f8b1	0.07420481
81	0x3df15fae	0.117858276
82	0xbce412fa	-0.02784108
83	0x3d3e2f5b	0.04643188
84	0x3d65e614	0.056127623
85	0x3b117da5	0.0022200134
86	0xbd88796f	-0.066637866
87	0x3c021cd8	0.007941447
88	0x3c36bf56	0.0111540165
89	0x3c41b276	0.011822334
90	0xbcd999fb	-0.026562681
91	0x3d7d7b19	0.061884973
92	0xbba7ab6f	-0.005116872
93	0xbd5f603a	-0.05453513
94	0xbcb864ce	-0.022509005
95	0x3caa0625	0.020754883
96	0x3d07fe21	0.03320134
97	0xbd8bc895	-0.06825367
98	0xbc8f7113	-0.017509973
99	0xbd389f9b	-0.045074087
100	0x3e0eb27e	0.13935277
101	0xbcdbc8b1	-0.026829096
102	0x3d9cef28	0.07662803
103	0xbd80e171	-0.062929995
104	0x3d55b83d	0.052177656
105	0x3d783f9f	0.06060755
106	0x3d815dbf	0.06316709
107	0x3de87c65	0.113518514
108	0xbd15be42	-0.036558397
109	0xbceee5c8	-0.029162303
110	0xba1c9335	-0.00059728633
111	0xbd04e492	-0.032444544
112	0xbca53c2d	-0.020170296
113	0xbd5b1cbd	-0.053494204
114	0x3c9282c2	0.017884616
115	0x3d16ccf6	0.03681656
116	0x3cc2e65f	0.02379149
117	0x3cc4d26a	0.024026114
118	0x3ccf0510	0.025270969
119	0x3c6fac70	0.014628515
120	0xbc6ffadc	-0.014647212
121	0x3d515f63	0.05111636
122	0x3d8172b9	0.0632071
123	0x3dae6ddc	0.08517048
124	0x3ddbdf66	0.10735969
125	0xbd0c1532	-0.0341999
126	0x3d41a219	0.04727373
127	0x3a9cebf8	0.001197218

action_model._discrete_distribution.branches.0.weight f4 [3, 128]
0	0x3d235577	0.039876428
1	0x3b3bb9b6	0.0028644628
2	0x3d3f02e9	0.046633635
3	0xbc06c641	-0.008225978
4	0xbba90363	-0.0051578744
5	0x3ddcdb67	0.10784035
6	0x3d1ab0cf	0.037766274
7	0xbbe460b7	-0.006969537
8	0xbca157ce	-0.019695189
9	0xbc21c8df	-0.009874552
10	0x3cae463c	0.021273725
11	0x3df4c7e6	0.1195219
12	0x3c05504a	0.008136818
13	0xbbe75401	-0.0070595746
14	0x3dead8f0	0.11467159
15	0xbc2bcfc1	-0.010486544
16	0xbbcb395f	-0.0062019075
17	0xbc98e4b8	-0.01866375
18	0x3d80d7b7	0.06291144
19	0x3c30185c	0.010747995
20	0x3d0d8a60	0.034555793
21	0x3cf1cef1	0.029517623
22	0xbc42ba18	-0.0118851885
23	0x3df4adaa	0.11947186
24	0xbc791742	-0.015203299
25	0x3d5031cd	0.050828744
26	0x39e94082	0.00044489285
27	0x3cbbeba0	0.022939503
28	0xbc08fd7d	-0.008361218
29	0xbc8d6c73	-0.017263627
30	0x3cb4f578	0.022089705
31	0xbca15891	-0.019695552
32	0xbcf182b8	-0.029481277
33	0x3ce19853	0.027538454
34	0xbd8739d0	-0.06602824
35	0x3df942da	0.12170954
36	0xbbc76773	-0.00608533
37	0xbc87e129	-0.016586857
38	0x3ceb6508	0.028734699
39	0x3e09ed16	0.13469347
40	0x3cd5d889	0.026104229
41	0xbc77cb59	-0.015124165
42	0xbc8063d5	-0.015672604
43	0xbd8c8219	-0.06860752
44	0xbca551c4	-0.02018059
45	0x3de5bbbd	0.11217449
46	0x3cb28186	0.021790277
47	0x3acb48b3	0.0015509337
48	0x3e0a270b	0.13491456
49	0xbcae09fd	-0.021244997
50	0x3b96b9ed	0.004599801
51	0xbd04fdce	-0.03246861
52	0x3d07e370	0.033175886
53	0x3c128d90	0.008944884
54	0x3cc7b076	0.024376135
55	0x3c30d6a8	0.010793366
56	0x3d9a50cc	0.07534942
57	0x3c10bca6	0.00883404
58	0xbbcec1b6	-0.0063097132
59	0xbcc1f075	-0.02367423
60	0xbd8c4e01	-0.068508156
61	0x3ba9b772	0.005179339
62	0xbc95a639	-0.018267738
63	0x3e040195	0.12891228
64	0xbc595403	-0.013264659
65	0x3cfcd399	0.030862616
66	0xbb122442	-0.0022299443
67	0x3df9efe9	0.12203962
68	0x3e1368db	0.14395468
69	0x3af8184b	0.0018928138
70	0xbc488c5b	-0.012240495
71	0x3b4ac32e	0.003093909
72	0x3db74e9e	0.08950542
73	0xbbf4fb88	-0.007476274
74	0x3c0312ea	0.008000115
75	0xbc8f0ca5	-0.017462084
76	0x3de2d4d6	0.110757515
77	0x3d66cc76	0.056347333
78	0x3a9827b7	0.0011608516
79	0x3e01fb6d	0.12693568
80	0xbc2b0e47	-0.010440416
81	0xbd03c19f	-0.032167073
82	0x3e01d10e	0.12677404
83	0x3d127301	0.035754208
84	0xbc78eee6	-0.015193677
85	0x3d1a14a3	0.037617337
86	0x3c100775	0.00879084
87	0x3c8c3f50	0.017120034
88	0x3c730e84	0.014835004
89	0xbbe28b21	-0.006913558
90	0x3d1a05b5	0.0376031
91	0xbc8d4636	-0.017245393
92	0x3dcb5ef1	0.09930218
93	0x3e016c35	0.12638934
94	0x3a317a2e	0.00067702204
95	0xbbe1cc3c	-0.0068908017
96	0xbc9c2c05	-0.019063959
97	0x3d02c077	0.03192183
98	0x3b275c71	0.0025537277
99	0x3e046fbb	0.12933247
100	0xbda307af	-0.0796045
101	0x3cee4a3b	0.02908813
102	0xbc31a66d	-0.010842902
103	0x3d988e51	0.0744902
104	0xbc32e38c	-0.010918509
105	0xbc2c1274	-0.010502446
106	0xbcb3879c	-0.02191525
107	0xbc654c53	-0.013995248
108	0xbb8f64e9	-0.004376043
109	0x3deea2e5	0.116521634
110	0x3d25c452	0.04047043
111	0x3c5fd90e	0.01366259
112	0x3d31e776	0.04343363
113	0x3c426011	0.011863724
114	0x3d2159d8	0.039392322
115	0xbc74fe10	-0.014953151
116	0x3c99b741	0.01876414
117	0x3d2b2ec6	0.041792654
118	0xbaa64313	-0.0012684785
119	0xbaabbdbe	-0.0013102812
120	0x3d18f606	0.037344
121	0xbb69b880	-0.003566295
122	0xbc27ba43	-0.010237279
123	0xbc303a8e	-0.010756148
124	0xbc5fb0e4	-0.013653014
125	0x3c3169bd	0.010828433
126	0xbb73731f	-0.0037147475
127	0x3d2413fe	0.04005813
128	0xbd9ae9d9	-0.07564134
129	0xbc1fe318	-0.009758733
130	0xbca7efe6	-0.020500135
131	0x3bd8762b	0.0066058836
132	0xbb9696f0	-0.00459563
133	0xbdab7622	-0.083721414
134	0xbd8d342b	-0.06894716
135	0x3cbad55e	0.02280682
136	0x3ab11ccd	0.0013512612
137	0xbc2a3277	-0.010388008
138	0xbd9126de	-0.070874915
139	0xbdcc559a	-0.09977265
140	0xbc0aebbc	-0.008479055
141	0x3c74df9b	0.01494589
142	0xbd3690d7	-0.044571724
143	0x3bc4f3cd	0.0060105086
144	0x3b3e06fa	0.0028995858
145	0x3b90f272	0.004423433
146	0xbdb3724c	-0.08762035
147	0xbd282ea4	-0.041060105
148	0xbbdca632	-0.006733679
149	0xbc058e4f	-0.008151605
150	0x3c267534	0.010159779
151	0xbd9ca534	-0.076486975
152	0x3cbb9c5c	0.022901706
153	0xbddc413f	-0.10754632
154	0x3c493fa6	0.012283241
155	0xbd1cc205	-0.03827097
156	0xbc71b05a	-0.014751518
157	0x3c9774a5	0.018488238
158	0xbd4cefb4	-0.050033286
159	0xbd26802b	-0.040649574
160	0x3bb0f906	0.0054007797
161	0xbca57c62	-0.020200912
162	0xbc271a80	-0.010199189
163	0xbdd7f7a8	-0.105452836
164	0xbba75892	-0.005106994
165	0xbd2aaaf7	-0.04166695
166	0xbd1cd5bc	-0.03828977
167	0xbdd70fea	-0.10501082
168	0xbdc5e194	-0.09662166
169	0x3c020ef7	0.007938138
170	0x3de7aefe	0.11312674
171	0xbd1bba49	-0.038019452
172	0x3c839037	0.016059978
173	0xbd844424	-0.06458309
174	0xbca48e40	-0.020087361
175	0x3c47bdbc	0.012191232
176	0xbddbbe44	-0.1072965
177	0x3b92a12a	0.0044747787
178	0xbc9d17b6	-0.019176345
179	0x3ca0fc28	0.019651487
180	0xbcc9d1b3	-0.024636125
181	0xbce71a98	-0.028210923
182	0xbd9c6717	-0.0763685
183	0xbd311498	-0.04323253
184	0xbd5eab84	-0.05436279
185	0xbc2d9987	-0.010595686
186	0xbcb25145	-0.021767268
187	0x3cdf52a6	0.02726109
188	0xbc9e7c89	-0.019346492
189	0x3bbe6467	0.0058103087
190	0xbc87ab70	-0.01656124
191	0xbdb6984c	-0.08915767
192	0xbc9d13ff	-0.019174574
193	0xbd0638d8	-0.032769054
194	0xbba832c7	-0.0051330063
195	0xbdd01019	-0.101593204
196	0xbd96e0dc	-0.07367107
197	0xbb01d603	-0.0019811399
198	0xb984379f	-0.00025218443
199	0xbcc883b1	-0.024476858
200	0xbc9fa615	-0.019488374
201	0xbbe76733	-0.007061863
202	0x3a9eb46f	0.0012108217
203	0xbbe12fa0	-0.0068721324
204	0xbd8783f4	-0.06616965
205	0xbd289712	-0.041159697
206	0xbca3c292	-0.01999024
207	0xbd7e60d7	-0.062104072
208	0x3c121550	0.008916214
209	0x3d6e8fa0	0.05824244
210	0xbd411881	-0.04714251
211	0xbcdaa19b	-0.026688388
212	0x3c9c5c30	0.019086927
213	0xbdb06980	-0.086138725
214	0x3c076ef4	0.008266199
215	0xbd17a655	-0.03702386
216	0xbd4595ae	-0.04823845
217	0xbc560404	-0.013062481
218	0xbd98a360	-0.07453036
219	0x3c70c8b8	0.014696293
220	0xbc7e5561	-0.015523286
221	0xbdcbac61	-0.09944988
222	0xbbd4967d	-0.006487666
223	0xbbe7a8ae	-0.0070696687
224	0xbbc4ec5a	-0.0060096206
225	0xbd0a7b4f	-0.033809002
226	0xbd11b598	-0.035573572
227	0xbd723446	-0.059131883
228	0xbd107db5	-0.035276134
229	0xbd54f51f	-0.05199158
230	0x3c3bdf0a	0.011466751
231	0xbda662d6	-0.0812432
232	0x3c4419f7	0.011969081
233	0x3cf3d70e	0.029765632
234	0x3c961fbd	0.01832568
235	0x3ddca463	0.10773542
236	0xbba930ed	-0.005163303
237	0xbd0e6431	-0.03476352
238	0xbded32e0	-0.11581969
239	0x3c01566b	0.007894139
240	0xbd856c37	-0.06514781
241	0xbc8b1df7	-0.016982062
242	0xbdd17cb9	-0.10228867
243	0x3c76b3df	0.015057533
244	0xbcf7eefe	-0.030265328
245	0xbd9645fc	-0.07337567
246	0xbce9562e	-0.028483476
247	0x3c919d82	0.0177753
248	0xbd9a71c8	-0.07541233
249	0xbd2f01bb	-0.04272626
250	0x3c93fe42	0.018065576
251	0x3c833407	0.01601602
252	0xbd0ae3e4	-0.03390874
253	0xbd080c3a	-0.033214785
254	0x3c2c6e15	0.0105242925
255	0xbc3f2d42	-0.011668505

action_model._discrete_distribution.branches.0.bias f4 [3]
0	0xbdb34c95	-0.08754841
1	0x3d300df7	0.042982068
2	0x3c879eac	0.016555153
