Assets/NNModels/AiAgents-TrainingScene1.onnx (onnx, 94843 bytes, 9 tensors)

discrete_act_size_vector f4 [1, 2]
00000000: 0000 4040 0000 8040
3.0 4.0

network_body._body_endoder.seq_layers.0.weight f4 [128, 34]
00000000: af6a be3c 6b51 16be 47fe 573e 0ea8 e1bd
00000010: ca89 89be 210c 983c be31 5c3d 3cd0 0abe
00000020: dd2e 42bb d4c6 70bd a3df abbd 600a 653d
00000030: 9a30 2c3c 7ef2 1bbb b931 783c f6b4 0ebe
00000040: 8b51 89bd bf3a 5a3e d6d9 90bd 3d38 253f
00000050: 9ac6 5dbd b5b8 fabd f22c 5e3c 47e1 9739
00000060: f436 a7be f900 57be 7b42 efbd 4109 b4bc
00000070: 3a0b 523d e164 4d3e 12b3 64bd 0e9b 48be
00000080: 30e3 033e 620c 09be 37ba 883e 0558 ad3d
00000090: 1638 9a3e f252 af3c 0468 e2bc 1168 44bd
000000a0: 65bf 03be 1a72 1abe 7130 603d 2b5e 01bd
000000b0: 287c a7bd eb92 d13d 2755 733e 31cd b2bd
000000c0: 4c40 f2bd 7e67 dfbd 8876 94be a845 ae3d
000000d0: 1cf7 083d 4a53 a8bc 2d99 05bd a401 fdbc
000000e0: ebfe 423e b81e b2bd 898b bfbd daf2 adbd
000000f0: a2cf 603c b61a 553e db79 3ebd 72a8 aa3d
00000100: 4472 71be f04a b3bd 669d 1abd d86f 453e
00000110: 1e63 da3d 57aa 1b3e f834 aa3b f036 84bd
00000120: a401 19bd 58cd 4e3e 2276 1cbc 949e c73c
00000130: 2178 413d 7997 ad3e f731 86bd d605 5b3e
00000140: 4cd7 31be 95b8 cbbd e9a4 f33d 9a47 09be
00000150: 45fa e13d a717 9bbd 28e6 293e 6dbf 13be
00000160: ae57 503e f647 873e 4daf 4dbe 9c07 893e
00000170: dfa5 3d3d cee3 f5bd 40c7 6c3d ac37 3e3e
00000180: eac2 e13d e753 4a3e 1bf3 93be 1f9b d3bd
00000190: 70e9 aabd b4e9 9abe a1d2 68bc 5dd0 51bd
000001a0: d12e a2bb ad4e 6fbe aa81 59be 7a8b 2fbe
000001b0: 8543 fa3d dc2b 3fbd ada4 e33b 11ea d5bd
000001c0: b4f8 4abe ada9 e8bd 0d66 bbbe cc7d 7cbe
000001d0: 5e7d eebe eb40 7a3d f124 23bc 475d 56be
000001e0: 79de c73c 3bde 50bd 98eb 6dbd f246 693e
000001f0: 9ca9 8abd 0d12 9cbd 9304 6abd 3c9b 9fbd
00000200: 031f 433d 238c 583e 4f2d 353e b30b 2f3e
00000210: b77f 7a3e dc88 3e3e 7e98 93bd e285 1fbe
00000220: 414d d23d 2d95 823d e724 0a3e dec9 bf3d
00000230: d89f 8c3d 93e3 4dbc e171 be3d 9e3c a8be
00000240: 76f4 c03e dcbf e4bd 1bde 96be fd25 fabc
00000250: a23c c0bd e609 22be f354 53be bf56 48bc
00000260: d95e dfbd 1476 00be 595b d43c 09db 92bd
00000270: c4c2 663d 6e2a ba3e 7b2b 00be edec fdbe
00000280: dfaf 1c3e f04d e23e 7019 893e 5b24 34bc
00000290: 3220 793e 7dea de3e a4c6 533d a0e2 323e
000002a0: d15a 6a3e cb98 27bc d392 75be 9332 3e3e
000002b0: 8461 12bd f401 5cbc 7cfc ebbd 6a14 303e
000002c0: 269d 4d3e fa90 cabd 0035 53be 40f1 eebe
000002d0: 1adf f93d d9e6 6cbe f83f 693e 272d e4bd
000002e0: f2bb 713d 7a6a f2bd 5971 843d a750 afbc
000002f0: 496a f6bd 899e 503c 0047 d6bc 2834 e9bc
00000300: c51f 82bd e12b 853e d0e9 26be 5422 9f3e
00000310: 255e 70bc 2fa3 b1be 8f83 a4be bd69 f9bd
00000320: 06a3 723e be6a 6cbd ded8 663e 1770 07be
00000330: 3ad7 3b3d e751 553e 6e76 9bbb 3758 a93d
00000340: ec49 e43d 9584 a33c af73 81bd 87e5 a83c
00000350: 4cd0 893e 74d4 833e c7ae 87bd 84e1 2dbe
00000360: 8eb2 ed3d a6af 22be 2753 9f3e 7d27 11bc
00000370: 4683 2c3e d402 593d 8d48 a9bd 57aa dcbd
00000380: 05d7 5abe 330d 38be dfda c8bc 6108 3a3e
00000390: d278 92bd 0dfe 47bc 52ec 64bd 6d03 3bbe
000003a0: f557 393d ef54 f33d 640f 5c3e 5ad5 07be
000003b0: 8e99 1c3e 6010 403b 391d 59be 78ba 8a3d
000003c0: cf6a 2f3e 15f8 833d 47e2 503d 12b7 613e
000003d0: f0d1 83bd b517 38be 5224 253d 1d96 203c
000003e0: 62a8 2abd bc12 efbd 0f66 a73d 70fa 983d
000003f0: 43dc 7e3c 550d 0cbd 5627 913d cdcb 3b3d
0.02324423 -0.14679496 0.21093093 -0.11018382 -0.26862937 0.018560471 0.053758375 -0.13555998
-0.0029629983 -0.058783367 -0.08392265 0.055918097 0.010509634 -0.002379566 0.015148574 -0.13936219
-0.06705006 0.21311472 -0.07072799 0.6453894 -0.05414448 -0.12242261 0.0135605205 0.0002896881
-0.32659113 -0.20996465 -0.11682602 -0.021977069 0.051280238 0.20058013 -0.055834837 -0.19590399
0.12879634 -0.1338363 0.2670457 0.08464054 0.30120915 0.021401856 -0.02763749 -0.047950808
-0.1286598 -0.15082589 0.054733697 -0.031583946 -0.08177978 0.102331005 0.23762952 -0.087305434
-0.1182867 -0.109084114 -0.28996682 0.085093796 0.033438787 -0.020547528 -0.032616783 -0.030884571
0.19042556 -0.086972654 -0.09352786 -0.08493586 0.0137213785 0.2081097 -0.04650293 0.0833291
-0.23578745 -0.087545276 -0.037747763 0.19280946 0.10663436 0.15201698 0.0051943026 -0.06455791
-0.03735508 0.2019552 -0.009549649 0.024367608 0.047233704 0.33904627 -0.06552499 0.21388945
-0.17367285 -0.099473156 0.118966885 -0.1340622 0.11034063 -0.07572871 0.16591704 -0.14428492
0.20345947 0.2642209 -0.20086403 0.26763618 0.046300765 -0.12006341 0.057807207 0.18575925
0.11023505 0.19758569 -0.28896412 -0.103323214 -0.08345306 -0.30256426 -0.014210374 -0.0512241
-0.0049494286 -0.23369856 -0.21240869 -0.1714305 0.122199096 -0.046672687 0.006947121 -0.10445035
-0.19821435 -0.11360488 -0.36601296 -0.24657363 -0.46580023 0.061097067 -0.009957538 -0.2093402
0.024398075 -0.050993185 -0.058086008 0.2278097 -0.06770632 -0.076206304 -0.05713327 -0.077932805
0.047636997 0.21147208 0.17693065 0.17094307 0.24462782 0.18606895 -0.0720682 -0.15578416
0.10268641 0.06376109 0.1349064 0.09364675 0.06866425 -0.012566465 0.092990644 -0.32858747
0.3768651 -0.11169407 -0.29466328 -0.030535692 -0.09386565 -0.15824088 -0.20637874 -0.012227713
-0.10906763 -0.12545043 0.025922464 -0.07170684 0.056338087 0.36360496 -0.12516586 -0.49594823
0.15301464 0.44200087 0.2677722 -0.010994996 0.24328688 0.43538275 0.05170311 0.17469263
0.22886206 -0.0102293 -0.2398179 0.1857398 -0.03573753 -0.0134282 -0.11522767 0.17195287
0.20079479 -0.09890933 -0.20625687 -0.46668434 0.12200756 -0.23134936 0.22778308 -0.111414246
0.05901713 -0.11836715 0.06466932 -0.021400763 -0.12031991 0.01273311 -0.026156902 -0.028467253
-0.06353716 0.2601004 -0.1630013 0.31080878 -0.014670883 -0.34694812 -0.3213162 -0.12178371
0.23695001 -0.057718985 0.22543666 -0.13226353 0.045859553 0.20832025 -0.0047443425 0.08268779
0.11146912 0.019960681 -0.06320893 0.02061726 0.2691673 0.25748026 -0.06625133 -0.16980559
0.11606322 -0.15887317 0.31118128 -0.008859512 0.16846952 0.052981213 -0.08265791 -0.10774677
-0.21371086 -0.17973785 -0.024518428 0.18167259 -0.07151951 -0.0122065665 -0.055889435 -0.18263026
0.045249898 0.11881434 0.21490246 -0.13264981 0.15292951 0.0029306635 -0.21202554 0.06773847
0.17130588 0.06443802 0.050997045 0.22042492 -0.06436527 -0.17977794 0.04031784 0.009801415
-0.04166449 -0.11673495 0.08173763 0.07469642 0.015555444 -0.034192402 0.07087581 0.045848656

network_body._body_endoder.seq_layers.0.bias f4 [128]
00000000: 3a81 263c f01b 633d ba91 22bd c953 463c
00000010: 41b5 22bc 8e98 20bb 65c8 1b3d 1fea 08bd
00000020: 130a e43c b8b7 02bd abe3 3dbd 21f0 5bbd
00000030: b668 47bd f2aa bdbb fa21 113d f461 a63c
00000040: 3821 483d 0fd5 163d da52 75bc 5b60 6b3d
00000050: 1e97 d03c 2f23 bb3c 3987 e73c 1276 3c3d
00000060: 3a72 00bd 38a2 d93c 7ef8 d23c 36ef d63b
00000070: 25f1 da3c ef60 563d 19fa 443d d4d3 1e3d
00000080: 0795 e03c 6a98 34bd 4dc1 2c3c bad7 603d
00000090: 6c60 083d e875 fcbc c15d 403d 89a9 4cbd
000000a0: 4a26 00bd f94b 4a3c afa9 773c b6ed 423d
000000b0: 86a3 1bbd 0144 e2bc a696 45bc 33a0 10bb
000000c0: 0296 223d 3038 0cbd a1d7 db3a 8e03 f83c
000000d0: abff 653c ac27 8fbd 7fd1 663d f181 e03c
000000e0: 3980 413c 3fb4 f63c 23e8 e0bc a8f6 7ebc
000000f0: a4bb c83b 5c66 c73c 460f 183d 6397 d0bc
00000100: 1cd9 8b3d 0c49 4fbd b04e 4d3c 98c9 e3bc
00000110: 6eec 4e3d b3e2 14bd 6e2c 3c3d 307f 1d3d
00000120: 61cb efbb f16d 133c bfca 63bd f25c 493c
00000130: 9e74 3ebd de54 4f3d 77a2 7cbd 87a3 28bc
00000140: 2baf 043d d186 e0bc 4325 5e3d 5fb1 813d
00000150: 101b b43c a5b5 8f3c fa18 9e3c 9ee4 6dbd
00000160: a374 3abc 6b5b 853d c9d6 353d 268d ee3c
00000170: 4788 143d 169d 3e3d 4a32 8bbd d02a 1b3d
00000180: 34cd 083d 1404 35bd 5e03 75bd 742d a7bc
00000190: 1d3d 7d3d 32e7 4bbd 5bbb 6339 0d01 da3c
000001a0: a1fa b43b f027 db3c d83b 08bd cb6b 04bc
000001b0: 9d65 0cbd 5b86 11bd 844a 093d 8767 a33b
000001c0: f325 cfbc d69c 20bd b449 4c3b 1fa2 ddbc
000001d0: b33a 263d 8d82 673d 40af 9b3d 17a8 b93c
000001e0: 50f0 49bd 1876 42bd 2824 27bc fa9b 6ebb
000001f0: 3366 ce3c 7603 10bd bd29 a539 08fd d63c
0.010162646 0.055446565 -0.039689757 0.012104937 -0.00993091 -0.0024504992 0.038032908 -0.0334264
0.027836835 -0.03191349 -0.0463597 -0.0536958 -0.048683845 -0.0057882005 0.035432793 0.02031038
0.048859805 0.036824282 -0.014973367 0.05746494 0.025462683 0.022843925 0.028262721 0.046011038
-0.031358935 0.02656661 0.025753256 0.006559278 0.026726315 0.052338537 0.048090074 0.038776234
0.027414812 -0.044090666 0.010544133 0.054893233 0.03329508 -0.03081794 0.04696441 -0.04996637
-0.031286515 0.012347215 0.015116139 0.04758998 -0.037997745 -0.027620317 -0.012059843 -0.0022068142
0.03969384 -0.034233272 0.0016772636 0.030275133 0.014038007 -0.06989989 0.056352135 0.02740571
0.011810356 0.030115245 -0.027454441 -0.015561737 0.006125884 0.024340801 0.03712394 -0.025462812
0.0682852 -0.050606772 0.012530968 -0.027806088 0.050518446 -0.03634901 0.04594081 0.038451374
-0.007317946 0.00899838 -0.055613276 0.012290226 -0.046497934 0.050618045 -0.061678376 -0.010292894
0.032393616 -0.027408035 0.054234754 0.06332659 0.02198556 0.01754267 0.01929902 -0.058079354
-0.011380347 0.06511577 0.04439429 0.02912004 0.036262777 0.046536528 -0.06796701 0.037882626
0.033398822 -0.044193342 -0.059817664 -0.020407416 0.06182586 -0.049781032 0.00021718202 0.02661183
0.0055230414 0.026752442 -0.033260196 -0.0080823405 -0.034276593 -0.035528522 0.03351833 0.0049867067
-0.02528665 -0.03921207 0.003117186 -0.027054844 0.040583324 0.056520987 0.07601786 0.02266316
-0.049301445 -0.047475904 -0.010201491 -0.0036408887 0.025195217 -0.03515955 0.0003150235 0.026243702

network_body._body_endoder.seq_layers.2.weight f4 [128, 128]
00000000: 0d19 43bc f18d 8dbd 2455 3dbc f891 80bd
00000010: 7a07 4c3d c8a3 b3ba 8c65 203d c89e 9b3d
00000020: 86aa f2bc de5b 52bc b9bc d9bd aa4e 0b3d
00000030: 5823 3a3d 60ae 2abe 5eee 76bd e4ea a53d
00000040: e9f7 18be b5e4 323d 6bbd c8bd c7f3 33bd
00000050: 8746 b4bd 9fd2 36be d820 ed3c 6e2b b43d
00000060: 0930 d8bc ccb9 90bc bc6b 79bd 57fc d33c
00000070: 1c6b 5abd 2d73 4fbd 3e1f a6bd 55a5 4d3d
00000080: 97ff 1f3e 37a9 babd 8d3d 7a3e 56e2 a33d
00000090: 23f1 22be b0ff a83d b475 24bd fefd fbbd
000000a0: 2450 f9bc 7bfd e5bd 23b0 cd3d 2aeb ca3d
000000b0: 10f0 4dbd 2029 c43d 2e16 a4bd f88d 103d
000000c0: 26a1 543d ffd8 ae3c 06f1 85bd 2cc9 8fbd
000000d0: 14da da3d 42ce 5a3d a07f e8bc 8473 203e
000000e0: ce11 2f3c dc37 0a3c 7580 f43d 4f56 053d
000000f0: 80ad 3bbe c758 b0bd 767c 56bd 02fc cebd
00000100: eae3 6f3d 9e22 4fbe bb8c a6bd 5774 09be
00000110: 175a d9bd 7533 fcbb 6f03 303c 0eb0 ba3d
00000120: 3155 363d 41aa 5e3e fc52 2b3d 51e3 c0bd
00000130: 290a af3d bf09 eb3c 0360 a73d 957e 9fbc
00000140: 3e06 843c 7420 1cbd 5ee0 5b3b c623 55bd
00000150: e359 cf3c 6dd9 c93d 35f3 d23b c32a 39bd
00000160: 65f8 a53c ceca b3bc e558 1ebe 39d7 083e
00000170: e8e3 90bd 7576 d8bd d603 de3d d992 b83d
00000180: 412b bebc fd95 303c cffd ef3c d263 05be
00000190: 9739 863d 1d70 c33d 8b7c 04be 7d64 bdbd
000001a0: c66e 263d 1d18 dcbd a8a6 133e 56a9 183d
000001b0: 7ba0 063d b86c cabc 1689 4b3d c167 963d
000001c0: 86a8 1e3e 1a24 87be 4b59 10be d545 473d
000001d0: d512 4b3e 0010 bdbc 0fe7 5f3d e3d8 d6bc
000001e0: 2b9b 0cbd 8bf1 b5bb 842f 3bbe 3c0e 5cbc
000001f0: b2c9 f73d ba3d 0b3e a233 c0bd 7730 00be
00000200: e1ac 883c 9e08 efbc aabc 583d 084c 38be
00000210: 99ee 28be bd2d 3a3d 4d1c 9b3d fe14 273d
00000220: 16b8 78bd 57c6 b5bb 90f5 42be 225c 3e3d
00000230: a3bd ddbd addf d7bc 1df9 503e fd44 ee3c
00000240: 084f 41bd 2f31 b2bd c111 08be 7cc9 17ba
00000250: fa41 3ebd a2e9 a53d 32d7 803d 86f0 5e3c
00000260: d6eb f93c d21d bf3c 82ad 1b3e 3aea 913d
00000270: 284f 813d 76d3 943d e332 0c3e 8507 da3c
00000280: f6d5 40bb d8f8 66be e020 3bbe e6db 173e
00000290: ca4d bc3d 7b48 06be 6ed0 133e e93e 693d
000002a0: ad9a bd3d a486 86bd 01c9 aabd 2270 aa3d
000002b0: 670c 06be 26da e53c 2b98 853d 4d11 083c
000002c0: a80d f23d 32c8 c7bd 7e67 59bc 8d97 a9bd
000002d0: 903d e73c 45ad d0bb c47f 9bbd 3d4f 963d
000002e0: d72c d4bd 9000 c1ba 1d75 acbd 6e80 913b
000002f0: a468 cb3d b541 fd3d a9b3 823d efb6 183d
00000300: e899 073e e434 b6bd 54a8 09be f53d bc3d
00000310: d800 373d 44e3 8b3b 24de 31bd e9ec 0fbd
00000320: 63c3 5ebd 6586 cebd b6b2 0fbe e82b 0a3e
00000330: 21bf 1f3e cc31 8a3d 3843 523d 8e87 fc3d
00000340: 0bdb b6bd 6a9f 94bd 4e40 333d 4bb0 77bd
00000350: ea26 9f3d f207 013e 8e77 17be 2734 f33c
00000360: f074 283e 66ec 16be 2aa8 3f3e 9bc3 613d
00000370: ccf8 fb3c 56b3 d43b a1af ed3b c088 54bd
00000380: 6409 7b3d ef44 8a3c 8221 6dbe 9bff 413c
00000390: 22a3 343d 4cfb c2bd 51db 3b3d b105 053d
000003a0: 6268 62bd f5a0 b63d 9e3b cdbc 88ff 33be
000003b0: 0e57 e3bd 7305 e8bd d81a 66bd 9803 cc3c
000003c0: 2c74 333d 99bf eb3c 1cf6 82bd 3251 263c
000003d0: 6a25 0dbd 8ee5 a7bc 8f57 683d 463d b6bd
000003e0: 235a 30bc a542 46bd 8f3e 8b3d 2056 153e
000003f0: 5e82 b1bd 1da4 3d3b 6d34 97bd d362 473d
-0.011907828 -0.06911839 -0.011555944 -0.06277841 0.049811818 -0.0013705427 0.039159343 0.075986445
-0.029622328 -0.012839286 -0.10631699 0.034010567 0.045443863 -0.16668081 -0.06028592 0.081014425
-0.1493832 0.043675143 -0.098017536 -0.043933656 -0.088025145 -0.17853783 0.028946325 0.08797346
-0.026390092 -0.01766672 -0.06089376 0.025877161 -0.053324804 -0.05064695 -0.08111428 0.0502065
0.15624844 -0.091143064 0.24437542 0.080021545 -0.15912299 0.082518935 -0.040151313 -0.123043045
-0.030433722 -0.11229988 0.10043361 0.09908135 -0.05027777 0.095781565 -0.08012043 0.035291642
0.051911496 0.021343706 -0.06540112 -0.07020792 0.10686126 0.05341936 -0.028381169 0.15669066
0.010685397 0.0084361695 0.11938564 0.032553013 -0.18327904 -0.08610683 -0.05236479 -0.101066604
0.058566965 -0.20228049 -0.08132311 -0.13423286 -0.106128864 -0.007696564 0.010743006 0.09115611
0.04451484 0.21744634 0.041827187 -0.09418357 0.0854686 0.02869117 0.0817261 -0.019469539
0.016116258 -0.038116887 0.0033550481 -0.05203607 0.025311416 0.09855924 0.006437684 -0.045206796
0.020260045 -0.02194729 -0.15463598 0.13363351 -0.0707472 -0.10569469 0.108405754 0.09012384
-0.023213984 0.0107779475 0.02929583 -0.1302636 0.06553953 0.09542868 -0.12938134 -0.09247682
0.040632986 -0.10746787 0.14419043 0.037270866 0.03286789 -0.024710044 0.049691282 0.07344008
0.15493974 -0.2639473 -0.14096563 0.04865058 0.19831403 -0.023078918 0.054663714 -0.026226467
-0.034327667 -0.005552476 -0.18279845 -0.013431128 0.12099017 0.13597766 -0.09384848 -0.12518488
0.016683998 -0.029178914 0.0529143 -0.17997754 -0.16497268 0.045453776 0.07573757 0.040791504
-0.060722433 -0.0055473256 -0.19038987 0.046474583 -0.10827186 -0.026351774 0.20407529 0.02908563
-0.04719451 -0.08700787 -0.13288023 -0.00057902164 -0.04644964 0.081012025 0.06291045 0.01360715
0.030507963 0.02332965 0.15202907 0.07124753 0.06313926 0.072668955 0.13691287 0.026614914
-0.0029424406 -0.22555864 -0.1827426 0.14829978 0.091945246 -0.13113587 0.14434978 0.05694476
0.09258018 -0.065686494 -0.0833912 0.08322169 -0.13090669 0.028058123 0.06523164 0.008304906
0.11819011 -0.09754981 -0.013269303 -0.08280859 0.028227597 -0.0063683116 -0.07592729 0.07339332
-0.10360115 -0.0014724899 -0.08420775 0.004440359 0.09932068 0.12366048 0.06381924 0.037283834
0.13242304 -0.08896807 -0.13443118 0.09191505 0.04467854 0.0042690355 -0.04342474 -0.035138045
-0.054385554 -0.100842275 -0.14033017 0.13493311 0.15600254 0.06747779 0.051333636 0.123305425
-0.08928498 -0.07256968 0.043762498 -0.06047086 0.07771094 0.12600687 -0.147917 0.029687954
0.16450858 -0.14738616 0.18716493 0.055118185 0.030758284 0.006491105 0.0072536026 -0.051888227
0.061288252 0.016878573 -0.23157313 0.011840726 0.044100888 -0.09520587 0.045863453 0.03247613
-0.05527533 0.08917419 -0.025052842 -0.17577946 -0.11100589 -0.11329164 -0.056177944 0.024904057
0.043811962 0.028777884 -0.06394598 0.010151194 -0.03445951 -0.020495202 0.056724127 -0.08898406
-0.010763678 -0.0484034 0.067990415 0.14583635 -0.08667444 0.002893693 -0.07383046 0.04867823

network_body._body_endoder.seq_layers.2.bias f4 [128]
00000000: 5dbf f93b 697b 293c afbb aa3c 5917 e8bb
00000010: 0354 21bd 58e1 1b3d 3da4 7c3d 406e 9cbc
00000020: 2a45 e3bb ef7c 233c f721 d53b 261f 79bc
00000030: 0ade 8bbc b118 043d bbab 4cbc 72ca e0bc
00000040: cd63 06bd 1718 20bd 5293 5ebd 70e4 d7bb
00000050: 8eee 1b3d dd2a 493d 0529 22bc 5d6b cc3c
00000060: a13a 1b3d cee2 15bd 5958 223d e928 5b3d
00000070: 55e5 fdbb aaaf 90bc 9015 0ebd eff4 8f3b
00000080: d0eb 1b3d 7816 6b3c d77e 70bd ef39 08bd
00000090: c100 8a3c 4629 cc3c b9e0 7d3d 8a33 36bc
000000a0: 53d2 5abc d53a 81bc 28ab c13c 9fd3 3cbd
000000b0: 06ee bd3c 7f56 073d cbd1 1a3c 7115 173d
000000c0: c761 6ebd 3c92 22bd d9f9 1fbd 4919 2abb
000000d0: f375 673c e93c 74bd f451 7f3c 5393 5fbc
000000e0: 1607 26bd 2cc2 56bd 85c4 813b c342 27bd
000000f0: 17f2 323d 9d44 33bc 7614 bcbc b994 073c
00000100: 6a2f 343d 1f92 4f3b 8a6e 28bd 685b 2b3d
00000110: dadf 04bd f1be 2e3d 45a9 30bd d73e a2bc
00000120: 06f2 9abc 58eb 4dbd dc83 813c c13b 55bc
00000130: e02d 013d 3fba b83b ac23 503d f317 043d
00000140: 6dc5 643d 41c6 b83c 93b6 59bc 4780 dc3c
00000150: 14a7 82ba bb4d 9c3c eb36 5d3c bcce 9f3c
00000160: ffe0 22bc 1929 4abd db26 e2bc 16d4 b83c
00000170: c32d 0b3d ef95 273d f86e 5fbd b5a7 333d
00000180: e939 ec3c bfb4 0ebc 403c ec3a 979a adbb
00000190: 4663 51bc 01e9 aeba 5a9e ae39 3d3f 493d
000001a0: 656f a4bc a77f 8bbc a243 733c 627d 233d
000001b0: 5bc7 5b3d 7fa5 29bd d325 f3bc bdf5 993c
000001c0: 24a0 89bb 6427 8bbc a4aa 21bd 3736 243d
000001d0: b067 663c dd58 27bd 48a9 21bc a603 1d3d
000001e0: 19fc a73c 9dec f53c ba02 993c 3d4f d13b
000001f0: cf92 16bd b09e 87bc 0462 21bd a910 313d
0.0076216892 0.010344365 0.020841448 -0.0070828614 -0.03938676 0.0380567 0.061680067 -0.01909554
-0.0069357352 0.009978517 0.006504293 -0.01520518 -0.01707365 0.03225011 -0.012492116 -0.027440283
-0.03281002 -0.039085474 -0.054339714 -0.006588511 0.0380693 0.049113143 -0.009897475 0.024953539
0.03789771 -0.03659325 0.039635036 0.05350581 -0.007748286 -0.017661888 -0.034688532 0.004393212
0.038066685 0.014348619 -0.058714714 -0.033258375 0.016846063 0.024922024 0.06198189 -0.011120686
-0.013355809 -0.015775124 0.023641184 -0.046100255 0.023184787 0.033041473 0.009449433 0.036885682
-0.058198716 -0.03969024 -0.039056633 -0.0025955013 0.014127242 -0.0596284 0.015583504 -0.013645965
-0.0405341 -0.05243127 0.0039601945 -0.040835153 0.043687906 -0.010941652 -0.022958975 0.008275204
0.04399053 0.0031672788 -0.041121043 0.04183522 -0.032440044 0.042662565 -0.043130178 -0.019805355
-0.018914234 -0.05027327 0.015809946 -0.013014735 0.03153789 0.0056374366 0.05081527 0.032249402
0.055852342 0.022555472 -0.013288158 0.026916636 -0.0009968006 0.019080034 0.013501863 0.019507758
-0.009941339 -0.0493556 -0.027606418 0.022562068 0.03397919 0.040914472 -0.054549187 0.04386111
0.028836207 -0.008710085 0.0018023327 -0.0052979696 -0.012780016 -0.0013344587 0.00033305847 0.049132574
-0.020072648 -0.017028643 0.014847668 0.039914496 0.053656917 -0.041417595 -0.029681122 0.018793935
-0.0041999985 -0.016986556 -0.039469376 0.040090766 0.014062807 -0.04085623 -0.00986702 0.038333558
0.020505952 0.030020053 0.018678058 0.00638762 -0.0367611 -0.01655516 -0.039400116 0.04322878

action_model._discrete_distribution.branches.0.weight f4 [3, 128]
00000000: edea 7a3c 00ee edbb 9f4d 89bb 60a7 c43b
00000010: cb14 26ba 849a 9fbc 195d 76bc b8c2 eb3b
00000020: cce2 f23b 5288 debb 91b2 ec3a d380 24bb
00000030: 72f3 d0bb 9fae a4bb 8d93 d93c 5f6b 523c
00000040: d254 813d 1bc2 673d 1c79 4c3d 7a9e a93b
00000050: d024 a3bb aaed 14bc 5ca6 0e3c 0f90 a63a
00000060: d4cd 03bc 4628 803d df33 78bc 7253 f5bc
00000070: 0810 413c 9b99 303d f3c8 993d 12c4 2536
00000080: 0eb8 5fbb 374d 3ebb afe2 aa3d 0011 2c3d
00000090: 73e7 0abc 9a38 c0bc dbf3 aabc 43fc 663c
000000a0: 4380 9f3c 3620 aa3b 2211 dcbb 79b3 593d
000000b0: 3844 5bbc 52e6 893b 0542 b73a 14b0 003b
000000c0: 16d2 953d 2eee 583d 98f7 973d afe7 c93c
000000d0: bb9f 87bb 0913 893d a626 84b9 0bf8 39bc
000000e0: f7ba 4b3d baa3 903d e72e 99ba b0d5 883d
000000f0: 7fa3 3a3a 245c 0d3c 53a6 553c e34f 443b
00000100: 986e 20bc 6592 043d 1a22 9d3d 4d3e b3bb
00000110: 44aa 9d3d 947c d2bb e7e3 833d 299f a33b
00000120: d0ae c63c a505 8e3d 5612 2b3b 7688 303c
00000130: 2ec1 7b3b 75a1 733a 6357 47bb b2e2 bfbc
00000140: 0cfc 44ba 0f70 01ba d861 eb3c 28d6 14bc
00000150: 055a 6b3a b9eb 23bb 7ee3 413c 40e0 46bc
00000160: 74e9 863c 952a 853d c8fa f3b8 3dbf 8fbc
00000170: 592c a7bc e993 7cbc e4ac 743d 67ce a3b9
00000180: 4cbc 84bc f87a 6cbb 313c 3ebc d668 6dbb
00000190: 9ac7 843b 1b61 7aba 0503 aa3a d7f0 99bc
000001a0: 2354 673c 913d 323c d982 92bb b332 19bc
000001b0: c1f3 3abc 73ed a53c 9fde 2a3d f646 6abc
000001c0: aaac 03bb ddb5 483c d1f0 e83b 0925 d23a
000001d0: 2386 93bc 6895 3c3d 98c8 ee3c 5aca 6ebc
000001e0: 3886 dcbb be5e 2b3b 8b17 23bc 5817 813c
000001f0: 3248 463d 46d9 843b 4143 513d e9f4 b5bc
00000200: 97cf 133d 8d1c c0bb eb5b acbc 7185 9a3a
00000210: 152b 12bc 63fb 323b 8106 05bd 76d7 413b
00000220: 132e 163b 8a7a 1f3b 3f24 3cbc 8a46 24bc
00000230: 9ed3 acbc 6f41 303c c980 06bd df76 8eba
00000240: 4f26 c8bc d43e a4bc 986d 61bb 6cf1 b1bc
00000250: 99ad 473c 4e06 c13c 5046 f93b 4481 6a3c
00000260: d5e6 8cbd da18 a63b 48fd 9abc 3c22 63bd
00000270: e348 a1ba ae4e d63c 5bc5 a73a 00e7 b23b
00000280: f860 b9bc 50f9 c33a 10ae 5cbc 0066 fabc
00000290: 681c 89bc da45 2fbc e691 ba3d b11b 2fbc
000002a0: 8696 1e3d a79c bebb 0925 ab3a b319 43bb
000002b0: 50f4 9dbb 23a3 e3bc 3f06 8dbc 6750 863c
000002c0: 8970 afbc 9948 55bc ccc4 d13b 4e69 843d
000002d0: 0e99 cbbc a3c3 ecbc c9ae 393d c6aa 94bc
000002e0: 4cfc 7cbc 2409 f4bb eb63 973b bcbf 76ba
000002f0: 724e 9d3c 51e1 c1bc ae7a bcbb ef2f a0bc
00000300: 1533 c63c 1dfc a33d 7506 76bb 582a 143c
00000310: ae6e 2cbc 48fe 693c dff8 f4bc f56c edb8
00000320: 1f63 253b fafe 3fbb 2dd9 cc3d e51e 87bc
00000330: eb1a 6c3d 91dc 7c3c 583c 21bd 2482 ae3d
00000340: 6764 b1bc 67c5 b8bb a608 173d ed1f 9bbc
00000350: 7056 c3bc 2789 953c bf76 c03c 60b4 b1bb
00000360: df62 d63b 6c87 f9bc 53a0 30bc 414f 9f3d
00000370: a4d7 ad3c adcb 0d3c 9e6c ccbc 4cd8 d43c
00000380: ee66 c63d aeca 59bc 1c52 893d 53c3 3fbc
00000390: 79b7 95bc c30f 82bc 94c5 acba 6c77 433c
000003a0: 3792 14b8 a62f bb3b 07e2 43bc 8aaa b53c
000003b0: d2cc 243d 710f b2bc 0706 8bbb 12cd 51bd
000003c0: 844d 14bc b929 7fbc 37f8 fbba 7283 e53d
000003d0: ced8 2fbd fe7b 0d3a 26f8 983d dd5e 703b
000003e0: 68c8 98bc 4418 853c aa9c 1cbb da85 6fbd
000003f0: b77d c9bc 8aef 1cbb 6dcc 63bc 5dc7 17bd
0.0153148 -0.007261038 -0.0041901614 0.006001398 -0.0006335496 -0.019482858 -0.015036845 0.007194843
0.00741229 -0.006791153 0.0018058588 -0.00251012 -0.006376677 -0.0050256993 0.026559616 0.012842982
0.06315006 0.056581598 0.049920186 0.0051763626 -0.0049787536 -0.009089867 0.008706655 0.0012707728
-0.008044679 0.062576815 -0.015149086 -0.029947016 0.011783607 0.04311524 0.07509031 2.4701044e-06
-0.0034136805 -0.0029037723 0.08344018 0.0420084 -0.008478033 -0.02346449 -0.020868232 0.01409823
0.01947034 0.005191828 -0.0067159096 0.053149674 -0.013382964 0.0042083645 0.0013981467 0.00196362
0.07315461 0.05296152 0.07420272 0.024646608 -0.0041389144 0.06693084 -0.00025205797 -0.011350642
0.04973885 0.07062478 -0.0011686952 0.06681383 0.00071197 0.008627925 0.013040143 0.0029954843
-0.009791993 0.032366175 0.0767252 -0.0054700733 0.07698491 -0.0064235423 0.06439953 0.0049933386
0.024253279 0.0693467 0.0026103458 0.010774722 0.0038414705 0.00092937733 -0.0030417077 -0.023423526
-0.00075143646 -0.00049376575 0.028733179 -0.009084262 0.00089779525 -0.0025012328 0.0118340235 -0.012138426
0.016468741 0.065022625 -0.000116338546 -0.017547244 -0.020406889 -0.015416124 0.059735194 -0.00031243564
-0.016203068 -0.0036084037 -0.01161103 -0.0036225817 0.0040521147 -0.0009551213 0.0012970871 -0.0187916
0.014119181 0.010878936 -0.0044711647 -0.009350467 -0.0114106545 0.020254826 0.041716214 -0.014299145
-0.002009193 0.012250391 0.0071087857 0.0016032766 -0.018008297 0.046040922 0.029148385 -0.014574612
-0.0067298673 0.0026149 -0.009954344 0.015758201 0.048408695 0.0040542213 0.05108953 -0.022211509
0.036086645 -0.0058627785 -0.021039924 0.0011789036 -0.008921404 0.0027310483 -0.032476906 0.0029577888
0.0022915646 0.0024334514 -0.011483251 -0.010026583 -0.021097 0.010757788 -0.032837663 -0.0010869167
-0.02443233 -0.02004949 -0.0034397598 -0.021721564 0.012187385 0.023562577 0.007607259 0.014313046
-0.06879965 0.0050688805 -0.018919602 -0.05545257 -0.0012305047 0.026160564 0.0012799905 0.0054596663
-0.022629246 0.001495162 -0.013469234 -0.030566216 -0.016737178 -0.010697806 0.09109859 -0.0106877545
0.03871777 -0.0058170143 0.0013057302 -0.0029769957 -0.004820384 -0.02778775 -0.017214892 0.01639576
-0.021415966 -0.013017797 0.006401634 0.06465398 -0.024853256 -0.02890188 0.045332704 -0.018147837
-0.015441012 -0.0074473787 0.0046200654 -0.0009412726 0.019202445 -0.02366701 -0.0057519292 -0.019554107
0.02419428 0.08007071 -0.003754047 0.009043299 -0.010524435 0.014281817 -0.029903827 -0.000113213355
0.0025236083 -0.0029296265 0.100023605 -0.016494224 0.05764286 0.0154334465 -0.03936419 0.08520916
-0.02165432 -0.0056387666 0.036873482 -0.018936122 -0.023844928 0.018253876 0.023494123 -0.0054231137
0.006542548 -0.030460082 -0.010780412 0.07778788 0.02122099 0.008654517 -0.024954136 0.025982045
0.09687601 -0.0132929515 0.06705114 -0.011704284 -0.018275963 -0.015876656 -0.0013181441 0.011930328
-3.5422123e-05 0.0057124672 -0.011955745 0.022176046 0.040234394 -0.021735879 -0.004242662 -0.05122096
-0.009051684 -0.015573912 -0.0019223754 0.11206712 -0.04293137 0.00053971994 0.074692056 0.0036677637
-0.018650249 0.016246922 -0.002389709 -0.05847726 -0.024596078 -0.0023946487 -0.013903719 -0.037055362

action_model._discrete_distribution.branches.0.bias f4 [3]
00000000: da5d 32bd 1270 a33c a0ce be3c
-0.043546535 0.0199509 0.023291886

action_model._discrete_distribution.branches.1.weight f4 [4, 128]
00000000: 7289 6e3c 5946 e53b 7f2a c63b 7647 23bc
00000010: f146 29bb a82e c8b8 4ebd 89bb 7c4e e5bb
00000020: 3a94 5dbb c159 273c 567d c6bb 1c26 083c
00000030: 9126 133b ecb9 47bc fe56 27bc 81be 1cbc
00000040: c510 083c 05ea 123c f6ad 403c fdbf ef3a
00000050: b40a f938 caba 58bb ebd8 18bc 821a 593a
00000060: df46 31bc 0b10 623c f607 10bb 2205 a0bc
00000070: 657c c43b 68d4 383c 69dd e03b f31a 41ba
00000080: 7b26 b43b 630e d7ba 1571 f63b c1c5 713c
00000090: 19d8 51bc 7b85 c73c f0e5 e03c 3e0a 8f3b
000000a0: 0412 223c faa8 843c f920 8f3a 82a7 c13b
000000b0: 8b0c 02bc f309 30bc bb89 adbc cfea b5bb
000000c0: dc57 733c 2ed7 e93b 0421 21bc 3ae9 a23c
000000d0: 74f0 6b3c 5716 9b3c 7f47 ec3b 5856 cb3b
000000e0: 9984 f23b b685 683c 92c5 d0bb bc4d 7a3c
000000f0: b3a6 ae3b d698 8e3c 7542 dabb aa05 04bc
00000100: 23f2 f1bb 5630 383c d2b0 0a3d fd1e 60bb
00000110: 4dab 683c 7632 8f3b 10b5 ffb9 4820 78bc
00000120: 4a2e 073b 56da c63a dd99 8a3c eada 74bb
00000130: 8906 c33c b606 2dbb b6fb 58bc e059 633c
00000140: 4446 90bb 8762 67bb 5af9 233c 2d60 233c
00000150: 52f8 86bb 1d2f 4c3c 2d17 d7bb 4e54 30bb
00000160: 34e0 a13a 3402 023b 6ba0 0d39 fa37 8f3c
00000170: 9fc3 e3b8 45da 1d3c a844 e23b e915 7b3c
00000180: 5fc3 653c f536 1dbc adfb 973c 08e0 8a3b
00000190: 13f5 403c c45f f23b 8e84 26bb 614b 0d3c
000001a0: 6511 713a 8f82 dabb 9824 e1bb f0fb 253c
000001b0: 6612 e3bb 8402 143c 3ff4 253c cbe9 5bba
000001c0: f334 993b 322f 68bb 6784 cdb9 e870 843c
000001d0: e8d8 27bc c765 b03b d49b 6d3c 152f 8cba
000001e0: 40f5 e0bb 9b49 9d3b 7819 8c3b 3a99 2abc
000001f0: fd0e 6cbc ebb5 3d3c 2fb8 973c 46ce 893c
00000200: decf 9d3c d8d0 7f3b 97af e139 bd4a f5ba
00000210: 14be 373b 3e19 21bc 582c 49ba bce0 633b
00000220: b67f b1bb 802e d2bc 5bae 90ba d0f9 2c3c
00000230: 39b4 38bc 7ba0 823c 536e 3ebb d582 fa3a
00000240: 8cad 03bd 709f 483b a818 6dbb f450 70bc
00000250: 845f 66bb 9bb9 c2bb a2bd 523b dd7c e23b
00000260: a594 243c f8bd bdbc 9e74 41bc e01c 6c3c
00000270: 1cb5 93bc 6bb1 0c3b 7db8 8ebb d35b 89bb
00000280: d1c0 4dbc 3e3f 283b e7b3 173c 6798 b1bb
00000290: f5b8 4f39 3ecf acbb 366f 1cbb 8a6a 7e3a
000002a0: 2549 d33b 6ff4 973c 0be6 8fba efcc 453c
000002b0: 2171 3fbc 1b79 6cbc f99e a6bc a846 27bc
000002c0: 57c3 313c a2ad d1bb 71fb 813a b728 f6bb
000002d0: 3bc0 b6bb 0d4d 0eba 6c51 90bc c352 073c
000002e0: cd29 0dbb c4b3 403c 671d 093c 7a63 353b
000002f0: 1d46 2cbc 3857 9abb 69ed 973c 25cb 153b
00000300: 7843 b1bb 2e72 a0bc 28f6 20bc 95bc 60bc
00000310: 041f 00bd c0ad f0bb 6ef5 123b b62d 50bb
00000320: ebc5 a83c f9d3 ff3a 129f 87bc ec51 3a3a
00000330: c9d6 aebc 140c b1ba bf32 253c 1333 853c
00000340: 1aaf ab3b 582a 263c a596 3cbc 67bb 87bc
00000350: 8b1b 303c ab48 8c3b 9bcd acba 8a00 28bb
00000360: 3cd1 e7bb 7c30 d03b f664 133b 8537 80bc
00000370: 8fac 873b 7837 03bb c7d7 23bc 8b87 c43b
00000380: 58d0 b43b 1d00 abbb d756 1abb 4c67 913c
00000390: 8a81 acba a30a 41bc 2cd2 8e3c 18c7 7ebb
000003a0: 5030 2e3c af61 a5ba 9433 b4bb ac30 6fbb
000003b0: 8b72 a63b 8ae7 623b f3d7 ec3b b10b c93b
000003c0: 9c68 00bb 00b9 cb3b f28d 4dbb 48b2 6cbc
000003d0: eec0 c53b 4d81 213c 7129 7bbc f56f c7bb
000003e0: 4e3e 0cbc 6917 6ebb 5be3 04bc 4daa e13c
000003f0: d40f 913b 2119 24bc e3e1 44bb 899f 7f3b
0.014559137 0.0069969115 0.0060475464 -0.009965768 -0.0025829638 -9.5454336e-05 -0.004203475 -0.0069978815
-0.0033810274 0.01021427 -0.0060574217 0.008309867 0.0022453407 -0.012190323 -0.010213612 -0.009566904
0.008304779 0.008966927 0.0117602255 0.001829147 0.00011875239 -0.003307032 -0.009329061 0.0008281843
-0.01082012 0.01379777 -0.0021977401 -0.019533698 0.0059962743 0.01128111 0.0068623316 -0.00073663815
0.0054977513 -0.0016407486 0.0075208046 0.014756621 -0.012807869 0.02435564 0.027453393 0.0043652346
0.009891991 0.016193856 0.0010919861 0.005909861 -0.007937561 -0.01074456 -0.021183839 -0.005551673
0.01485249 0.007136247 -0.009834532 0.019886602 0.01440059 0.01893155 0.0072106714 0.0062053613
0.007401061 0.014192035 -0.0063712085 0.015277322 0.0053299307 0.017406862 -0.0066607543 -0.008057991
-0.0073836013 0.011241993 0.033860035 -0.0034198158 0.014200998 0.004370029 -0.00048772292 -0.015144415
0.0020626956 0.001517127 0.01691907 -0.0037361928 0.023806827 -0.0026401705 -0.013243606 0.013876408
-0.0044029076 -0.003530653 0.0100081805 0.009971661 -0.0041189576 0.012462405 -0.006564042 -0.0026905718
0.0012350143 0.001983774 0.00013506568 0.017482746 -0.00010860641 0.009634559 0.006905157 0.015325048
0.014023631 -0.009595622 0.018552626 0.0042381324 0.01177718 0.00739667 -0.0025408599 0.008623929
0.00091960124 -0.006668396 -0.0068708174 0.010130867 -0.0069296835 0.009033803 0.010129034 -0.0008389025
0.0046755015 -0.0035428521 -0.00039199294 0.01616712 -0.010244586 0.0053832266 0.014502484 -0.0010695184
-0.0068651736 0.004800034 0.004275497 -0.010412509 -0.01440787 0.011579017 0.018520443 0.016821992
0.019264158 0.0039034393 0.0004304617 -0.001871429 0.002803688 -0.009832678 -0.0007674149 0.0034771403
-0.0054168357 -0.025656939 -0.001103829 0.010557607 -0.011273437 0.015945664 -0.0029057458 0.0019112477
-0.03214793 0.003061261 -0.0036178026 -0.014667738 -0.0035152147 -0.005942536 0.0032156487 0.0069118575
0.010045205 -0.023161873 -0.011807589 0.014411181 -0.018030696 0.0021468054 -0.004355489 -0.0041918545
-0.012558178 0.002567246 0.009259201 -0.005419779 0.0001980996 -0.0052737286 -0.0023869998 0.00097052066
0.0064479285 0.018549172 -0.0010978592 0.012072786 -0.011684687 -0.014433171 -0.020339476 -0.010209717
0.010849795 -0.0063988725 0.0009916854 -0.007512178 -0.005577115 -0.00054283516 -0.01761695 0.008259478
-0.0021539808 0.011761609 0.0083688265 0.00276777 -0.010514763 -0.0047101043 0.018545823 0.002285668
-0.005409654 -0.019585695 -0.009824313 -0.013716836 -0.03127958 -0.0073449314 0.002242412 -0.0031765527
0.020602187 0.0019518129 -0.016555343 0.0007107544 -0.021342652 -0.0013507628 0.0100829 0.016259706
0.0052393796 0.0101419315 -0.011510526 -0.016568853 0.010748754 0.0042811236 -0.0013183834 -0.0025635087
-0.007074503 0.006353436 0.0022490597 -0.015651474 0.0041404436 -0.0020022076 -0.010000176 0.0059976033
0.0055180006 -0.0052185194 -0.0023550296 0.017749451 -0.0013161164 -0.011782321 0.017434202 -0.0038875993
0.010631636 -0.0012617613 -0.0054993127 -0.0036497517 0.0050795726 0.0034622871 0.0072278916 0.006135427
-0.0019593602 0.006217122 -0.0031365124 -0.014446802 0.006034962 0.009857488 -0.015329705 -0.0060863444
-0.0085597765 -0.0036329872 -0.008110846 0.027547026 0.0044269357 -0.010015757 -0.0030041866 0.0039005002

action_model._discrete_distribution.branches.1.bias f4 [4]
00000000: 196a babb e4e9 99bb 250e 193c 1a1c 863a
-0.0056889174 -0.0046970714 0.009341751 0.0010231764
