Assets/NNModels/GoInCorrectWay.onnx (onnx, 8779 bytes, 7 tensors)

discrete_act_size_vector f4 [1, 2]
3.0 4.0
00000000: 0000 4040 0000 8040

network_body._body_endoder.seq_layers.0.weight f4 [20, 22]
-0.1362045 -0.21812622 -0.113954 0.07626689 0.015494416 -0.19333197 -0.109713525 -0.17049327
0.13323632 0.05632427 0.54345924 0.15329358 0.18500906 -0.04369413 -0.19537364 0.3077298
0.11769857 0.025123032 -0.31183428 -0.10101377 0.08673163 0.038191505 -0.05080942 -0.21233225
-0.3753288 -0.3205189 0.038917094 0.5958025 -0.08563142 -0.38315648 -0.08075819 -0.5546847
0.07325148 0.12225614 0.15343261 0.009339556 -0.377585 0.26214716 0.12005929 -0.05044353
-0.09100639 -0.117626585 -0.250314 0.08441899 -0.14188373 0.11405295 0.28548092 0.14895728
0.16212976 0.0842592 0.2497814 0.48033354 -0.20918086 0.3048943 0.052409843 0.15028958
0.088216 0.32343915 -0.0055449167 0.2554648 0.1020881 0.47230795 -0.5107728 -0.16954368
-0.24494976 -0.08792154 -0.123749524 -0.3997719 0.063811235 0.022329224 0.11585966 -0.26972193
-0.13138233 -0.15915261 -0.02084758 0.6758301 -0.078297414 -0.30333424 -0.056226864 0.119474106
0.39209276 -0.19515 0.23435669 0.36854848 0.5400932 0.27178565 0.20823501 -0.09224769
-0.48577836 -0.09616045 0.2114243 0.13673696 0.15997453 -0.3203188 -0.089531824 0.1297675
0.13806047 0.27069554 -0.11655158 -0.06119208 0.17432894 -0.04044782 -0.26632267 -0.30161074
-0.0052404236 -0.044099975 -0.14133139 0.07819845 -0.00949896 0.27324972 -0.25487372 0.18746972
-0.0480031 0.06332103 -0.033855453 0.31701416 -0.27133244 0.056291454 -0.28035676 0.1311352
-0.39483827 -0.09758172 -0.15073913 0.054453816 -0.02556297 0.050507564 0.1246485 0.029416999
-0.2656192 -0.092208475 0.19131768 -0.027860887 0.21250525 -0.029689636 -0.052579816 0.057600882
-0.031551115 -0.33465078 0.013858529 0.15284738 0.118194595 0.083236866 -0.124404415 -0.0007830069
-0.12424939 0.09848244 0.16814145 0.1429163 0.4049882 0.07180131 0.35355884 -0.019807512
-0.04650641 0.5138149 -0.22274208 -0.092125796 -0.47709635 0.21966413 0.16493964 0.37920767
0.065570295 0.051303003 -0.19407697 -0.507954 0.021619722 -0.013994392 -0.33353359 -0.19075747
0.0041054953 0.115178764 -0.6263358 -0.122096166 -0.033440188 0.11980108 -0.1243458 0.09365624
0.26219612 0.45269355 0.4812014 -0.12620735 -0.15965776 0.42790076 -0.048148774 -0.043065276
-0.28172594 0.27261966 0.07554272 -0.33986717 0.093696766 0.030980777 0.14512752 0.12584148
0.1682984 0.23492149 -0.16837473 0.34977868 0.0456176 0.0831969 -0.03327064 0.07985778
-0.16369146 0.04378124 0.42704248 0.28401095 -0.16110793 0.05921588 0.016842637 -0.11776883
0.23737293 -0.080652885 0.24339825 0.2590775 0.036125682 0.103919625 0.15881026 0.20988439
-0.34315777 0.24037339 -0.05957536 -0.11754753 -0.10273439 -0.1365521 0.24547261 0.08484792
-0.05752168 -0.24715115 0.044801705 0.11214319 0.50791377 0.22474921 0.29797187 -0.055249173
0.18581621 0.16621478 -0.29681367 0.1429562 0.3246519 0.3586975 -0.19295135 0.16344076
0.16633664 -0.38210067 0.13495664 -0.102582686 -0.07022396 0.29867592 -0.12857476 0.061430566
0.29653278 0.24578448 0.19944964 0.38384593 -0.2428705 -0.080229394 0.35615236 0.13338707
00000000: 3179 0bbe 7b5c 5fbe b760 e9bd d131 9c3d
00000010: 4adc 7d3c d1f8 45be 7cb1 e0bd ca95 2ebe
00000020: 1a6f 083e 47b4 663d 2520 0b3f fef8 1c3e
00000030: 0473 3d3e 9ef8 32bd 0710 48be c38e 9d3e
00000040: f30b f13d d1ce cd3c bea8 9fbe 4fe0 cebd
00000050: 5aa0 b13d b26e 1c3d 8a1d 50bd a06d 59be
00000060: 192b c0be 0e1b a4be 8867 1f3d 8386 183f
00000070: 875f afbd 162d c4be 8d64 a5bd d1ff 0dbf
00000080: df04 963d 6d61 fa3d 701d 1d3e f004 193c
00000090: d252 c1be 2738 863e a5e1 f53d e09d 4ebd
000000a0: 8f61 babd 35e6 f0bd 2829 80be dde3 ac3d
000000b0: f849 11be 9894 e93d 8e2a 923e 4288 183e
000000c0: 5805 263e 1690 ac3d b2c6 7f3e 47ee f53e
000000d0: 8233 56be 1b1b 9c3e b4ab 563d 83e5 193e
000000e0: 97aa b43d d199 a53e 22b2 b5bb 48cc 823e
000000f0: 9113 d13d 59d2 f13e 02c2 02bf dc9c 2dbe
00000100: 1cd4 7abe 3510 b4bd 6470 fdbd e7ae ccbe
00000110: 77af 823d c7eb b63c d447 ed3d fe18 8abe
00000120: 1789 06be e7f8 22be 8bc8 aabc 3403 2d3f
00000130: 655a a0bd a04e 9bbe 244e 66bd d7ae f43d
00000140: 62c0 c83e 67d5 47be 33fb 6f3e 63b2 bc3e
00000150: 8c43 0a3f 7d27 8b3e 8f3b 553e 5bec bcbd
00000160: f1b7 f8be c5ef c4bd 9d7f 583e c604 0c3e
00000170: 5dd0 233e d300 a4be 765c b7bd c6e1 043e
00000180: b95f 0d3e 9b98 8a3e 98b2 eebd 8ca4 7abd
00000190: 4983 323e 9dac 25bd 725b 88be b96c 9abe
000001a0: dcb7 abbb 2da2 34bd 2db9 10be 8226 a03d
000001b0: 87a1 1bbc 63e7 8b3e cf7e 82be 10f8 3f3e
000001c0: e69e 44bd 75ae 813d 04ac 0abd ae4f a23e
000001d0: 16ec 8abe de91 663d ec8a 8fbe 4e48 063e
000001e0: 3e28 cabe edd8 c7bd 5c5b 1abe f70a 5f3d
000001f0: 6f69 d1bc 05e1 4e3d b647 ff3d ebfb f03c
00000200: 3dff 87be ccd7 bcbd c8e8 433e 843c e4bc
00000210: fa9a 593e ae37 f3bc ef5d 57bd e7ee 6b3d
00000220: be3b 01bd 5957 abbe e20e 633c 0684 1c3e
00000230: 0210 f23d 1778 aa3d bec7 febd b442 4dba
00000240: 7776 febd 29b1 c93d 462d 2c3e a758 123e
00000250: 9d5a cf3e 910c 933d aa05 b53e 5d43 a2bc
00000260: 817d 3ebd 6089 033f 8016 64be 73ac bcbd
00000270: f945 f4be a2ef 603e f0e5 283e 8227 c23e
00000280: b849 863d 1923 523d 1dbc 46be 4609 02bf
00000290: d81b b13c bc48 65bc eac4 aabe ed55 43be
000002a0: 6487 863b d8e2 eb3d 8b57 20bf 8e0d fabd
000002b0: 94f8 08bd 455a f53d 03a9 febd d8ce bf3d
000002c0: 923e 863e 73c7 e73e 0860 f63e 803c 01be
000002d0: 537d 23be cf15 db3e a637 45bd 3765 30bd
000002e0: 623e 90be ce94 8b3e 24b6 9a3d 1203 aebe
000002f0: 17e4 bf3d 66cb fd3c 4f9c 143e 97dc 003e
00000300: 6a56 2c3e 428f 703e 6d6a 2cbe 3116 b33e
00000310: 85d9 3a3d 2363 aa3d cb46 08bd 7a8c a33d
00000320: bc9e 27be f553 333d 50a5 da3e e269 913e
00000330: 7af9 24be 5a8c 723d 92f9 893c c930 f1bd
00000340: e411 733e 572d a5bd 643d 793e cea5 843e
00000350: 86f8 133d d0d3 d43d 289f 223e efeb 563e
00000360: 60b2 afbe 7124 763e 4b05 74bd c2bc f0bd
00000370: 6866 d2bd 50d4 0bbe 2c5d 7b3e bfc4 ad3d
00000380: da9b 6bbd 3115 7dbe fe81 373d 54ab e53d
00000390: a306 023f a824 663e c58f 983e f54c 62bd
000003a0: 9b46 3e3e 3534 2a3e f6f7 97be 1c63 123e
000003b0: c638 a63e 33a7 b73e 0a95 45be 045d 273e
000003c0: 2754 2a3e b3a2 c3be 1332 0a3e df16 d2bd
000003d0: 94d1 8fbd 0dec 983e 1aa9 03be 9e9e 7b3d
000003e0: 25d3 973e edae 7b3e 873c 4c3e 7487 c43e
000003f0: 0bb3 78be 4f4f a4bd 9a59 b63e 9f96 083e

network_body._body_endoder.seq_layers.0.bias f4 [20]
0.115372725 0.0021924083 0.15986602 0.086127646 0.05166172 0.06590603 0.1413356 -0.065671414
0.11866128 0.12636757 0.13932967 0.046955287 0.16624577 0.139866 -0.090915 0.1293509
0.100815445 0.1231424 0.1504956 0.088513166
00000000: 8948 ec3d 82ae 0f3b ebb3 233e b163 b03d
00000010: 3d9b 533d bef9 863d 48ba 103e bc7e 86bd
00000020: af04 f33d 8066 013e 70ac 0e3e 3054 403d
00000030: 553c 2a3e 0839 0f3e a531 babd 9074 043e
00000040: 5478 ce3d 1532 fc3d 851b 1a3e 6446 b53d

action_model._discrete_distribution.branches.0.weight f4 [3, 20]
-0.07519771 0.16841571 -0.057016026 -0.07416302 0.09589614 -0.042042434 -0.061002094 0.1351841
-0.14061038 -0.106356695 -0.14409167 -0.12356227 0.05348182 -0.11856439 0.06591083 -0.07647794
-0.104453675 -0.026189098 -0.043446034 0.007576658 0.19557084 0.089009464 0.16626273 -0.16724037
0.14141336 0.12531114 -0.3455683 -0.10412828 0.07688724 0.17976692 0.10062925 0.12734376
0.0962591 -0.054010354 0.009456401 -0.16950183 0.1581849 0.1956872 -0.30249828 0.13548592
-0.117910534 -0.12766948 -0.16913345 0.21350859 -0.19619504 -0.19665104 0.23784187 -0.04003408
-0.01510698 -0.19478689 0.0379784 -0.07443698 -0.06656576 0.13906549 -0.07816085 0.18644239
-0.11040974 -0.22830018 0.3150654 -0.14553434
00000000: 4201 9abd 2b75 2c3e a389 69bd c8e2 97bd
00000010: 3265 c43d b034 2cbd 55dd 79bd b36d 0a3e
00000020: 2bfc 0fbe 8ad1 d9bd c48c 13be 370e fdbd
00000030: c10f 5b3d e3d1 f2bd 42fc 863d 77a0 9cbd
00000040: cfeb d5bd 858a d6bc 78f4 31bd 9d45 f83b
00000050: b943 483e 984a b63d c740 2a3e 0f41 2bbe
00000060: aace 103e 9051 003e 54ee b0be 3541 d5bd
00000070: 0f77 9d3d d214 383e b516 ce3d 6766 023e
00000080: 7e23 c53d f639 5dbd 05ef 1a3c e391 2dbe
00000090: 39fb 213e 3a62 483e 0ee1 9abe d2bc 0a3e
000000a0: 147b f1bd cabb 02be 5231 2dbe ffa1 5a3e
000000b0: 5ae7 48be e45e 49be d28c 733e c7fa 23bd
000000c0: 4483 77bc 3776 47be 3d8f 1b3d 6a72 98bd
000000d0: a153 88bd 2f67 0e3e cc12 a0bd c1ea 3e3e
000000e0: 801e e2bd 86c7 69be 4150 a13e f406 15be

action_model._discrete_distribution.branches.0.bias f4 [3]
-0.15409014 0.078555785 0.03534943
00000000: cec9 1dbe dbe1 a03d 90ca 103d

action_model._discrete_distribution.branches.1.weight f4 [4, 20]
0.00015623293 0.0646397 -0.032566745 0.03972112 0.019288493 -0.0030086825 0.049082685 0.014491254
-0.014558442 0.030075636 -0.0052258037 -0.016920827 -0.035574265 0.016804015 -0.0063835704 0.024451803
-0.015270181 -0.023634668 0.026899524 0.0080189565 0.005986921 -0.013649726 0.013884206 0.0054000616
0.06078554 0.066688165 -0.023323435 0.067262284 0.017650653 -0.018841716 0.019008977 0.05215973
0.010337071 -0.017986739 0.0017683819 -0.007337832 0.023893332 0.02859527 -0.04926155 0.0056467582
-0.05395389 0.04940147 -0.00809129 -0.017585583 -0.10432258 -0.1355761 -0.03863245 0.016887385
-0.02240393 -0.07074301 -0.0146342255 -0.07060188 -0.030319879 0.062006798 -0.0108908685 0.038692895
-0.056056183 -0.07830385 0.045520753 -0.054646224 0.016867023 -0.09576489 0.0641985 0.004080928
-0.024899412 0.008531011 0.015160478 -0.09169009 0.09350519 0.07386335 0.05727559 0.021467568
0.041733235 0.047978755 -0.004783726 -0.010785047 0.080268785 0.016731877 0.04899291 0.025965193
00000000: 75d2 2339 d261 843d b564 05bd 9db2 223d
00000010: e702 9e3c 512d 45bb ed0a 493d ba6c 6d3c
00000020: 8886 6ebc 2e61 f63c 383d abbb 8c9d 8abc
00000030: 52b6 11bd 93a8 893c 452d d1bb 264f c83c
00000040: c82f 7abc 7e9d c1bc 645c dc3c f161 033c
00000050: ef2d c43b 1aa3 5fbc 957a 633c 00f3 b03b
00000060: 42fa 783d ce93 883d ca10 bfbc cfc0 893d
00000070: 1a98 903c f159 9abc b7b8 9b3c 71a5 553d
00000080: d15c 293c ed58 93bc 0dc9 e73a 3272 f0bb
00000090: f3bb c33c a140 ea3c 7bc6 49bd 7108 b93b
000000a0: c1fe 5cbd 3259 4a3d 5491 04bc a40f 90bc
000000b0: 14a7 d5bd 76d4 0abe 0f3d 1ebd 6a57 8a3c
000000c0: 7288 b7bc b6e1 90bd 64c4 6fbc b897 90bd
000000d0: 6561 f8bc d7fa 7d3d 9d6f 32bc 717c 1e3d
000000e0: 2b9b 65bd c55d a0bd f873 3a3d b8d4 5fbd
000000f0: b62c 8a3c 6220 c4bd 817a 833d 4eb9 853b
00000100: daf9 cbbc a7c5 0b3c a763 783c 04c8 bbbd
00000110: a67f bf3d ab45 973d cf99 6a3d c1dc af3c
00000120: 78f0 2a3d 5f85 443d cdc0 9cbb c4b3 30bc
00000130: f663 a43d 4a11 893c caac 483d f5b4 d43c

action_model._discrete_distribution.branches.1.bias f4 [4]
-0.037691236 -0.033271622 -0.0046061347 0.07027689
00000000: 2062 1abd d347 08bd 0fef 96bb 55ed 8f3d
