Assets/NNModels/GoInCorrectWayModel.onnx (onnx, 89250 bytes, 9 tensors)

discrete_act_size_vector f4 [1, 2]
0	0x40400000	3.0
1	0x40a00000	5.0

network_body._body_endoder.seq_layers.0.weight f4 [128, 22]
0	0xbe1d653f	-0.15370654
1	0xbf23d6c0	-0.6399956
2	0x3d8e5bf3	0.06951132
3	0x3e4b4956	0.19852194
4	0x3cd0f604	0.025507934
5	0xbde38d65	-0.11110953
6	0x3dc3922d	0.09549365
7	0x3c5b9a10	0.013403431
8	0x3cca9ea6	0.024733853
9	0x3db478d6	0.0881211
10	0x3e86108a	0.26184493
11	0x3e3e433c	0.18580335
12	0x3ea4ab87	0.32162115
13	0x3ba8560e	0.0051372116
14	0x3da782b4	0.081792265
15	0xbe7d0fa6	-0.24713
16	0x3e1b284d	0.15152092
17	0xbc9611ab	-0.018318972
18	0xbda0d70c	-0.07853517
19	0x3e2d1885	0.16903885
20	0x3e99b02c	0.3001722
21	0xbe741cb5	-0.23839076
22	0xbe96925f	-0.29408547
23	0x3f22f22b	0.6365077
24	0xbe99876b	-0.29986128
25	0x3e628b33	0.22123413
26	0xbe08c4f7	-0.13356386
27	0xbeae1282	-0.33998495
28	0x3ea37284	0.31923306
29	0x3d09ed43	0.033673536
30	0xbe57e6fb	-0.21084206
31	0x3da671dc	0.08127186
32	0x3ec8578c	0.39129293
33	0xbd11b393	-0.035571646
34	0x3d572619	0.052526567
35	0xbe867548	-0.26261353
36	0xbdf55378	-0.11978811
37	0xbe1d642a	-0.15370241
38	0xbefd86a2	-0.4951678
39	0xbdc0aa71	-0.09407509
40	0xbe461e0b	-0.19347398
41	0x3c7d12d4	0.0154463835
42	0xbe7b33d7	-0.24531494
43	0x3e881508	0.26578546
44	0xbe01c6f2	-0.12673548
45	0xbe40c276	-0.18824181
46	0x3db6c6ce	0.08924638
47	0xbee81ac9	-0.45332935
48	0xbe7fbb28	-0.24973738
49	0xbb103516	-0.0022004298
50	0x3e262c3d	0.16227813
51	0xbe48bc5b	-0.19603102
52	0xbd841257	-0.064488105
53	0x3e6044e7	0.21901284
54	0xbd9e6841	-0.077347286
55	0x3e077c04	0.13230902
56	0xbe90739a	-0.28213197
57	0x3dea54b1	0.11441935
58	0x3e282e61	0.16423942
59	0xbe37e433	-0.17958145
60	0xbb004980	-0.001957506
61	0xbe782b9f	-0.2423539
62	0x3ee6ec77	0.45102283
63	0x3c7ca515	0.015420218
64	0x3e3cbea0	0.18432093
65	0xbe2d2ec8	-0.16912377
66	0xbe998768	-0.2998612
67	0x3eabff5f	0.3359327
68	0xbd4be6b8	-0.049780577
69	0x3eb06a82	0.3445626
70	0xbcb9ee5e	-0.02269667
71	0x3cdd43fd	0.027009958
72	0xbea2a8a1	-0.3176928
73	0xbe3a8e87	-0.18218432
74	0xbde3084f	-0.11085569
75	0x3eb24d3d	0.34824553
76	0xbeac8cf9	-0.33701304
77	0x3e9f1f6b	0.31078658
78	0xbebe90a6	-0.37219733
79	0xbdfac79b	-0.12245103
80	0x3cb1a3e7	0.0216846
81	0xbe2a0f34	-0.16607362
82	0x3e502423	0.20326285
83	0x3d85d29f	0.065343134
84	0xbeaaa2f8	-0.3332746
85	0xbde7b923	-0.11314609
86	0xbe095732	-0.13412169
87	0x3e217180	0.15765953
88	0x3d9b3e61	0.07580257
89	0xbcdce6d6	-0.02696554
90	0xbe1fce8f	-0.1560614
91	0x3ebf1a8a	0.37324935
92	0x3e682789	0.22671331
93	0x3e8a06d9	0.2695835
94	0x3d97edbe	0.074183926
95	0x3ea327cf	0.3186631
96	0x3e8a7db4	0.2704903
97	0xbe29fb43	-0.16599755
98	0xbeab7c04	-0.33493054
99	0x3e924079	0.28564814
100	0xbeb5a07b	-0.35474
101	0x3e9b9d3e	0.30393404
102	0xbee693e4	-0.45034707
103	0x3c998612	0.018740688
104	0x3e4179a3	0.18894057
105	0x3e1fc949	0.15604128
106	0xbd1a5e89	-0.037687812
107	0x38b89830	8.802151e-05
108	0xbe36b899	-0.17843856
109	0xbe98acc8	-0.29819322
110	0x3e05e2e0	0.13074827
111	0x3e30dd3c	0.17271894
112	0xbe3715d3	-0.17879419
113	0xbe12ee92	-0.1434882
114	0x3f033a69	0.51261
115	0xbe8f855e	-0.2803144
116	0xbe5f64e5	-0.21815832
117	0x3db02373	0.086005114
118	0x3e9ba671	0.30400422
119	0xbc9f3eee	-0.019439187
120	0xbe7199c9	-0.2359382
121	0xbc72d8e7	-0.014822221
122	0xbe0d5e4c	-0.13805503
123	0xbe672f39	-0.22576608
124	0xbdc338b8	-0.095323026
125	0xbe3618ae	-0.17782852
126	0x3e84cb91	0.2593656
127	0xbdd78d2c	-0.10524973
128	0x3dbec108	0.093141615
129	0x3e794144	0.24341303
130	0x3be174a9	0.006880362
131	0x3ecaf4a4	0.3963977
132	0xbc360e22	-0.011111768
133	0xbf155b2d	-0.5834225
134	0xbec0df3f	-0.37670323
135	0x3c7fe7ee	0.015619261
136	0xbe82b64c	-0.25529706
137	0xbcd4060a	-0.025881786
138	0xbd8989d4	-0.06715742
139	0xbe492909	-0.1964456
140	0xbe19e207	-0.15027629
141	0x3e34a1ef	0.17639898
142	0xbeb3a95c	-0.35090148
143	0xbeb2e3b2	-0.34939343
144	0xbebe6bb3	-0.37191543
145	0x3e04939e	0.12946936
146	0x3e7389d8	0.23783052
147	0xbd3e7551	-0.0464986
148	0x3d65cd82	0.05610419
149	0xbe900563	-0.2812911
150	0x3e30993f	0.17245959
151	0xbe13a903	-0.14419942
152	0xbe6cd859	-0.23129405
153	0x3de865e8	0.11347562
154	0x3e37ec32	0.17961195
155	0xbe95687c	-0.29181278
156	0x3ac02b8e	0.0014661418
157	0xbe64bc7a	-0.22337523
158	0x3e61d82f	0.22055124
159	0x3d4d6fc9	0.050155435
160	0xbe2f94e9	-0.17146648
161	0x3e19e227	0.15027677
162	0xbe264061	-0.16235496
163	0x3e89ca89	0.26912335
164	0xbe94af1f	-0.29039857
165	0xbc3bfb4b	-0.011473487
166	0xbcd8c38a	-0.026460428
167	0x3ecd1642	0.40056044
168	0xbe7916af	-0.2432506
169	0x3de01c21	0.10942865
170	0x3dd5572a	0.10417016
171	0x3e800a74	0.25007975
172	0xbe580102	-0.21094134
173	0x3f14a73b	0.58067673
174	0x3eae20a7	0.34009287
175	0x3e31d2fc	0.1736564
176	0xbe2d5b8a	-0.1692945
177	0xbe66d432	-0.22541884
178	0xbdd94788	-0.10609347
179	0x3ea11d27	0.31467554
180	0xbd6af015	-0.057357866
181	0xbe065dd7	-0.13121735
182	0x3e4e6f34	0.20159608
183	0xbe19b9df	-0.1501231
184	0xbe68c0f2	-0.22729853
185	0xbedae641	-0.42753795
186	0xbdafa716	-0.08576791
187	0x3d90e8a6	0.07075624
188	0x3e680042	0.22656348
189	0x3ddb475d	0.10706971
190	0xbed1c66f	-0.40971705
191	0x3dfa04de	0.122079596
192	0xbe239230	-0.15973735
193	0xbea2e008	-0.31811547
194	0x3dcde07b	0.10052582
195	0xbe1c2ac2	-0.15250686
196	0xbea4764e	-0.3212151
197	0x3d435180	0.047685146
198	0x3e10271b	0.14077418
199	0x3eaca171	0.3371692
200	0xbe10c5bd	-0.14137931
201	0xbd9d1333	-0.076696776
202	0xbdc07479	-0.093972154
203	0xbcc8fbdd	-0.02453416
204	0xbe8bd597	-0.27311394
205	0x3ca64e06	0.020300876
206	0x3da922fd	0.082586266
207	0x3c345035	0.011005451
208	0x3e19ba22	0.1501241
209	0x3e8b64a4	0.2722522
210	0xbb9b6dbf	-0.0047433074
211	0x3d5c86a9	0.05383936
212	0xbe90e085	-0.28296295
213	0x3b45e924	0.0030198777
214	0x3d4560fa	0.048188187
215	0x3db97eae	0.09057365
216	0xbe57b1ad	-0.21063872
217	0xbee5e3a1	-0.4490023
218	0xbde0d5db	-0.1097829
219	0xbd9f2442	-0.077705875
220	0xbc75a6cf	-0.014993384
221	0xbd3d5b9c	-0.046229944
222	0xbe25c493	-0.16188268
223	0x3d86f57f	0.065897934
224	0x3ccc480d	0.0249367
225	0xbdf07d6d	-0.11742673
226	0x3cd78214	0.026307143
227	0xbe4e9ed8	-0.20177782
228	0xbea44722	-0.3208552
229	0xbe9fddc3	-0.31223878
230	0x3d29d55e	0.04146325
231	0xbe0b2292	-0.13587406
232	0x3dc8d8ec	0.098069996
233	0x3ded08dc	0.115739554
234	0x3d2a62c5	0.0415981
235	0x3e3a0130	0.18164515
236	0xbe459392	-0.19294575
237	0x3dcff80d	0.10154734
238	0xbc61c3a3	-0.013779554
239	0xbd3d455d	-0.046208728
240	0xbde6605e	-0.11248849
241	0x3ebfcc3a	0.374605
242	0xbe6e43cb	-0.23268048
243	0x3e850388	0.25979257
244	0x3e0a3115	0.13495286
245	0x3e3f803e	0.18701264
246	0x3dc7817b	0.09741493
247	0x3ea0f398	0.31435847
248	0xbe391fa3	-0.18078475
249	0x3d89543d	0.0670552
250	0xbe35a556	-0.17738852
251	0xbc9dc849	-0.019260542
252	0x3dbf8748	0.09351975
253	0xbc772663	-0.015084836
254	0xbd39a146	-0.045319818
255	0x3d8332e6	0.064061925

network_body._body_endoder.seq_layers.0.bias f4 [128]
0	0x3b95ba06	0.004569295
1	0xbd30906d	-0.043106485
2	0x3c3e3db9	0.0116113955
3	0x3d65da20	0.056116223
4	0xbc554656	-0.013017258
5	0x3c8a34e0	0.016870916
6	0xbd5ebfa6	-0.05438199
7	0x3d7e5cc0	0.062100172
8	0xbd041dac	-0.03225486
9	0x3bd649bc	0.0065395515
10	0xbca2f31b	-0.019891312
11	0xbd17f77d	-0.037101258
12	0xbd8bcca4	-0.068261415
13	0xbd92c9c4	-0.0716739
14	0xbd3c5465	-0.045978922
15	0x3d8e3947	0.069445185
16	0xbd71269a	-0.058874704
17	0xbd398ec0	-0.045302153
18	0x3cf244a0	0.029573739
19	0x3c539fb4	0.012916494
20	0x3cf2a13f	0.029617904
21	0xbd64c9fc	-0.05585669
22	0xbd4e4911	-0.05036265
23	0xbcec1465	-0.028818319
24	0x3c842921	0.016132893
25	0xbd5050f1	-0.05085844
26	0x3a3b14a6	0.0007136561
27	0x3d700cba	0.058605887
28	0xbd4b32d2	-0.049609013
29	0x3d6ed393	0.05830724
30	0xbca3e6e1	-0.020007553
31	0x3d11e0a0	0.03561461
32	0x3dbac7f5	0.0912017
33	0x3d8aa469	0.0676964
34	0x3d557ab2	0.052118964
35	0xbd0d66f0	-0.034521997
36	0xbd78dec9	-0.06075934
37	0x3d5b5816	0.053550802
38	0x3c5adf9b	0.013358976
39	0x3b1727b9	0.0023064448
40	0xbd9fadbb	-0.07796808
41	0xbc38ccac	-0.011279266
42	0x3d09f25f	0.03367841
43	0x3c62c095	0.01383986
44	0x3c796ce8	0.015223719
45	0xbc8f4028	-0.017486647
46	0xbcb36a79	-0.021901356
47	0xbca366cb	-0.019946476
48	0xbd43852d	-0.04773443
49	0xbd2ccab8	-0.042185515
50	0x3dbb3344	0.091406375
51	0xbd18bfb5	-0.0372922
52	0x3da7b338	0.0818848
53	0xbd1dd51e	-0.038533323
54	0xbd8b83f8	-0.068122804
55	0x3d994555	0.07483927
56	0x3d6bcd53	0.05756886
57	0xbd1bd5a7	-0.03804555
58	0xbd898f1a	-0.067167476
59	0x3dca80ee	0.09887873
60	0xbd801d1e	-0.06255554
61	0x3d89e47f	0.06733035
62	0xbca271f4	-0.019829728
63	0x3d8f97e7	0.07011395
64	0xbd82dcd6	-0.06389777
65	0xbb2cf595	-0.0026391495
66	0x3d2b535a	0.041827537
67	0x3d89228f	0.06696045
68	0x3d933825	0.07188443
69	0x3d65858d	0.056035567
70	0x3db0af63	0.08627202
71	0x3d4c5de0	0.049894214
72	0xbd00405d	-0.03131138
73	0x3d277131	0.040879432
74	0x3d418934	0.047249988
75	0xbd6aed4f	-0.05735522
76	0x3c2ef564	0.010678623
77	0x3d94ca63	0.07265165
78	0x3d0c5820	0.03426373
79	0xbd1d9a4e	-0.038477235
80	0xbccf6e2e	-0.025321092
81	0x3d7a67a2	0.06113399
82	0xbd8c4ae6	-0.06850223
83	0xbd15a222	-0.036531575
84	0x3d824bcc	0.06362113
85	0x3cf1c114	0.029511012
86	0xbd8f329e	-0.06992076
87	0xbb1ce116	-0.0023937873
88	0xbdeb12a8	-0.11478168
89	0x3d09bc06	0.03362658
90	0xbdcae38f	-0.099066846
91	0xbce80948	-0.028324738
92	0xbd64af8c	-0.055831477
93	0x3b973713	0.0046147197
94	0xbdaa8a16	-0.08327119
95	0xbb82fe85	-0.0039976262
96	0x3d981d14	0.07427421
97	0xbd4b6e85	-0.049665947
98	0xbbffd2aa	-0.0078070955
99	0xbcaa84cf	-0.020815281
100	0xbc976024	-0.01847846
101	0x3a0bd60c	0.00053343247
102	0x3daf4131	0.08557356
103	0x3c97f853	0.018551027
104	0x3ce95cd4	0.028486647
105	0xba8c0333	-0.0010682106
106	0x3d9fcb0a	0.078023985
107	0xbd70b064	-0.05876197
108	0x3d448a7b	0.047983628
109	0x3d0f9f94	0.035064295
110	0x3d2d241e	0.042270772
111	0xbcca002c	-0.024658285
112	0xbd879d38	-0.06621784
113	0x3d9df602	0.07712938
114	0xbd916751	-0.07099784
115	0x3db00038	0.08593792
116	0xbd5221f9	-0.05130193
117	0xbd184d66	-0.037183188
118	0x3d56c707	0.0524359
119	0xbd727346	-0.059191965
120	0x3b2a3af2	0.0025975076
121	0x3c20e43c	0.00982004
122	0x3c0085d6	0.007844409
123	0x3d02d3d6	0.031940304
124	0x3d6d4a5b	0.05793224
125	0xbcee6b18	-0.0291038
126	0x3d2d7c49	0.042354856
127	0x3d960402	0.07324983

network_body._body_endoder.seq_layers.2.weight f4 [128, 128]
0	0xbd110333	-0.03540344
1	0xbdf5588c	-0.119797796
2	0xbde14122	-0.10998751
3	0x3cc0ffca	0.02355947
4	0xbe73b792	-0.23800495
5	0xbc66f9a2	-0.014097603
6	0xbe3b8057	-0.18310677
7	0x3e0b6197	0.13611446
8	0xbab84140	-0.0014057532
9	0xba7a2ce9	-0.00095434353
10	0xbe6ce536	-0.23134312
11	0xbd3b1df3	-0.04568286
12	0xbc09d957	-0.008413634
13	0x3d1dfafa	0.038569428
14	0x3ab17988	0.0013540247
15	0x3d5d1348	0.053973466
16	0x3d9f205e	0.077698454
17	0x3da3da47	0.080006175
18	0xbd3eac47	-0.046551015
19	0x3c11bf35	0.008895685
20	0xbd3e4d29	-0.046460304
21	0xbd4e07d6	-0.05030044
22	0xbdf3b161	-0.11899067
23	0x3c2d489c	0.010576393
24	0xbd72b36e	-0.05925315
25	0xbd17c293	-0.037050795
26	0xbd2c1f22	-0.042021878
27	0xbdc23a8d	-0.09483824
28	0xbdd9794c	-0.10618839
29	0x3e160d76	0.14653572
30	0xbddffff3	-0.1093749
31	0xbd0eaaba	-0.034830786
32	0x3dca2df9	0.0987205
33	0xb91e30b7	-0.00015086202
34	0x3d21245d	0.03934132
35	0xbd6cb0d2	-0.057785816
36	0x3d5f5eff	0.054533955
37	0x3b132b1a	0.002245611
38	0xbdcd69d9	-0.100299545
39	0x3a3dfad3	0.00072471536
40	0xbca09192	-0.019600663
41	0xbe039d51	-0.1285298
42	0xbe0cd497	-0.13752972
43	0xbd0177dc	-0.031608447
44	0xbc777e9c	-0.01510587
45	0x3d60bc67	0.054867174
46	0xbe56974b	-0.20956151
47	0xbd7984f5	-0.060917813
48	0xbda3372b	-0.07969507
49	0xbc2a567a	-0.010396594
50	0x3e2f6e40	0.17131901
51	0xbd885538	-0.06656879
52	0xbdf85121	-0.12124849
53	0x3ce4cb1b	0.02792888
54	0xbddfa492	-0.10920061
55	0x3d3d0f67	0.046157267
56	0xbe76663a	-0.24062434
57	0xbdea5421	-0.114418276
58	0xbe165911	-0.14682414
59	0x3dbd8b88	0.09255129
60	0xbd9d0d83	-0.07668593
61	0x3b951771	0.0045499136
62	0xbe269634	-0.16268235
63	0xbdc7223d	-0.09723327
64	0xbcdea0da	-0.02717631
65	0x3aa01904	0.0012214486
66	0x3cc5bd80	0.024138212
67	0xbddd42e6	-0.108037755
68	0x3e00afbe	0.1256704
69	0x3daf5ec3	0.08562996
70	0x3e24c5b4	0.16091043
71	0x3d891390	0.066931844
72	0x3c777417	0.015103362
73	0x3cb14f19	0.021644162
74	0xbd7d0467	-0.061771777
75	0x3ce06f73	0.027396893
76	0xbd6b44e7	-0.057438757
77	0xbd823a64	-0.063587934
78	0xbe330eb5	-0.17486079
79	0xbdd7c6d5	-0.10535971
80	0xbce009df	-0.027348457
81	0xbdf5baf4	-0.11998549
82	0x3d7a0d4d	0.06104784
83	0x3d0002c8	0.031252652
84	0x3e1c5de4	0.15270191
85	0xbc9c7c3c	-0.019102208
86	0xbe0dad48	-0.13835633
87	0xbda70862	-0.08155896
88	0xbe7fde28	-0.2498709
89	0xbd6921a0	-0.056916833
90	0xbc3741fa	-0.011185164
91	0x3c80c343	0.015718108
92	0xbdd5c9f1	-0.10438908
93	0xbdb23f74	-0.08703509
94	0xbd2d4413	-0.04230125
95	0xbde8e7dd	-0.113723494
96	0xbdb99782	-0.09062101
97	0xbccf13f0	-0.025278062
98	0xbc21f260	-0.009884447
99	0xbd960553	-0.07325234
100	0x3b66cd72	0.003521767
101	0xbcffa9c7	-0.031208886
102	0x3d00eacf	0.03147393
103	0xbd43a621	-0.047765855
104	0x3da82a7b	0.082112275
105	0xbe4f51b7	-0.20246015
106	0x3de3ce82	0.111233726
107	0xbdd1658c	-0.10224447
108	0x3dcf28b3	0.10115185
109	0xbdbbd958	-0.091723144
110	0xbd84c799	-0.06483383
111	0xbbba8deb	-0.0056931875
112	0xbcd2373c	-0.025661103
113	0xbe1e9c16	-0.1548923
114	0xbccb25e6	-0.024798345
115	0xbdc36e11	-0.09542478
116	0xbe090b7c	-0.13383287
117	0xbd63343e	-0.055469744
118	0x3de0219b	0.1094391
119	0x3d4f81d9	0.05066094
120	0xbe4abaf0	-0.19797873
121	0xbc91e43e	-0.01780903
122	0xbdb5b7d9	-0.08872957
123	0xbc0b8564	-0.0085156895
124	0x3d8be7c6	0.06831317
125	0x3ca3f120	0.020012438
126	0xbcf35dc8	-0.029707804
127	0xbe492ebe	-0.19646737
128	0x3e2f657d	0.17128558
129	0x3c740edc	0.014896121
130	0x3d9f178a	0.077681616
131	0x3c0b77fc	0.008512493
132	0x3bcfe15d	0.006344004
133	0xbd1e1ef8	-0.038603753
134	0xbdcd32e5	-0.10019473
135	0xbcd57d06	-0.026060592
136	0xbcc72b93	-0.02431277
137	0xbd5ffe15	-0.05468567
138	0xbdacb240	-0.08432436
139	0x3db95649	0.09049661
140	0x3df9fdc5	0.12206606
141	0xbca6adec	-0.020346604
142	0x3da972c0	0.0827384
143	0xbd988093	-0.074463986
144	0x3d4b640d	0.049655963
145	0x3ddd2402	0.107978836
146	0xbe0c0e61	-0.1367736
147	0x3e86afcc	0.26305997
148	0xbd90564f	-0.07047712
149	0xbcbf3be3	-0.023343986
150	0x3d22086a	0.039558806
151	0x3dc90d83	0.0981703
152	0xbdfef94e	-0.12449895
153	0x3b84dbf2	0.00405454
154	0xbe623e3f	-0.22094058
155	0x3e13f210	0.14447808
156	0x3cfebfcb	0.031097313
157	0xbdce0ccf	-0.10061037
158	0xbe15336f	-0.14570402
159	0xbe342a96	-0.1759437
160	0xbd8aa73e	-0.0677018
161	0xbd70ac7d	-0.058758248
162	0x3c9d7ebc	0.01922547
163	0x3d50e6d3	0.05100138
164	0xbdfd7d64	-0.12377432
165	0xbd35ed29	-0.044415627
166	0xbd0a95d5	-0.033834297
167	0x3cb3a57d	0.021929497
168	0x3e0b546d	0.13606425
169	0xbd9df770	-0.077132106
170	0x3e077d5f	0.13231419
171	0x3de260a2	0.110535875
172	0x3d8a3bca	0.06749685
173	0xbe266501	-0.16249467
174	0xbe8acbed	-0.27108708
175	0xbd36d2a1	-0.044634465
176	0xbd07b506	-0.03313162
177	0xbbb2bdb8	-0.005454745
178	0x3d809031	0.06277502
179	0xbd9f639a	-0.07782669
180	0xbdf70fc2	-0.120635524
181	0xbd480f3f	-0.048842665
182	0xbe14aa60	-0.14518118
183	0xbcd1a397	-0.025590701
184	0xbd4ac58b	-0.049504798
185	0xbdd390d2	-0.10330357
186	0xbd24abec	-0.04020302
187	0xbe5b591a	-0.21420708
188	0xbe2ada13	-0.16684751
189	0xbd002761	-0.031287555
190	0x3dd8d9ba	0.10588403
191	0xbd2d73f7	-0.04234692
192	0xbdcc91f7	-0.09988778
193	0xbc8f7dca	-0.017516036
194	0x3ce65919	0.028118657
195	0x3d2931a0	0.04130709
196	0xbdc2f8c5	-0.09520105
197	0x3c1f6dcf	0.00973077
198	0x3ca16af3	0.019704318
199	0xbe8b8b32	-0.27254635
200	0x3d5849b5	0.052804668
201	0x3e54b0aa	0.20770517
202	0x3dc56cc7	0.09639888
203	0x3d64b772	0.05583901
204	0x3dd35f3c	0.10320899
205	0x3cdd8ea9	0.027045565
206	0xbcf353d1	-0.029703053
207	0xbbcc2243	-0.0062296703
208	0xbd96f09d	-0.07370112
209	0xbe28b4a6	-0.16475162
210	0xbc083fb7	-0.008315972
211	0xbccbd87b	-0.0248835
212	0xbce0a59b	-0.027422717
213	0x3d525f68	0.051360518
214	0x3dc55e11	0.09637082
215	0xbde394cd	-0.11112366
216	0x3dc1fe42	0.09472324
217	0x3dde41ac	0.1085237
218	0xbd1ad7ec	-0.037803575
219	0xbd76d513	-0.060261797
220	0xbdc8d34e	-0.09805928
221	0x3ca85edf	0.02055305
222	0x3d1d3e61	0.038389567
223	0xbdabe353	-0.08392968
224	0xbcf56628	-0.029955938
225	0x3d8fb323	0.070165895
226	0x3d79ea02	0.061014183
227	0x3cf1c2cb	0.02951183
228	0x3cb7905d	0.022407705
229	0xbce25daf	-0.027632562
230	0xbd1c5aaa	-0.0381724
231	0xbbc6b5ca	-0.0060641514
232	0x3df053a8	0.11734706
233	0xbdf75fa6	-0.1207879
234	0xbd9a131b	-0.07523175
235	0xbdaea2df	-0.08527159
236	0x3d096dc8	0.03355196
237	0xbc164394	-0.009171385
238	0xbd6e8c10	-0.058239043
239	0x3d8b108e	0.06790267
240	0x3d031eb3	0.0320117
241	0xbcd21028	-0.02564247
242	0x3e072822	0.13198903
243	0xbdf17292	-0.11789431
244	0x3dc91e17	0.09820192
245	0xbd3a7857	-0.04552492
246	0xbdaac629	-0.08338577
247	0x3d093834	0.033500865
248	0x3c211801	0.009832383
249	0x3c9cdae2	0.01914734
250	0xbaff30e1	-0.0019469523
251	0xbd361e98	-0.04446277
252	0x3dd46f8f	0.103728406
253	0x3c28da75	0.01030599
254	0x3d4a3269	0.04936448
255	0x3d1dcfc3	0.038528215

network_body._body_endoder.seq_layers.2.bias f4 [128]
0	0x3d957d0d	0.07299242
1	0x3b36bb7c	0.0027882745
2	0xbcea282f	-0.028583614
3	0xbcd03d0c	-0.025419734
4	0xbc1648ef	-0.009172662
5	0xbc50d571	-0.012746201
6	0xbcca0a7b	-0.0246632
7	0x3d3a0f0f	0.045424517
8	0x3d4dbbf4	0.050228074
9	0x3c27eecf	0.0102498075
10	0xbc1482c4	-0.00906438
11	0x3d3729f3	0.04471774
12	0xbd207406	-0.03917315
13	0x3d41f7dd	0.04735552
14	0x3d256969	0.04038373
15	0xbd1c17c7	-0.038108613
16	0xbd51b3f4	-0.051197007
17	0x3d97bbd0	0.07408869
18	0x3d9668f6	0.073442385
19	0x3d8e374a	0.06944139
20	0xbd1ac365	-0.037784
21	0xbc3c7b43	-0.011503997
22	0x3d4ab20a	0.049486198
23	0x3c139ee5	0.009010051
24	0xbcedf54c	-0.02904763
25	0xbd072247	-0.032991674
26	0x3d0ca751	0.034339253
27	0xbd924744	-0.07142499
28	0xbd477696	-0.048697077
29	0x3d32b598	0.043630213
30	0x3cfe819f	0.031067668
31	0x3c6ac9d5	0.014330347
32	0xbd3eca16	-0.046579443
33	0x3c218de2	0.009860488
34	0x3d95081a	0.07276936
35	0xbcb1c51a	-0.02170043
36	0xbcf72527	-0.030169083
37	0x3cbe913e	0.023262616
38	0xbd68af64	-0.05680789
39	0xbd0b33be	-0.033984892
40	0x3ce8a2ec	0.028398
41	0xbca321b0	-0.019913524
42	0x3d4ceb7e	0.05002927
43	0xbd26ee30	-0.040754497
44	0xbd46b16f	-0.048509058
45	0xbd62bfa6	-0.05535855
46	0xbcf43f29	-0.029815273
47	0xbcc468dc	-0.023975782
48	0xbd1ccee7	-0.038283255
49	0x3c9690e9	0.018379645
50	0x3cf42b4c	0.029805802
51	0xbd49fb72	-0.049312063
52	0x3d13115d	0.03590523
53	0x3cd07c9d	0.025450045
54	0x3ccfe314	0.025376834
55	0xbcfd2740	-0.030902505
56	0xbce0e1bb	-0.027451387
57	0x3d00b427	0.031421807
58	0x3d28b2ea	0.04118625
59	0x3cd10f02	0.025519852
60	0x3d40c846	0.047065996
61	0x3d347230	0.04405421
62	0xbcf49f2d	-0.029861057
63	0xbd7ce178	-0.06173846
64	0x3c24a80c	0.010049831
65	0xbbb9ab33	-0.0056661605
66	0xbd2b6f3e	-0.041854136
67	0x3ca3e8fb	0.020008555
68	0xbb017f2b	-0.0019759636
69	0x3ccc32d8	0.024926588
70	0x3d06ea94	0.032938555
71	0xbd17ea81	-0.037088875
72	0x3d23db7d	0.040004242
73	0xbcbf7823	-0.023372715
74	0xbd4da1b0	-0.050203025
75	0xbd12c716	-0.035834394
76	0xbd0625d8	-0.032750934
77	0xbcf3fc13	-0.029783284
78	0xbd0c5cd6	-0.034268223
79	0x3d912c5e	0.070885405
80	0xbc494e9c	-0.012286808
81	0x3b56676c	0.0032715453
82	0xbd579556	-0.052632652
83	0xbd041464	-0.03224601
84	0x3c8bccd1	0.017065438
85	0xbc336f9b	-0.010951902
86	0x3caa9d6c	0.020827018
87	0xbca946c9	-0.020663636
88	0x3b3de62a	0.00289763
89	0xbd5aa491	-0.0533796
90	0xbd5b2dda	-0.053510524
91	0xbab3f01d	-0.0013728176
92	0xbc9a55a0	-0.018839657
93	0xbc4958ce	-0.012289239
94	0xbd34ba75	-0.04412313
95	0xbd01d0dd	-0.03169333
96	0xbd0405be	-0.03223204
97	0xbbe5ea3e	-0.0070164492
98	0xbc283708	-0.010267027
99	0x3d40d6c4	0.047079816
100	0x3b552cd2	0.0032527936
101	0xbd5c5563	-0.05379237
102	0x3d5ec97b	0.054391365
103	0xbd34de0f	-0.044157084
104	0xbb1e3520	-0.0024140552
105	0xbcb31e2e	-0.021864977
106	0x3d0ae73d	0.033911932
107	0x3d0eaed4	0.034834698
108	0xbd81dc18	-0.06340808
109	0x3d2ecc48	0.042675287
110	0xbced60bb	-0.028976789
111	0xbcd42755	-0.025897661
112	0xbca0af2f	-0.019614784
113	0xbd1b24e3	-0.037876975
114	0xbbc7e9a1	-0.006100849
115	0xbd18a2d1	-0.03726465
116	0xbd38fc68	-0.04516259
117	0x3d4fab27	0.050700333
118	0x3bfef3cf	0.007780529
119	0x3cab363b	0.020899883
120	0xbc64cfa2	-0.013965519
121	0xbb1e77d0	-0.00241803
122	0xbb86ecad	-0.0041175694
123	0xbb3124a9	-0.0027029908
124	0xbd87a518	-0.06623286
125	0xbd395c01	-0.045253757
126	0xbca98ee7	-0.020698024
127	0x3dac1cf5	0.084039606

action_model._discrete_distribution.branches.0.weight f4 [3, 128]
0	0xbd411e60	-0.04714811
1	0xbc4540fe	-0.012039421
2	0xbb93cdd9	-0.004510623
3	0xbba565fc	-0.005047558
4	0x3a09b3b7	0.0005252915
5	0x3cd94ec9	0.026526826
6	0x3c0bb8ac	0.008527916
7	0xbcd16fbb	-0.025565973
8	0xbccb1f3f	-0.024795173
9	0xbb5424fb	-0.0032370675
10	0x3d62025f	0.055178043
11	0x3c207db0	0.009795591
12	0x3bd7b57d	0.0065829144
13	0xbc866589	-0.016405838
14	0xbc49f2ec	-0.0123259835
15	0x3d403a5b	0.046930652
16	0x3d94f558	0.07273358
17	0xbd037654	-0.03209527
18	0xbcaa4540	-0.020784974
19	0xbc9f3216	-0.019433063
20	0xbb835fee	-0.0040092384
21	0xbc23ad04	-0.009989981
22	0xbcfe38a1	-0.031032862
23	0x3d2c50b7	0.042069163
24	0x3c9294c9	0.017893212
25	0x3c3c1488	0.011479504
26	0xbc9747ba	-0.01846682
27	0x3d5ff9db	0.05468164
28	0x3d62f2f6	0.055407487
29	0xbc34f9ea	-0.011045912
30	0xbcaa8964	-0.020817466
31	0xb9c246d5	-0.00037055337
32	0x3d3d71d9	0.04625115
33	0xbbec985a	-0.00722031
34	0xbcb4fb2e	-0.022092428
35	0xbb67e574	-0.0035384567
36	0x3cd60bac	0.026128612
37	0xbb63f067	-0.0034780742
38	0x3d75709c	0.059921846
39	0xbbc54b1a	-0.0060209157
40	0xbba88aa1	-0.005143479
41	0x3c9278a4	0.017879792
42	0xbc5c01fa	-0.013428206
43	0x3c420508	0.01184202
44	0x3d0d3442	0.034473665
45	0x3d14b808	0.03630832
46	0x3d7ad6a2	0.061239846
47	0x3b8cceef	0.0042971293
48	0x3d590158	0.052979797
49	0x3cf648a7	0.03006394
50	0xbcffbe46	-0.03121866
51	0x3d0235bb	0.031789523
52	0x3c0adb97	0.008475206
53	0xbb2a8ba2	-0.002602317
54	0xbd0f7225	-0.035020966
55	0x3cccecae	0.025015201
56	0x3c805234	0.015664198
57	0xbc9009cf	-0.017582802
58	0xbc4f7287	-0.012661583
59	0xbc5a5929	-0.0133269215
60	0x3b6cfa12	0.0036159796
61	0xbcd9c177	-0.026581509
62	0x3bed0950	0.007233776
63	0x3d98a3f2	0.07453145
64	0xbc500c30	-0.012698218
65	0x3cc3fac9	0.023923295
66	0x3d1e74e3	0.03868569
67	0x3be5ebda	0.007016641
68	0x3c7d074f	0.015443637
69	0xbc6b1414	-0.014348049
70	0xbc4ac06b	-0.012374978
71	0x3d50e3a6	0.050998352
72	0xbcb37b0c	-0.02190926
73	0x3ceacfdb	0.028663566
74	0x3db4c66d	0.08826909
75	0x3c9db4ec	0.01925131
76	0x3c837559	0.016047167
77	0x3d00cb1e	0.031443708
78	0x3c83c36e	0.0160844
79	0xbcae025a	-0.021241356
80	0xbc169b55	-0.0091923075
81	0xbc6f4b0c	-0.014605295
82	0x3c8e9bd2	0.017408285
83	0x3dba5530	0.090982795
84	0xbb911746	-0.0044278232
85	0x3c603d8f	0.013686552
86	0xbc5cd746	-0.01347906
87	0x3ca63413	0.020288503
88	0x3c44d94c	0.012014698
89	0x3d8545da	0.06507464
90	0x3d9c9c55	0.076470055
91	0x3b942eae	0.004522166
92	0x3d9a278a	0.07527073
93	0x3d3451df	0.04402339
94	0x3bad74af	0.005293451
95	0x3c849a51	0.016186865
96	0x3d679030	0.056533992
97	0xbc1882ab	-0.009308497
98	0x3bd54bd3	0.006509283
99	0xba3b5f9b	-0.000714773
100	0x3d318ce3	0.04334725
101	0x3d20dee3	0.03927506
102	0xbd129959	-0.035790775
103	0x3d535944	0.051598802
104	0x3c6c2ed6	0.014415463
105	0x3d35075d	0.044196475
106	0xbc9155ca	-0.017741103
107	0xbc642e1f	-0.013927012
108	0x3c10d44d	0.008839679
109	0xbc204a0d	-0.00978328
110	0x3c95ab64	0.018270202
111	0x3c532cf7	0.012889138
112	0x3d9712db	0.07376643
113	0x3d268eca	0.040663518
114	0x3bb52c38	0.005528953
115	0x3d4a5090	0.049393237
116	0x3d831266	0.063999936
117	0xbca3cd91	-0.019995483
118	0xbb88fa9d	-0.004180266
119	0xbc6b9cc5	-0.0143806385
120	0x3da8048f	0.082039945
121	0x3d171575	0.036885697
122	0x3cd102ac	0.02551397
123	0x3c927bcb	0.017881295
124	0x3cfec432	0.031099413
125	0x3cc9bd8c	0.024626516
126	0x3a2f4a76	0.0006686816
127	0x3c4af328	0.0123870745
128	0x3e1f1f0c	0.15539187
129	0x396e2d64	0.00022714358
130	0xbc88c68e	-0.01669624
131	0xbb666cc7	-0.0035160051
132	0x3afbe23b	0.0019217202
133	0xbc57f9cd	-0.013182116
134	0xbc0dd5e7	-0.008656955
135	0x3b4c935d	0.0031215765
136	0x3daf7a8b	0.08568295
137	0xbbe3a88b	-0.006947582
138	0x3c248c98	0.010043286
139	0x3d3b7667	0.045767214
140	0x3bc6348e	0.0060487455
141	0xbd1b70c6	-0.037949346
142	0x3c81de04	0.015852936
143	0xbd484484	-0.048893467
144	0xbdd52af4	-0.10408583
145	0xbd847b79	-0.06468863
146	0xbc8e6ca4	-0.017385788
147	0xbd1e3f3e	-0.03863453
148	0xbbeae49d	-0.007168366
149	0xbc01fa7c	-0.007933255
150	0x3c329d24	0.010901723
151	0x3c9c610f	0.01908925
152	0xbc2073eb	-0.009793262
153	0x3af9c988	0.0019057253
154	0xbcd9f0cd	-0.02660408
155	0xbd6cc6e0	-0.05780685
156	0xbda050d3	-0.07827916
157	0x3ce65bf7	0.028120024
158	0x3a231f8b	0.0006222657
159	0xba7a1e97	-0.00095413014
160	0xbd0532b9	-0.032519076
161	0x3c37f727	0.011228359
162	0xbd68865a	-0.056768753
163	0x3c067d34	0.008208562
164	0x38d7d070	0.000102908234
165	0x3cc59ec3	0.024123555
166	0xbd9ed876	-0.077561304
167	0xbc3410f2	-0.010990368
168	0x3ca3ddd7	0.020003242
169	0x3bc07fd1	0.005874612
170	0x3b0ede9f	0.0021800173
171	0xbbff663d	-0.00779417
172	0xbda1019f	-0.07861637
173	0xbd8331bd	-0.06405971
174	0xbd018598	-0.031621546
175	0x3c0df293	0.008663791
176	0xbd831af4	-0.06401625
177	0xbda19416	-0.07889573
178	0xbc31c655	-0.010850509
179	0xbdb055d1	-0.08610118
180	0x3d95cee0	0.07314849
181	0x3c5e5e4a	0.013572285
182	0x3a755aa8	0.0009359517
183	0x3bc2c374	0.00594371
184	0x3aebc608	0.0017988095
185	0x3c33d871	0.010976897
186	0xbe00d8d9	-0.12582721
187	0xbbcf06f8	-0.0063179694
188	0xbe1da626	-0.15395412
189	0x3d9d5b03	0.07683375
190	0x3b95829f	0.0045626904
191	0xbdc9b6f4	-0.09849349
192	0x3c825cd3	0.015913403
193	0x3bbe443b	0.0058064735
194	0x3a694d20	0.0008899737
195	0x3d0c89cb	0.034311097
196	0xbb38eff5	-0.0028219197
197	0xbc106874	-0.008813966
198	0xbb9b614f	-0.0047418247
199	0xbd59ba3f	-0.053156134
200	0x3c102fac	0.008800428
201	0xbc2d15bd	-0.010564265
202	0xbdd6cf3c	-0.104887456
203	0xbc56ce7e	-0.013110755
204	0xbd4cbc8c	-0.0499845
205	0xbd8b6c6b	-0.068077885
206	0xbb3ceb84	-0.0028826902
207	0xbd1d4d17	-0.038403597
208	0xb9aa69f8	-0.0003250388
209	0x3c48e62b	0.012261908
210	0xbb91811a	-0.004440439
211	0xbdd96852	-0.10615601
212	0x3c579e4d	0.0131603
213	0xbcf86cc8	-0.030325308
214	0x3cbdec30	0.023183912
215	0xbc9a0907	-0.018803133
216	0xba796b1f	-0.00095145585
217	0xbda7a663	-0.081860326
218	0xbd8d8420	-0.069099665
219	0xbae93f5c	-0.0017795372
220	0xbd70cb23	-0.058787476
221	0xbc2d7ac8	-0.010588355
222	0xbaf28f07	-0.001850576
223	0xbb742317	-0.003725236
224	0xbd4f354d	-0.05058794
225	0xbbad9015	-0.005296717
226	0x3bb45b57	0.0055040526
227	0x3ce29a4d	0.027661467
228	0xbc02a8f2	-0.00797485
229	0xbd9b2daa	-0.07577069
230	0x3e03798b	0.12839334
231	0xbdd0c731	-0.10194243
232	0x3c53264c	0.012887549
233	0xbbba6227	-0.00568797
234	0xbdb0351e	-0.08603881
235	0x3ca672a0	0.02031833
236	0x3c1ffa35	0.009764244
237	0x3981ffc6	0.00024795363
238	0xbbad8cc9	-0.005296324
239	0x3a5623d1	0.0008168789
240	0xbd18c492	-0.03729684
241	0xbc8db9f8	-0.01730059
242	0x3aac7078	0.0013156077
243	0xbdbaddb6	-0.09124319
244	0xbd1412f0	-0.036150873
245	0xbc39eaa9	-0.011347451
246	0x3bc8d64a	0.006129061
247	0xbbdba443	-0.006702931
248	0xbcc1a75e	-0.023639377
249	0xbc254b43	-0.010088745
250	0x3cbd3e9b	0.023101142
251	0x3b889618	0.004168283
252	0xbd978182	-0.073977485
253	0xbc864974	-0.016392447
254	0x3c3fe167	0.011711455
255	0x3da51189	0.08059985

action_model._discrete_distribution.branches.0.bias f4 [3]
0	0xbd622287	-0.05520871
1	0x3c88796a	0.016659457
2	0x3cd84ce5	0.026403854

action_model._discrete_distribution.branches.1.weight f4 [5, 128]
0	0xbc25b656	-0.010114273
1	0xbbed1e3b	-0.00723627
2	0xbbe9509c	-0.007120205
3	0xbba4f406	-0.0050339727
4	0x3b6fb47b	0.003657608
5	0xbd2d4865	-0.04230537
6	0x3b38fe22	0.0028227647
7	0x3c08bad1	0.008345322
8	0xbbc5eb50	-0.0060400143
9	0x3c39a826	0.011331594
10	0xbca73722	-0.020412032
11	0x3ae39468	0.0017362954
12	0xbc9d83a8	-0.019227818
13	0x3c287107	0.010280854
14	0x3ad1974c	0.0015990525
15	0xbd06036a	-0.0327181
16	0xbd56b316	-0.052416883
17	0x3c303062	0.010753723
18	0x3ca69f21	0.02033955
19	0x3c3153f4	0.010823239
20	0xbc9bc769	-0.019015985
21	0x3c291e50	0.0103221685
22	0x3a672754	0.0008817811
23	0xbbf0f1a4	-0.0073530246
24	0xbd331e01	-0.043729786
25	0xbcbbd744	-0.022929795
26	0x3b7f12fe	0.0038921232
27	0xbd048f1d	-0.032363046
28	0xbd60661c	-0.05478488
29	0x3c026c93	0.007960456
30	0x3c1e46a1	0.009660394
31	0x3ba8725c	0.005140586
32	0xbd15d050	-0.036575615
33	0x3bf5fd13	0.0075069754
34	0x3c1434d3	0.009045797
35	0xbc1ac27a	-0.009445781
36	0xbc3ba33d	-0.011452493
37	0x3aaaa767	0.001301986
38	0xbd4e5e13	-0.050382685
39	0xbc2ef5f7	-0.01067876
40	0x3bb16936	0.0054141534
41	0x3c3ad4c9	0.011403271
42	0x3bcaa620	0.0061843544
43	0xbcae5ea4	-0.021285363
44	0xbd151b4b	-0.03640298
45	0xbd4412a1	-0.04786933
46	0xbd42d071	-0.047562066
47	0xbb5bdcc2	-0.003354833
48	0xbd78526a	-0.06062547
49	0xbc165d2e	-0.009177489
50	0x3c5e0f06	0.013553387
51	0xbd4818a2	-0.048851617
52	0x3d0544f8	0.032536477
53	0x3c323830	0.010877654
54	0xbb41fc20	-0.002959974
55	0xbcbacc82	-0.022802595
56	0xbb6a3ef2	-0.0035743085
57	0x3c27568d	0.010213506
58	0xbbcd5594	-0.006266305
59	0x3ac962c2	0.0015364515
60	0xbcbded1c	-0.023184352
61	0xbb2c0683	-0.0026248998
62	0xbc177f59	-0.009246671
63	0xbd3c5926	-0.045983456
64	0xbc2c5828	-0.010519065
65	0xbc811b27	-0.015760018
66	0xbcd351b7	-0.0257958
67	0xbb6b9ae1	-0.003595047
68	0x3be06c17	0.006848823
69	0x3cfd0718	0.030887172
70	0x3bd556f1	0.0065106084
71	0xbd7b75f3	-0.061391782
72	0x3c612a25	0.013742958
73	0xbc3c60ca	-0.011497686
74	0xbd46e19d	-0.048555005
75	0xbd6b464b	-0.057440083
76	0xbd3daaf7	-0.046305623
77	0xbd35aa6a	-0.044351973
78	0xbd2b3234	-0.041795924
79	0x3cd0f957	0.02550952
80	0xba0e350e	-0.0005424776
81	0x3ad86d39	0.0016512043
82	0xbcb90684	-0.022586115
83	0xbd44c123	-0.048035752
84	0x3bad22ab	0.0052836738
85	0xbd1c824e	-0.038210206
86	0x3caac6f8	0.020846829
87	0xbce2b127	-0.027672363
88	0xbc161453	-0.009160119
89	0xbd6120a9	-0.054962788
90	0xbcf8ad9d	-0.030356223
91	0x3bbf0e07	0.0058305296
92	0xbd934321	-0.07190538
93	0xbcd1d5d7	-0.025614662
94	0x3b450ffc	0.0030069342
95	0xbc858093	-0.01629666
96	0xbccebf67	-0.025237752
97	0x3c5400b9	0.012939625
98	0x3bb66b08	0.0055669583
99	0x3cf51dbe	0.029921409
100	0xbc4d6e6e	-0.0125385355
101	0xbccbedcb	-0.024893662
102	0x3c896f81	0.016776802
103	0xbcd6fcc2	-0.026243571
104	0x3c82db9d	0.01597386
105	0xbce43d47	-0.02786125
106	0xbaa7785b	-0.0012776958
107	0xbc1572de	-0.009121625
108	0xbb9bed65	-0.0047585242
109	0x3b988b97	0.0046553123
110	0xba944222	-0.0011311213
111	0xbc551d2c	-0.013007443
112	0xbd3cca56	-0.0460914
113	0xbd2c8549	-0.042119298
114	0x3b2c0e6b	0.002625371
115	0xbcbba0b6	-0.022903781
116	0xbd343488	-0.04399541
117	0x3c624369	0.013810017
118	0x3c9b27a1	0.018939795
119	0x3c16c79f	0.009202867
120	0xbd6ea4a2	-0.058262475
121	0xbd0f99aa	-0.035058655
122	0x3c4a1407	0.012333876
123	0x3bb2655a	0.005444211
124	0xbd101299	-0.035173986
125	0xbbf1c8cb	-0.0073786727
126	0xbbdd97cd	-0.006762481
127	0x3d2a10c3	0.04151989
128	0x3d1c8752	0.03821499
129	0x3c01fdc4	0.007934038
130	0x3b325032	0.0027208445
131	0x3b059858	0.0020384993
132	0x3bf4e076	0.007473047
133	0x3cec121b	0.028817227
134	0x3b8e4d1c	0.0043426882
135	0xbc73ca33	-0.014879751
136	0xbbee3924	-0.0072699953
137	0x3c2bab3f	0.01047784
138	0x3d2d78c0	0.042351484
139	0x3cf343bf	0.02969539
140	0x3ba259ee	0.004954568
141	0xbd0ba84b	-0.034096044
142	0x3abb885a	0.0014307604
143	0x3d79d019	0.060989473
144	0x3cca509a	0.024696637
145	0xbc7c4fde	-0.015399901
146	0xbb705c40	-0.003667608
147	0xbb072e50	-0.002062697
148	0xbbac7bce	-0.005263782
149	0x3c5c1439	0.013432556
150	0xbd05762f	-0.03258341
151	0x3d079fe9	0.033111487
152	0x3d565896	0.052330576
153	0x3ced6945	0.02898086
154	0xbb922416	-0.004459868
155	0x3c9a3754	0.01882521
156	0x3ca24a1b	0.019810727
157	0xbbc7512f	-0.006082676
158	0x3c44f207	0.012020594
159	0x3bd88552	0.00660769
160	0x3d161bdf	0.036647674
161	0x3b4f74f7	0.003165541
162	0xba51535f	-0.00079851405
163	0x3c7795ee	0.01511143
164	0x3c134db3	0.008990693
165	0xbba3be51	-0.0049970527
166	0x3d18d095	0.037308294
167	0xbb99e5f7	-0.0046966034
168	0xbb8c508e	-0.004282064
169	0x3c2cf779	0.010557049
170	0xbab9666e	-0.0014144906
171	0x3c089506	0.008336311
172	0x3d19c33d	0.03753971
173	0x3cda986b	0.026684007
174	0xbb279f6e	-0.0025577205
175	0x3b80bb5f	0.0039285864
176	0x3d1e8b0b	0.03870682
177	0x3c8af618	0.01696305
178	0x3bf1144a	0.007357155
179	0x3cfd31b3	0.030907487
180	0x3ae93810	0.0017793197
181	0xb9e7444a	-0.00044110633
182	0xbca0ef6b	-0.019645413
183	0x3c605957	0.013693175
184	0x3b5fc95c	0.003414712
185	0xbcda8f16	-0.026679557
186	0xbc0967f9	-0.008386605
187	0xbb46cfd4	-0.0030336278
188	0x3ccb262d	0.024798477
189	0x3be00caa	0.006837447
190	0x3ca5cb13	0.020238435
191	0x3cccb652	0.02498928
192	0xbb31f62d	-0.002715479
193	0xbc712027	-0.014717138
194	0x3cc52a34	0.024067976
195	0x3ce5ffd3	0.028076088
196	0x3bc3804d	0.0059662224
197	0xbbe6eb4e	-0.0070470935
198	0xbcbf9d04	-0.0233903
199	0x3d3cdde9	0.046110068
200	0xbc7e63f5	-0.015526761
201	0x3c962820	0.01832968
202	0x3cde1d1d	0.027113492
203	0x3d13e094	0.036102846
204	0x3cdfc6e1	0.027316513
205	0x3d58219c	0.052766427
206	0x3d49a330	0.049227893
207	0xbd0df28b	-0.034655135
208	0x3c276e79	0.01021921
209	0xbbfcba0b	-0.0077126077
210	0x3c64c688	0.013963349
211	0x3cea24d2	0.02858201
212	0xbc82d9e9	-0.015973048
213	0x3d491352	0.04909069
214	0x391cc2e8	0.00014949928
215	0xbc2996a9	-0.010350862
216	0x3c7b9b58	0.015356861
217	0x3d0cc11d	0.034363855
218	0x3d3a9ba6	0.045558594
219	0x3ad7d368	0.0016466202
220	0x3d2b1ec9	0.041777406
221	0x3bb3272e	0.005467317
222	0x3b848881	0.004044593
223	0x3ad22bfe	0.0016034839
224	0x3cf8b046	0.030357491
225	0x3c9eaf50	0.019370705
226	0x3c2495ca	0.010045478
227	0xbacc70d2	-0.0015597588
228	0xbc356f18	-0.01107385
229	0x3d090604	0.033453003
230	0x3d4c24c9	0.04983977
231	0x3d29ab24	0.041422978
232	0x3c1ed599	0.00969448
233	0x3ca9fbd1	0.020749958
234	0xbb7adcae	-0.0038278508
235	0xbaec5aba	-0.001803241
236	0x3bdb65d2	0.0066954875
237	0xbb67d913	-0.003537719
238	0x3a98bda5	0.0011653198
239	0x3c3e8675	0.011628737
240	0x3b881f0f	0.004154093
241	0x3ce5cf0b	0.028052827
242	0x3b815b48	0.003947649
243	0x3c932bd4	0.017965235
244	0x3b09958d	0.002099368
245	0x3c614ccf	0.013751223
246	0xbb8fa976	-0.004384215
247	0x3bec920c	0.0072195586
248	0x3d3ce63e	0.046118014
249	0x3c2c495b	0.010515536
250	0x3d23bfd9	0.039977882
251	0x3d078a34	0.033090785
252	0x3d0d767f	0.034536835
253	0x3d2091c5	0.039201517
254	0x3b06196c	0.002046193
255	0x3cdd6083	0.02702356

action_model._discrete_distribution.branches.1.bias f4 [5]
0	0x3d15d5c7	0.036580827
1	0xbcc287f8	-0.023746476
2	0xbb9577ff	-0.004561424
3	0xbc8e0ede	-0.017341074
4	0x3b2b25f2	0.0026115146
