results/ppo/AiAgents/AiAgents-93856.onnx (onnx, 86066 bytes, 9 tensors)

discrete_act_size_vector f4 [1, 2]
3.0 5.0
00000000: 0000 4040 0000 a040

network_body._body_endoder.seq_layers.0.weight f4 [128, 16]
-0.13491325 0.11640284 -0.0244867 0.25292727 0.0067827497 0.36284423 0.39341995 0.35933033
0.02649222 0.12082695 0.0082079 -0.5656818 0.1407415 0.08932579 0.008484177 -0.12196447
-0.14234595 -0.018067049 0.25620615 0.2653792 0.37380517 0.34402248 -0.25911224 -0.38493213
0.043006796 0.051446788 -0.093633346 0.00055588747 -0.24430855 -0.14754166 -0.18796413 -0.21899596
-0.0009543438 0.401336 0.3097884 -0.32571077 0.042294282 0.0026428353 -0.011717029 -0.15050617
0.55975354 0.2988007 0.12804274 0.34470308 0.6062633 -0.34884205 -0.22054547 0.29266927
0.122492954 0.03405794 0.030855816 0.0050925105 0.20382105 -0.15191288 0.5567994 0.17419392
-0.3745439 0.55463725 0.028815752 0.08810131 -0.20462978 -0.3576475 0.21369538 0.18483134
0.36041272 -0.11351342 -0.44739163 -0.13032813 -0.33468255 -0.004426466 0.14020018 0.022278145
0.42503515 -0.1554581 -0.13016999 -0.2497396 0.13104282 0.03475044 0.09612323 -0.025396667
-0.35658303 -0.6126519 -0.44708803 0.35498738 0.21450843 -0.086779304 -0.23177776 0.24458279
-0.14968164 0.3544017 0.29384717 -0.16937263 -0.09689488 -0.22044185 0.30000606 0.2164861
-0.20159437 0.16137803 0.16265482 -0.14388043 0.22054873 -0.00045037415 -0.10784758 0.46414652
0.16707933 0.28593707 0.30409518 0.7550608 -0.12948586 0.30181995 -0.07209581 -0.15294325
0.2011042 0.064235836 0.09534673 0.24649693 -0.19441892 -0.06128265 0.69765276 -0.024274165
0.37764385 0.1333443 0.14263996 0.18968885 0.25340718 -0.35475194 0.08343955 0.44366437
-0.14785458 -0.20506872 0.12387677 -0.31780136 0.23964518 0.31509987 0.11852738 -0.28918108
-0.19629407 -0.48260626 -0.5649757 0.16158159 0.121347226 0.39451104 -0.450134 -0.42464402
0.017427156 -0.12903012 0.33429825 0.33178696 0.059966877 0.22589129 -0.039874237 -0.15112989
-0.094371416 0.25744292 0.043665104 -0.086381964 -0.21501745 0.38204786 0.6250659 -0.25415802
0.14865796 0.04020635 -0.088206105 0.34674397 -0.073709555 0.13136505 -0.50355655 -0.21811964
-0.016160598 0.04447782 0.15904804 0.23096041 -0.08716937 -0.04640255 -0.3754713 -0.18645442
0.29589757 -0.35695654 0.34420583 -0.060872186 -0.40726024 -0.36154938 -0.16611774 -0.17797436
0.32810736 0.07480672 0.16643792 -0.09401119 -0.20886408 -0.3397711 0.17999516 0.21356653
-0.52434975 0.14898594 -0.06730357 0.22430252 -0.0020213984 0.19834365 -0.17052244 -0.07280438
-0.30289745 -0.1596031 -0.0857256 0.020470696 0.25448325 -0.18697153 0.3027248 0.26507556
0.15111418 0.52308124 0.25719255 -0.023116495 0.009991842 0.19706437 -0.30376408 0.4106395
0.045461725 -0.041579936 -0.15887803 0.12466924 0.1766943 0.19308634 -0.095188275 0.3548747
0.26695815 0.29550374 -0.02661041 -0.0018647366 -0.06973406 0.10340624 0.039100595 0.30865017
0.12548965 0.12854762 -0.1837751 -0.19489042 0.23829108 0.33643955 0.12311116 -0.12984008
-0.22290489 -0.03843418 -0.23584393 0.3028564 -0.14821987 0.08293933 0.23611964 -0.10398019
0.050944086 0.3078035 0.17752558 -0.0064865565 0.09167027 -0.57331204 0.33451077 -0.021695454
00000000: b326 0abe 9d64 ee3d 5598 c8bc af7f 813e
00000010: d441 de3b b8c6 b93e 576e c93e 25fa b73e
00000020: 3606 d93c 1f74 f73d 6e7a 063c 86d0 10bf
00000030: 8a1e 103e 71f0 b63d 3801 0b3c 82c8 f9bd
00000040: 23c3 11be 5901 94bc 742d 833e c8df 873e
00000050: 6463 bf3e b723 b03e 5caa 84be d315 c5be
00000060: e527 303d deb9 523d d7c2 bfbd fab8 113a
00000070: 052c 7abe 2915 17be ab79 40be 7a40 60be
00000080: ee2c 7aba ea7b cd3e 969c 9e3e 90c3 a6be
00000090: c53c 2d3d 6b33 2d3b c8f8 3fbc 4a1e 1abe
000000a0: 024c 0f3f 68fc 983e a31d 033e ec7c b03e
000000b0: 1234 1b3f 6d9b b2be acd6 61be bfd8 953e
000000c0: 96dd fa3d 5780 0b3d 56c5 fc3c 13df a63b
000000d0: 77b6 503e 0d8f 1bbe 688a 0e3f e45f 323e
000000e0: 38c4 bfbe b5fc 0d3f 030f ec3c 766e b43d
000000f0: 788a 51be 931d b7be f6d2 5a3e 6d44 3d3e
00000100: 0488 b83e b979 e8bd 8410 e5be bd74 05be
00000110: 835b abbe e30b 91bb a390 0f3e a880 b63c
00000120: 359e d93e 6830 1fbe 484b 05be bdbb 7fbe
00000130: 1730 063e 7a56 0e3d 42dc c43d ac0c d0bc
00000140: 0d92 b6be c1d6 1cbf b9e8 e4be e8c0 b53e
00000150: 19a8 5b3e 59b9 b1bd 2657 6dbe e973 7a3e
00000160: 2546 19be 2474 b53e 2373 963e 0570 2dbe
00000170: d370 c6bd 82bb 61be 659a 993e 88ae 5d3e
00000180: c16e 4ebe 4840 253e fc8e 263e 6455 13be
00000190: 87d7 613e 3220 ecb9 31df dcbd 9da4 ed3e
000001a0: d816 2b3e 5866 923e 5db2 9b3e aa4b 413f
000001b0: f197 04be 2588 9a3e f8a6 93bd 289d 1cbe
000001c0: 42ee 4d3e 148e 833d 2545 c33d b169 7c3e
000001d0: c115 47be 8403 7bbd 5f99 323f 9dda c6bc
000001e0: 895a c13e 688b 083e 3610 123e cb3d 423e
000001f0: 96be 813e 0ca2 b5be 5be2 aa3d fa27 e33e
00000200: 3167 17be 89fd 51be 1bb3 fd3d dcb6 a2be
00000210: 8c65 753e c554 a13e 7cbe f23d 8b0f 94be
00000220: 5001 49be 2b18 f7be 3fa2 10bf a575 253e
00000230: e584 f83d 5afd c93e f777 e6be f16a d9be
00000240: 65c3 8e3c 7920 04be 2429 ab3e fbdf a93e
00000250: d49f 753d 0c50 673e 2b53 23bd cbc1 1abe
00000260: cd45 c1bd 8fcf 833e 2eda 323d 07e9 b0bd
00000270: 892d 5cbe c79b c33e 5204 203f 0021 82be
00000280: cb39 183e 6aaf 243d 67a5 b4bd 6d88 b13e
00000290: 09f5 96bd 8f84 063e 15e9 00bf c15a 5fbe
000002a0: 3b63 84bc 602e 363d 7ddd 223e e380 6c3e
000002b0: db85 b2bd 9a10 3ebd c63d c0be e8ed 3ebe
000002c0: e37f 973e 02c3 b6be bf3b b03e 1d55 79bd
000002d0: 6a84 d0be 001d b9be c51a 2abe e93e 36be
000002e0: b0fd a73e 4434 993d b46e 2a3e f088 c0bd
000002f0: 77e0 55be 7af6 adbe a750 383e 2fb1 5a3e
00000300: c93b 06bf c58f 183e 74d6 89bd 8faf 653e
00000310: 7079 04bb 991a 4b3e 6f9d 2ebe 761a 95bd
00000320: 6015 9bbe ff6e 23be e790 afbd 29b2 a73c
00000330: a14b 823e 7775 3fbe bffe 9a3e fcb7 873e
00000340: adbd 1a3e a7e8 053f beae 833e ce5e bdbc
00000350: d3b4 233c 3ecb 493e f786 9bbe 573f d23e
00000360: 1336 3a3d b94f 2abd ecb0 22be 9652 ff3d
00000370: 5aef 343e 6db8 453e 12f2 c2bd 23b2 b53e
00000380: bdae 883e 444c 973e 13fe d9bc 2d6a f4ba
00000390: bbd0 8ebd a7c6 d33d f227 203d 6507 9e3e
000003a0: 5c80 003e fda1 033e 8a2f 3cbe 5b91 47be
000003b0: 9402 743e ce41 ac3e b421 fc3d ccf4 04be
000003c0: 2e41 64be 296d 1dbd 1281 71be fe0f 9b3e
000003d0: f3c6 17be 18dc a93d 59c9 713e 91f3 d4bd
000003e0: bfaa 503d 6c98 9d3e 44c9 353e 2e8d d4bb
000003f0: 9fbd bb3d 94c4 12bf ff44 ab3e aaba b1bc

network_body._body_endoder.seq_layers.0.bias f4 [128]
0.036548 -0.00069516775 0.02120451 0.0014484146 0.017658615 0.0032332242 0.015941015 0.051552027
-0.018176837 0.00093625934 -0.0055054626 -0.005615167 0.0014158109 0.028479775 0.03140489 -0.002385348
0.017972033 0.021864034 0.005909097 0.022399686 0.04734532 -0.00023044819 -0.011823399 0.0020007347
-0.0037605301 -0.018985983 -0.00044664385 -0.008644399 -0.03830199 -0.0003565623 0.003423198 0.030350134
0.00074533134 0.008986524 0.0024717308 -0.0030259388 -0.01122298 0.0027066548 0.013465621 0.047794938
-0.006353482 -0.009144071 -0.008936055 0.0070455763 -0.012617409 -0.0026019872 0.001053287 -0.025315616
0.015524469 0.007581105 0.0007701008 -0.014047915 -0.005746834 0.027853895 0.027273774 0.006858076
0.004241795 0.0024092665 -0.005006978 0.030053014 0.0010833335 0.011533453 0.019085266 0.001814083
-0.024802724 -0.0033152848 -0.008680956 -0.0009378397 -0.0016924415 0.019509114 0.0036045618 -0.0481121
0.00019315741 -0.0002553685 -0.00053516496 0.029573552 -0.00079449307 0.0028291638 0.008202843 -0.0006910089
0.026482431 0.0024151246 0.019604519 -0.0018613348 0.01433662 0.015311268 0.028605111 0.0153701035
-0.0032377199 -0.0013305245 -0.00022097092 -0.008700161 0.0149722975 0.006212536 0.015189853 0.0148022305
0.007615341 -0.0018937249 0.0060243425 -0.0009474957 0.0022512279 0.025735974 0.01988926 -0.0029886106
0.032596532 0.026745403 0.0073815803 -0.016000139 -0.0037398296 -0.009604981 0.028186373 -0.003431919
0.0024651305 0.02129924 -0.006982384 -8.823948e-05 0.00570259 -0.0011028387 0.001310997 0.0004388399
-0.0017118541 0.008819609 0.06219641 0.00022104991 0.012478591 -0.0007539881 -0.010603749 0.00023528746
00000000: 5bb3 153d eb3b 36ba 15b5 ad3c bbd8 bd3a
00000010: cda8 903c 80e4 533b bb96 823c 3828 533d
00000020: 97e7 94bc 4d6f 753a 2b67 b4bb 6fff b7bb
00000030: bb92 b93a 6b4e e93c 6aa2 003d 8053 1cbb
00000040: 163a 933c 341c b33c 19a1 c13b 8c7f b73c
00000050: 2bed 413d 77a4 71b9 eeb6 41bc c21e 033b
00000060: 3a73 76bb 7e88 9bbc 862b eab9 3da1 0dbc
00000070: 8ce2 1cbd fbf0 bab9 bb57 603b d8a0 f83c
00000080: 5762 433a 373c 133c c3fc 213b d44e 46bb
00000090: 97e0 37bc 2262 313b e89e 5c3c a0c4 433d
000000a0: df30 d0bb 03d1 15bc 8868 12bc 94de e63b
000000b0: 40b9 4ebc 1a86 2abb 720e 8a3a b262 cfbc
000000c0: 585a 7e3c eb6a f83b 97e0 493a 3a29 66bc
000000d0: f04f bcbb da2d e43c 406d df3c b6b9 e03b
000000e0: c1fe 8a3b c9e4 1d3b 9311 a4bb bd31 f63c
000000f0: a4fe 8d3a cff6 3c3c b458 9c3c 86c6 ed3a
00000100: 152f cbbc 4045 59bb 923a 0ebc 5bd9 75ba
00000110: ead4 ddba 94d1 9f3c 833a 6c3b 3211 45bd
00000120: 4c8a 4a39 fbe2 85b9 504a 0cba 3c44 f23c
00000130: 8745 50ba 7e69 393b 3865 063c d324 35ba
00000140: aff1 d83c 1147 1e3b a899 a03c 08f8 f3ba
00000150: 25e4 6a3c 1ddc 7a3c 4455 ea3c e3d2 7b3c
00000160: ed2f 54bb fe64 aeba 6eb4 67b9 1f8b 0ebc
00000170: 5e4e 753c 8792 cb3b dcde 783c 0e85 723c
00000180: 1c8a f93b dd36 f8ba d967 c53b 5c61 78ba
00000190: 5689 133b 40d4 d23c cdee a23c 91dc 43bb
000001a0: f183 053d 2d19 db3c 2fe1 f13b b912 83bc
000001b0: ee17 75bb 365e 1dbc 1ce7 e63c 0cea 60bb
000001c0: 078e 213b be7b ae3c 7bcc e4bb 360d b9b8
000001d0: cbdc ba3b 208d 90ba c2d5 ab3a 1814 e639
000001e0: 4b60 e0ba 1f80 103c aac1 7e3d a2c9 6739
000001f0: 0173 4c3c 49a7 45ba 59bb 2dbc 7fb7 7639

network_body._body_endoder.seq_layers.2.weight f4 [128, 128]
-0.14083311 0.005509719 0.09389226 -0.030442962 -0.094042964 0.043589797 -0.13132545 -0.03128064
0.013454023 0.15655734 0.064276226 -0.038216144 -0.010169086 -0.11112358 0.15516102 0.12854487
-0.03229036 -0.057379 -0.04751884 -0.11421413 -0.15987718 0.012652633 0.08804768 -0.04044979
-3.8838825e-05 0.1047917 0.07360213 0.09083768 -0.00914393 -0.08170004 0.08934217 0.06808712
0.0628107 0.01463957 0.06271747 -0.22801208 0.09222441 -0.019654281 0.057473317 0.01520825
0.09350303 -0.018871022 -0.059834402 -0.15894303 0.009450926 -0.026354177 0.052952774 0.0066431384
-0.14912678 0.07838495 0.1263326 0.034346346 0.062836476 0.03658997 -0.21968457 0.07956271
-0.10032056 -0.006759302 -0.021541 0.07310827 -0.032651313 -0.07919943 -0.05258518 0.12724449
0.1088291 -0.063587084 -0.08113086 -0.003056155 0.0020194766 -0.002835334 -0.09253716 -0.13231282
-0.0059248125 0.03768153 0.2557719 -0.004478833 -0.064440906 -0.12454238 0.09175264 0.1126183
-0.05621823 -0.076288216 0.07832912 -0.054414015 0.03802056 0.0048172413 -0.07076412 0.094413474
-0.09193739 0.10974616 -0.06015577 -0.08382675 -0.0053646974 0.042612426 -0.012374291 -0.022895886
0.091003105 -0.03439537 -0.013698095 0.008270722 -0.023780815 -0.09667043 0.020799171 0.13045467
-0.11425525 -0.07518309 -0.0048369817 0.043529578 0.12494343 -0.14997326 0.010031122 0.022985952
0.08126592 -0.12183563 0.13073084 0.08293942 0.17609666 -0.22897828 -0.08678185 0.030960012
0.06205206 -0.04927788 0.015002366 -0.07491814 0.03220085 -0.09776785 0.0070598493 0.042035736
-0.12330481 -0.021913083 -0.024964053 -0.12032901 0.009876666 0.13591662 -0.07089408 0.19911425
0.0902791 0.004020575 0.031407665 -0.09629398 -0.001065475 0.0069360454 -0.12413376 -0.09697262
0.10161545 0.0897894 -0.05162278 0.030052321 -0.13946486 -0.112286046 0.04412639 0.10710503
0.0154891135 0.19244099 -0.06500943 0.03426813 -0.13278885 0.07841606 -0.13788398 0.10542194
-0.06926474 -0.177633 0.13337086 -0.18430665 -0.11448987 0.00067625724 0.18236223 -0.08264724
0.0276123 -0.13507761 -0.08851815 0.060284797 -0.07454113 0.22624598 0.1009469 0.07630527
-0.11107018 0.032489713 -0.05963223 -0.05176513 -0.14751446 -0.04945126 0.08524348 0.074238844
0.051910385 -0.09326102 -0.12914419 -0.028983273 -0.10635838 0.03383683 0.03701778 0.048389185
-0.14773577 0.008232616 0.11850341 0.10326386 0.017338734 -0.06262248 -0.040666167 0.021727398
0.06171579 0.052779738 -0.15406005 -0.10709582 -0.03540448 -0.010040129 0.1467681 -0.019475766
-0.043790817 -0.05019514 -0.0847428 0.024897575 0.1822081 -0.023724357 -0.06663828 -0.18439464
-0.03248183 0.049570546 0.25086963 -0.07311104 0.2565292 -0.11132636 -0.06698692 0.04265387
0.01559901 0.105825335 0.0729433 -0.00029546945 -0.020367723 -0.048786487 -0.034503974 0.14615795
0.015771087 -0.008797461 -0.06243171 0.016664684 0.11989897 0.12992992 -0.112339534 0.1285614
-0.024360491 0.10150334 0.030722572 0.00647968 -0.008796542 0.004441311 0.14139986 0.09458665
-0.18061766 0.094866134 0.125169 0.108193345 0.114256 0.07076033 0.024736762 0.04567703
00000000: 8e36 10be df8a b43b 964a c03d 8563 f9bc
00000010: 9999 c0bd 378b 323d 2e7a 06be 2120 00bd
00000020: 436e 5c3c 9150 203e 41a3 833d 8888 1cbd
00000030: 3d9c 26bc c294 e3bd 88e2 1e3e 44a1 033e
00000040: e642 04bd 3e06 6bbd 1da3 42bd 19e9 e9bd
00000050: d8b6 23be fd4c 4f3c 5852 b43d aeae 25bd
00000060: dfe6 22b8 089d d63d b7bc 963d 1b09 ba3d
00000070: 6cd0 15bc 5a52 a7bd 07f9 b63d 4371 8b3d
00000080: e5a2 803d cfda 6f3c 0472 803d 007c 69be
00000090: 27e0 bc3d 0402 a1bc 2469 6b3d 062c 793c
000000a0: 847e bf3d 6797 9abc eb14 75bd f6c1 22be
000000b0: 0fd8 1a3c b7e4 d7bc 02e5 583d afae d93b
000000c0: b1b4 18be 4a88 a03d 555d 013e c1ae 0c3d
000000d0: 69b0 803d 5ddf 153d fef4 60be c6f1 a23d
000000e0: de74 cdbd 237d ddbb c076 b0bc cab9 953d
000000f0: 62bd 05bd 5033 a2bd 8f63 57bd 614c 023e
00000100: cbe1 de3d f239 82bd f027 a6bd c649 48bb
00000110: 3259 043b 03d1 39bb 1f84 bdbd 037d 07be
00000120: ee24 c2bb f357 1a3d 89f4 823e 2dc3 92bb
00000130: 98f9 83bd 1310 ffbd cfe8 bb3d 6ca4 e63d
00000140: 1645 66bd ff3c 9cbd 056b a03d 3be1 5ebd
00000150: 72bb 1b3d f3d9 9d3b c7ec 90bd da5b c13d
00000160: ac49 bcbd 98c2 e03d e665 76bd 5cad abbd
00000170: 58ca afbb 5e8a 2e3d 8abd 4abc 2790 bbbc
00000180: d65f ba3d 29e2 0cbd fa6d 60bc ec81 073c
00000190: fccf c2bc 25fb c5bd 0663 aa3c e995 053e
000001a0: a8fe e9bd 98f9 99bd 8b7f 9ebb 124c 323d
000001b0: 57e2 ff3d 9792 19be 9359 243c 094d bc3c
000001c0: bf6e a63d f584 f9bd 4ede 053e 25dc a93d
000001d0: af52 343e 4879 6abe afba b1bd da9f fd3c
000001e0: 4d2a 7e3d 9ad7 49bd 7ccc 753c af6e 99bd
000001f0: 0ae5 033d 833a c8bd 4f56 e73b aa2d 2c3d
00000200: 3b87 fcbd 1183 b3bc 6a81 ccbc 0e6f f6bd
00000210: bdd1 213c ba2d 0b3e ea30 91bd 9be4 4b3e
00000220: 40e4 b83d 07bf 833b 53a5 003d c735 c5bd
00000230: 69a7 8bba c447 e33b d739 febd 9599 c6bd
00000240: c31b d03d 81e3 b73d 6872 53bd 4930 f63c
00000250: e0cf 0ebe 3af6 e5bd e0bd 343d e259 db3d
00000260: 0dc6 7d3c 400f 453e aa23 85bd bd5c 0c3d
00000270: cdf9 07be 9998 a03d 7531 0dbe 75e7 d73d
00000280: acda 8dbd 6de5 35be 5f92 083e e2ba 3cbe
00000290: aa79 eabd db46 313a 2abd 3a3e f542 a9bd
000002a0: 3133 e23c c951 0abe 0149 b5bd 31ed 763d
000002b0: 05a9 98bd 07ad 673e 40bd ce3d f045 9c3d
000002c0: c378 e3bd ef13 053d ed40 74bd ac07 54bd
000002d0: 080e 17be 688d 4abd 2294 ae3d 890a 983d
000002e0: fc9f 543d a2ff bebd 603e 04be 546e edbc
000002f0: 6cd2 d9bd 7d98 0a3d f59f 173d bd33 463d
00000300: 0c48 17be 18e2 063c eab1 f23d 017c d33d
00000310: f609 8e3c 3740 80bd 9191 26bd a8fd b13c
00000320: b2c9 7c3d 912f 583d ebc1 1dbe 0e55 dbbd
00000330: 4a04 11bd 5a7f 24bc 604a 163e a48b 9fbc
00000340: 005e 33bd 6b99 4dbd a28d adbd 00f6 cb3c
00000350: c394 3a3e 9559 c2bc a779 88bd f3d1 3cbe
00000360: ab0b 05bd 7c0a 4b3d fc71 803e 3ebb 95bd
00000370: cc57 833e 13ff e3bd 7030 89bd d3b5 2e3d
00000380: fd92 7f3c f4ba d83d 4c63 953d 3de9 9ab9
00000390: 36da a6bc 57d4 47bd 0a54 0dbd 6eaa 153e
000003a0: 5e32 813c 3a23 10bc 65b8 7fbd 6084 883c
000003b0: 978d f53d 590c 053e 4512 e6bd 9aa5 033e
000003c0: a78f c7bc fce0 cf3d e7ad fb3c 7f53 d43b
000003d0: 5f1f 10bc 6b88 913b 20cb 103e a5b6 c13d
000003e0: d6f3 38be 2d49 c23d 4d2c 003e 7994 dd3d
000003f0: 0dff e93d cbea 903d c0a4 ca3c d617 3b3d

network_body._body_endoder.seq_layers.2.bias f4 [128]
-0.0024693282 0.023370698 0.011425817 0.049446598 -0.00020852633 0.007542639 -0.006198995 0.016534004
-0.0041846074 0.0044501475 0.022576518 0.0051035867 0.027140712 0.009391542 -0.0013845607 -0.0028639091
0.0016241717 0.051289257 -0.0030794241 -0.002776042 -0.002852677 0.0026490362 -0.0045775324 -0.02070913
-0.011821965 -0.0057822843 0.017115545 -1.516462e-14 -0.00017043621 0.017920097 -0.0053789075 -0.019670218
0.0013903262 -0.0004787069 0.0009230422 0.059933208 0.01863963 -0.005682672 -0.004594395 8.639378e-05
-0.0025023813 -0.0019153494 0.00043874417 0.048006844 0.03584297 0.023571037 0.05911533 -0.0019067809
-0.0023203087 -0.009377928 0.06121806 0.029729355 -0.0024123262 -0.0073813577 3.6899648e-05 -0.0016128946
0.0073808073 0.0048465473 0.0037292778 -0.001124098 -0.018273028 0.009496447 0.0044113323 -0.00013565154
-0.0033787498 -0.0011397603 2.3196537e-05 -0.01575257 -0.0020691094 -0.0010375938 -0.0028453998 0.019586513
-0.003418213 -0.0054434957 -0.005064732 0.0029693793 -0.00014182988 0.0033524607 -0.0041990317 0.010280535
-0.0044615213 0.034136076 -0.0016849042 0.008969167 -0.0038483161 0.06672838 -0.0015622148 0.0011044338
-0.0014824894 -5.221468e-06 -0.0039313296 0.025572259 -0.0069570886 -0.017018681 0.04187778 -0.0040062005
0.03279688 -0.02249205 0.043818805 0.023784366 -0.007848867 -0.003232457 0.031063048 0.0024390544
0.02444264 -0.0038572552 -0.006036696 -0.023979554 -0.011911354 -0.004440308 0.013154846 -0.0041701756
-0.0031505334 0.019083275 0.023965092 1.616488e-06 0.041119844 0.015433285 0.005919562 0.0020433466
-0.004080322 0.026191438 0.0027187648 -0.0014809722 0.0006815149 -0.005995803 0.0015166445 -0.015084384
00000000: 74d4 21bb e873 bf3c 5a33 3b3c 8488 4a3d
00000010: dca7 5ab9 3e28 f73b f020 cbbb 5272 873c
00000020: 081f 89bb 8bd2 913b 64f2 b83c fd3b a73b
00000030: 3356 de3c fbde 193c 267a b5ba 6cb0 3bbb
00000040: 29e2 d43a af14 523d 2ad0 49bb 42ee 35bb
00000050: faf3 3abb 749b 2d3b 20ff 95bb 32a6 a9bc
00000060: eab0 41bc 5179 bdbb e635 8c3c 3c97 88a8
00000070: 1fb7 32b9 2bcd 923c 8c41 b0bb 7023 a1bc
00000080: 9b3b b63a f4fa fab9 50f8 713a 867c 753d
00000090: 23b2 983c b535 babb 948c 96bb 4f2e b538
000000a0: fefe 23bb 760c fbba 3f07 e639 d3a2 443d
000000b0: 14d0 123d 0c18 c13c eb22 723d f3ec f9ba
000000c0: 5210 18bb e2a5 19bc cabf 7a3d fa8a f33c
000000d0: 1e18 1ebb 51df f1bb b2c4 1a38 c367 d3ba
000000e0: b3da f13b c9cf 9e3b e666 743b 7856 93ba
000000f0: 51b1 95bc fc96 1b3c f08c 903b af3d 0eb9
00000100: 046e 5dbb 0264 95ba 2f96 c237 890b 81bc
00000110: e599 07bb dfff 87ba e379 3abb e573 a03c
00000120: 1904 60bb 5a5f b2bb 0df6 a5bb eb99 423b
00000130: 2bb8 14b9 f5b4 5b3b 0898 89bb b06f 283c
00000140: f431 92bb 45d2 0b3d 01d8 dcba 6af3 123c
00000150: 0834 7cbb e4a8 883d 3bc3 ccba a6c2 903a
00000160: 1750 c2ba 1234 afb6 62d2 80bb ea7c d13c
00000170: 4af8 e3bb c36a 8bbc 0988 2b3d 7246 83bb
00000180: 0556 063d 3f41 b8bc 597b 333d 6ed7 c23c
00000190: 8998 00bc a1d7 53bb ef77 fe3c 8bd8 1f3b
000001a0: ee3b c83c 01ca 7cbb 7acf c5bb c570 c4bc
000001b0: d727 43bc 0180 91bb 6c87 573c f8a5 88bb
000001c0: 2e79 4ebb 8754 9c3c 7152 c43c 1bf6 d835
000001d0: 486d 283d e4db 7c3c e3f8 c13b abe9 053b
000001e0: 39b4 85bb 6d8f d63c 4e2d 323b 2e1d c2ba
000001f0: b1a7 323a 7178 c4bb 25ca c63a 7e24 77bc

action_model._discrete_distribution.branches.0.weight f4 [3, 128]
-0.00500416 -0.021201199 -0.016802449 -0.033239376 -0.0010272847 -0.04312703 0.006806757 -0.006918824
-0.0013781241 0.0010635734 -0.020138675 0.0072376477 -0.012413678 0.010679419 0.002297709 0.005831583
0.0056793047 -0.0183703 0.009165132 -0.004146324 0.005486498 0.005368416 -0.004028022 0.00063310907
-0.010514231 -0.013352553 -0.016549705 -0.0008504485 -0.012937926 -0.020481898 -0.007343138 -0.0036719309
-0.020398663 -0.011406282 -0.013464185 -0.01710284 -0.019780759 -0.00782233 0.007076616 -0.019133516
-0.0054319943 -0.017762514 -0.01430625 -0.029987209 -0.014075468 -0.031090595 -0.01767168 -0.0045407135
-0.009883368 -0.025987038 -0.020932386 -0.035554525 -0.001965589 0.0015751258 -0.004574146 -0.0031484617
0.0218247 -0.010513653 -0.011896996 0.0048861858 0.0026951714 -0.0027081836 -0.009993824 0.0023239644
0.0027509974 0.0038263078 -0.009744614 -0.013459745 0.00039817617 -0.012527778 -7.3420546e-05 -0.020938909
-0.0086873025 0.010081756 -0.00302453 -0.0039730016 0.0022340766 -0.016935643 -0.0071482384 0.014277732
-0.002419312 -0.012231383 -0.001300121 -0.013829097 -0.0073325243 -0.020289946 0.001247264 0.0062355204
0.0121534765 -0.003325968 0.0031673498 -0.022159992 0.0050850743 0.021332711 -0.022373099 -0.0028312616
-0.025040511 -0.0011225241 -0.014973311 -0.018549878 -0.00343929 0.0061041764 -0.025866726 -0.0029681476
-0.014559194 -0.00073991163 -0.0036064829 -0.00091906486 -0.0129586905 0.0073875347 -0.0097731 0.0038814018
-0.003694954 0.0029919408 -0.018293884 -0.0024944358 -0.022570763 -0.014780558 -0.002537309 -0.006365345
0.005545132 -0.020028377 -0.0015930027 0.02491699 -0.012718554 0.00024471333 -0.0011765017 0.0015692762
-0.012160483 -0.014426701 -0.007242495 -0.031635426 0.0031888678 -0.0055371593 0.0058139595 -0.017911313
-0.008128745 -0.005128208 -0.034106586 -0.008115149 -0.030719781 -0.0089354 -0.006185879 0.020373808
-0.019385424 -0.018018102 -0.0033814504 -0.008084284 0.011209322 -0.007350863 -0.01059866 0.0039098132
0.0016300643 0.0011925618 -0.045157004 0.002616689 -0.00062670506 -0.004709847 -0.0027758176 -0.00074117904
0.004885223 0.008589927 0.007283246 -0.012070557 -0.0041121743 0.0140926065 0.008033607 0.0055274284
-0.012214769 0.0064629167 -0.00029463306 -0.016486218 -0.018369019 -0.021959929 -0.014308912 0.0053342856
-0.0055802725 0.014260431 -0.013481863 -0.017510246 -0.0065940605 0.007610235 0.0029001203 -0.0045450693
-0.018013105 0.010673966 0.010316913 -0.0003889494 0.006640399 -0.005561873 0.005716347 -0.012245905
-0.0048015993 -6.1495215e-05 -0.012186202 0.007358473 0.008606317 0.0054126387 0.0074947244 -0.0066108163
0.006693325 0.0079805 -0.0064071934 -0.003728551 -0.0044880467 -0.0014664873 -0.012128264 -0.008653201
0.003602209 -0.025621725 -0.0023178775 -0.001215119 -0.004636942 -0.013934205 -0.0010411857 0.0004112792
-0.0013116584 -0.023151822 0.012393826 -0.006191031 0.00977495 0.007266938 -0.022139803 0.0003857359
-0.0070030456 0.028159946 -0.016585832 -0.025973823 0.0065657552 -0.0028290583 -0.017116655 5.9073776e-05
-0.0115346685 -0.012111437 -0.005532232 0.02615827 0.0015259763 0.0031566636 -0.00685346 0.0085534705
-0.0028404773 -0.018091151 -0.00641335 0.008857514 -0.014155777 -0.0073916605 -0.0076153036 -0.012892458
-0.0045218365 -0.006508914 -0.019349156 -0.016863652 -0.017006949 0.0007480924 -0.0031952567 0.0043926695
00000000: f0f9 a3bb 23ae adbc 4aa5 89bc 0326 08bd
00000010: f4a5 86ba f8a5 30bd 370b df3b 4db7 e2bb
00000020: 2ca2 b4ba 9a67 8b3a ddf9 a4bc ca29 ed3b
00000030: bd62 4bbc bbf8 2e3c 2995 163b dd16 bf3b
00000040: 7619 ba3b 507d 96bc 5a29 163c e3dd 87bb
00000050: 15c8 b33b 8ae9 af3b 7ffd 83bb 3bf7 253a
00000060: e243 2cbc abc4 5abc 3f93 87bc a2f0 5eba
00000070: 98f9 53bc a7c9 a7bc b59e f0bb c7a4 70bb
00000080: 191b a7bc 6ae1 3abc e398 5cbc 411b 8cbc
00000090: 420b a2bc 3b29 00bc f5e2 e73b e4bd 9cbc
000000a0: dffe b1bb b182 91bc c364 6abc bca7 f5bc
000000b0: cb9c 66bc b4b1 febc 33c4 90bc 44ca 94bb
000000c0: daed 21bc c5e2 d4bc 657a abbc 9fa1 11bd
000000d0: 1cd1 00bb 7474 ce3a b8e2 95bb 6c56 4ebb
000000e0: b7c9 b23c 7541 2cbc 9eeb 42bc 4c1c a03b
000000f0: 79a1 303b c87b 31bb 23bd 23bc a74d 183b
00000100: 144a 343b cbc2 7a3b e0a7 1fbc 4386 5cbc
00000110: 4dc2 d039 4f41 4dbc 5bf9 99b8 1388 abbc
00000120: 3055 0ebc f32d 253c 3137 46bb f42f 82bb
00000130: 9669 123b 9ebc 8abc c53b eabb 26ed 693c
00000140: 528d 1ebb 2366 48bc d268 aaba 7093 62bc
00000150: ac45 f0bb 1a37 a6bc 3c7b a33a 5653 cc3b
00000160: 601f 473c 7cf8 59bb 5093 4f3b df88 b5bc
00000170: b2a0 a63b f0c1 ae3c ca47 b7bc b08c 39bb
00000180: c221 cdbc a921 93ba 9e52 75bc eaf5 97bc
00000190: b665 61bb 8b05 c83b 75e6 d3bc 4185 42bb
000001a0: b089 6ebc a1f6 41ba be5a 6cbb 66ed 70ba
000001b0: b050 54bc 2213 f23b 5a1f 20bc 1e5f 7e3b
000001c0: 0b27 72bb 7014 443b 0edd 95bc b079 23bb
000001d0: 52e6 b8bc 272a 72bc fb48 26bb 6294 d0bb
000001e0: f0b3 b53b 8d12 a4bc 4dcc d0ba b71e cc3c
000001f0: 7b61 50bc de4c 8039 d934 9aba 2cb0 cd3a
00000200: c33c 47bc f85d 6cbc 7452 edbb 2694 01bd
00000210: 53fc 503b 0f71 b5bb 0783 be3b bfba 92bc
00000220: 6d2e 05bc 870a a8bb 59b3 0bbd 67f5 04bc
00000230: 0da8 fbbc c965 12bc eab2 cabb f9e6 a63c
00000240: 2ece 9ebc b39a 93bc 539b 5dbb f273 04bc
00000250: 4ea7 373c 82df f0bb 01a6 2dbc e41d 803b
00000260: e2a7 d53a bc4f 9c3a 8df6 38bd c27c 2b3b
00000270: 7749 24ba 0f55 9abb 7eea 35bb af4b 42ba
00000280: 3914 a03b c4bc 0c3c 4ca8 ee3b 96c3 45bc
00000290: 6bbf 86bb ade4 663c 649f 033c 6e1f b53b
000002a0: 7420 48bc e0c6 d33b fb78 9ab9 1b0e 87bc
000002b0: a07a 96bc 4fe5 b3bc ed6f 6abc 3bcb ae3b
000002c0: b8da b6bb 95a4 693c 08e3 5cbc a671 8fbc
000002d0: fd12 d8bb 475f f93b f20f 3e3b ceee 94bb
000002e0: 3890 93bc dce1 2e3c 4508 293c e8eb cbb9
000002f0: b497 d93b 5f40 b6bb 3250 bb3b 0ca3 48bc
00000300: bc56 9dbb fef6 80b8 a3a8 47bc 581f f13b
00000310: 8301 0d3c 815c b13b 4e96 f53b 8c9f d8bb
00000320: ae53 db3b a5c0 023c 6ff3 d1bb b55a 74bb
00000330: 7710 93bb 2637 c0ba a0b5 46bc 28c6 0dbc
00000340: 0a13 6c3b a7e4 d1bc 88e7 17bb a144 9fba
00000350: 7df1 97bb 4b4c 64bc 6578 88ba f6a0 d739
00000360: f4eb abba e4a8 bdbc 790f 4b3c 22de cabb
00000370: 1d27 203c 7f1f ee3b 885e b5bc 993c ca39
00000380: ce79 e5bb b0af e63c 03df 87bc 0ec7 d4bc
00000390: 8c25 d73b b967 39bb 3a38 8cbc fcc5 7738
000003a0: e8fb 3cbc 0c6f 46bc ba47 b5bb de49 d63c
000003b0: 4503 c83a 07e0 4e3b fd92 e0bb db23 0c3c
000003c0: 4d27 3abb e533 94bc 1427 d2bb 1b1f 113c
000003d0: a2ed 67bc be35 f2bb cc89 f9bb e33a 53bc
000003e0: ea2b 94bb ba48 d5bb 1f82 9ebc a425 8abc
000003f0: 2852 8bbc a21b 443a 8367 51bb 62f0 8f3b

action_model._discrete_distribution.branches.0.bias f4 [3]
-0.010646903 -0.022992361 -0.008233053
00000000: 5970 2ebc 7a5a bcbc ede3 06bc

action_model._discrete_distribution.branches.1.weight f4 [5, 128]
0.008771224 -0.013006013 -0.0048132697 -0.017058697 -0.0016535084 0.00073249894 -0.005994388 -0.017250411
0.01343422 -0.036369264 -0.018298784 0.0017029053 -0.01780816 0.005055728 0.007100492 0.008037188
0.009542702 -0.007328051 0.002116319 -0.015526642 0.010237141 0.0014800399 0.007187964 -0.0068427976
-0.011378229 -0.011816956 -0.0022045604 -0.005222392 -0.002470148 -0.017942067 -0.0070002684 -0.012395052
0.010877292 -0.013694417 -0.014683543 -0.007770968 -0.0044278875 0.023820598 0.0126681905 -0.016792139
-0.0013435293 0.010631807 -0.021887742 -0.019074677 0.0012319365 -0.034843784 -0.000550217 0.0031919468
-0.0009917796 0.0018651781 -0.008172857 -0.007531172 -0.019885387 0.010644695 -0.00404145 0.00506381
0.013737932 0.012722964 0.009535356 0.005355625 -0.00016094281 0.003793658 0.0055218404 -0.0019841695
0.005283767 0.012800087 0.013874654 -0.022280358 -0.00028748848 -0.00713363 0.018015107 -0.027104137
-0.006279029 0.0041943523 0.015385703 -0.0071421624 -0.008832926 0.01721358 -0.0020930266 -0.0011176642
-0.009697302 -0.019612703 0.007644826 -0.025386976 0.014357341 -0.028419849 -0.005721998 -0.011868966
0.018876188 0.010451246 0.006169533 -0.014083003 0.003466218 0.0061024306 -0.008657535 -0.0045906664
-0.00990445 0.0064056814 -0.0067233676 0.0039082933 -0.0006229534 0.0011418746 0.005323964 0.0032127001
-0.018404342 0.010409733 0.003096828 0.015690576 -0.007098688 -0.0025214707 -0.0074050697 0.0018066119
0.00241402 0.0068518836 -0.0045728353 -0.00783373 -0.007759061 -0.02282221 -0.0070131267 0.011201529
-0.001294461 -0.010705062 -0.012376659 0.008511961 -0.0014058246 0.0044738567 0.00030409492 -0.008332094
-0.005534749 -0.008823604 0.0012498893 -0.004556783 -0.017421579 -0.0061202073 0.01632167 -0.012381302
-0.032317612 0.035221674 -0.0025095777 -0.024099533 -0.0112560345 -0.019689828 -0.0069825104 0.012516716
-0.0055919657 -0.013436066 0.017261323 0.00033004076 0.001822756 -0.0062603415 -0.009155589 -0.0033826954
-0.00041301938 -0.0102416435 -0.017165825 0.009538009 0.012694757 -0.013814601 -0.0013146403 -0.01021088
0.013777733 0.000765304 -0.0039914106 -0.0006419518 0.00090163347 0.0005803676 -0.00688344 -0.008285219
0.0053706164 0.002794918 -0.027227124 0.0006191005 -0.008807634 -0.007071153 -0.015229745 -0.01938547
0.008394641 -0.015287597 0.00013737177 -0.0010302112 0.014444636 -0.0056194067 0.006419952 0.00658956
0.0083071785 -0.014603486 -0.00993317 -0.0014687168 -0.0075158183 0.0072819088 0.007969202 -0.008601675
-0.0017292899 0.007927935 -0.00052914483 0.019148158 0.002294222 -0.006245856 -0.015224733 0.0026615234
-0.0009691276 -0.010302803 -0.008059133 -0.0060032713 -0.013462149 -0.012584037 -0.003984431 0.0013783141
-0.006882745 0.003772785 0.0001303269 -0.007506215 0.025239682 -0.007592719 -0.0072870757 -0.0016562485
0.0031301833 0.009252545 0.00018425999 -0.01061458 0.007888187 0.005795543 -0.00023641741 -0.003509543
-0.017509745 0.00653325 0.004497174 -0.017671788 -0.00957166 0.0073151994 -0.0019299472 -0.0047998303
-0.01298261 0.00289403 0.011372574 -0.012268763 -0.0018189796 0.0060031787 -0.020324307 -0.007666759
0.0034540866 -0.0074927895 -0.005846486 -0.0024804182 -4.386504e-05 -0.013194785 0.009014143 0.003836455
-0.005248236 0.006242612 -0.0032950877 -0.00037657414 -0.00934484 -0.004113163 0.005764263 -0.0076491665
00000000: 2eb5 0f3c 2c17 55bc a2b8 9dbb aebe 8bbc
00000010: 89ba d8ba 2c05 403a 926c c4bb bc50 8dbc
00000020: 341b 5c3c f0f7 14bd 55e7 95bc 0534 df3a
00000030: 6be2 91bc 85aa a53b 3eab e83b 69ae 033c
00000040: fe58 1c3c 2620 f0bb f1b1 0a3b 7563 7ebc
00000050: aeb9 273c e6fd c13a 0389 eb3b 8c39 e0bb
00000060: c06b 3abc e89b 41bc 637a 10bb 9920 abbb
00000070: 35e2 21bb 3efb 92bc 8262 e5bb 9e14 4bbc
00000080: ab36 323c 8c5e 60bc 3e93 70bc 9ba3 febb
00000090: d017 91bb 6a23 c33c 3e8e 4f3c ab8f 89bc
000000a0: 5d19 b0ba 0831 2e3c ec4d b3bc 7f42 9cbc
000000b0: ee78 a13a 5bb8 0ebd 703c 10ba fb2f 513b
000000c0: 9afe 81ba fe78 f43a 72e7 05bc 0dc8 f6bb
000000d0: aee6 a2bc 1667 2e3c 246e 84bb 51ee a53b
000000e0: 1015 613c fb73 503c 2f3a 1c3c 3d7e af3b
000000f0: c2c2 28b9 059f 783b 8ef0 b43b d708 02bb
00000100: 7323 ad3b 75b7 513c 8452 633c 4c85 b6bc
00000110: 0dba 96b9 3ac1 e9bb 6b94 933c 7f09 debc
00000120: 50c0 cdbb c770 893b 5114 7c3c cd08 eabb
00000130: fab7 10bc 7e03 8d3c 292b 09bb 967e 92ba
00000140: 6fe1 1ebc d2aa a0bc 7381 fa3b 59f8 cfbc
00000150: 0e3b 6b3c bed0 e8bc 997f bbbb 0d76 42bc
00000160: 3ca2 9a3c b43b 2b3c cb29 ca3b 65bc 66bc
00000170: 7d29 633b e6f6 c73b 55d8 0dbc 4d6d 96bb
00000180: 4646 22bc c0e6 d13b b24f dcbb 2411 803b
00000190: b24d 23ba f4aa 953a a674 ae3b 2a8c 523b
000001a0: b4c4 96bc 968d 2a3c 27f4 4a3b 8689 803c
000001b0: 1c9c e8bb 423f 25bb 3aa6 f2bb d6cb ec3a
000001c0: 8934 1e3b c485 e03b b9d7 95bb 0c59 00bc
000001d0: b93f febb a5f5 babc 5fce e5bb 9e86 373c
000001e0: e7aa a9ba 4964 2fbc 78c7 4abc c175 0b3c
000001f0: a543 b8ba 6e99 923b ee6e 9f39 5683 08bc
00000200: d75c b5bb e190 10bc 53d3 a33a 1151 95bb
00000210: b3b7 8ebc 058c c8bb 06b5 853c f2da 4abc
00000220: 795f 04bd 9a44 103d ba77 24bb 626c c5bc
00000230: 3b6b 38bc 904c a1bc 8bcd e4bb e912 4d3c
00000240: cf3c b7bb f222 5cbc 9e67 8d3c 5209 ad39
00000250: 8be9 ee3a 8d23 cdbb 5301 16bc 36b0 5dbb
00000260: 868a d8b9 91cc 27bc 589f 8cbc 4f45 1c3c
00000270: acfd 4f3c a356 62bc 0250 acba 894b 27bc
00000280: 00bc 613c af9e 483a 61ca 82bb a848 28ba
00000290: 995b 6c3a cf23 183a 7b8e e1bb babe 07bc
000002a0: fffb af3b f12a 373b 6b0b dfbc 224b 223a
000002b0: e54d 10bc 21b5 e7bb 2e86 79bc 47ce 9ebc
000002c0: ad89 093c d478 7abc 740b 1039 2708 87ba
000002d0: 32a9 6c3c 0023 b8bb 765e d23b 3ced d73b
000002e0: d51a 083c 7643 6fbc bcbe 22bc f581 c0ba
000002f0: 4147 f6bb 149d ee3b 4191 023c 0aee 0cbc
00000300: 57a9 e2ba 2be4 013c 4fb6 0aba 99dc 9c3c
00000310: a85a 163b 0aaa ccbb 2971 79bc f46c 2e3b
00000320: 0d0d 7eba 16cd 28bc 740a 04bc 17b7 c4bb
00000330: 5890 5cbc 472d 4ebc d48f 82bb 8ca8 b43a
00000340: a688 e1bb d440 773b 5ca8 0839 b2f6 f5bb
00000350: 73c3 ce3c 58cc f8bb 6cc8 eebb 7a16 d9ba
00000360: c323 4d3b fd97 173c ea35 4139 c6e8 2dbc
00000370: 743d 013c 8ae8 bd3b d1e6 77b9 5c00 66bb
00000380: 9970 8fbc e014 d63b 085d 933b 6dc4 90bc
00000390: 74d2 1cbc 57b4 ef3b 48f6 fcba e547 9dbb
000003a0: 03b5 54bc c4a9 3d3b 0854 3a3c ec02 49bc
000003b0: d46a eeba 50b6 c43b 297f a6bc 7039 fbbb
000003c0: f55d 623b 1386 f5bb e193 bfbb 838e 22bb
000003d0: bafb 37b8 f12e 58bc 0eb0 133c 096d 7b3b
000003e0: 65f9 abbb d38e cc3b 66f2 57bb ed6e c5b9
000003f0: 1a1b 19bc b6c7 86bb 25e2 bc3b dca5 fabb

action_model._discrete_distribution.branches.1.bias f4 [5]
-0.02509238 0.0022315786 -0.00932658 -0.007748305 -0.008765664
00000000: 898e cdbc ad3f 123b 83ce 18bc 7ee5 fdbb
00000010: dc9d 0fbc
